…
I0424 22:26:50.898983 25635 net.cpp:294] The NetState phase (0) differed from the phase (1) specified by a rule in layer accuracy_top5
I0424 22:26:50.899502 25635 net.cpp:51] Initializing net from parameters: 
state {
  phase: TRAIN
  level: 0
  stage: ""
}
layer {
  name: "data"
  type: "ImageData"
  top: "data"
  top: "label"
  include {
    phase: TRAIN
  }
  transform_param {
    mean_value: 104
    mean_value: 117
    mean_value: 123
  }
  image_data_param {
    source: "./trainval.txt"
    batch_size: 40
    mirror: true
    shuffle: true
  }
}
layer {
  name: "conv1"
  type: "Convolution"
  bottom: "data"
  top: "conv1"
  convolution_param {
    num_output: 64
    kernel_size: 3
    stride: 2
    weight_filler {
      type: "xavier"
    }
  }
}
layer {
  name: "relu_conv1"
  type: "ReLU"
  bottom: "conv1"
  top: "conv1"
}
layer {
  name: "pool1"
  type: "Pooling"
  bottom: "conv1"
  top: "pool1"
  pooling_param {
    pool: MAX
    kernel_size: 3
    stride: 2
  }
}
layer {
  name: "fire2/squeeze1x1"
  type: "Convolution"
  bottom: "pool1"
  top: "fire2/squeeze1x1"
  convolution_param {
    num_output: 16
    kernel_size: 1
    weight_filler {
      type: "xavier"
    }
  }
}
layer {
  name: "fire2/relu_squeeze1x1"
  type: "ReLU"
  bottom: "fire2/squeeze1x1"
  top: "fire2/squeeze1x1"
}
layer {
  name: "fire2/expand1x1"
  type: "Convolution"
  bottom: "fire2/squeeze1x1"
  top: "fire2/expand1x1"
  convolution_param {
    num_output: 64
    kernel_size: 1
    weight_filler {
      type: "xavier"
    }
  }
}
layer {
  name: "fire2/relu_expand1x1"
  type: "ReLU"
  bottom: "fire2/expand1x1"
  top: "fire2/expand1x1"
}
layer {
  name: "fire2/expand3x3"
  type: "Convolution"
  bottom: "fire2/squeeze1x1"
  top: "fire2/expand3x3"
  convolution_param {
    num_output: 64
    pad: 1
    kernel_size: 3
    weight_filler {
      type: "xavier"
    }
  }
}
layer {
  name: "fire2/relu_expand3x3"
  type: "ReLU"
  bottom: "fire2/expand3x3"
  top: "fire2/expand3x3"
}
layer {
  name: "fire2/concat"
  type: "Concat"
  bottom: "fire2/expand1x1"
  bottom: "fire2/expand3x3"
  top: "fire2/concat"
}
layer {
  name: "fire3/squeeze1x1"
  type: "Convolution"
  bottom: "fire2/concat"
  top: "fire3/squeeze1x1"
  convolution_param {
    num_output: 16
    kernel_size: 1
    weight_filler {
      type: "xavier"
    }
  }
}
layer {
  name: "fire3/relu_squeeze1x1"
  type: "ReLU"
  bottom: "fire3/squeeze1x1"
  top: "fire3/squeeze1x1"
}
layer {
  name: "fire3/expand1x1"
  type: "Convolution"
  bottom: "fire3/squeeze1x1"
  top: "fire3/expand1x1"
  convolution_param {
    num_output: 64
    kernel_size: 1
    weight_filler {
      type: "xavier"
    }
  }
}
layer {
  name: "fire3/relu_expand1x1"
  type: "ReLU"
  bottom: "fire3/expand1x1"
  top: "fire3/expand1x1"
}
layer {
  name: "fire3/expand3x3"
  type: "Convolution"
  bottom: "fire3/squeeze1x1"
  top: "fire3/expand3x3"
  convolution_param {
    num_output: 64
    pad: 1
    kernel_size: 3
    weight_filler {
      type: "xavier"
    }
  }
}
layer {
  name: "fire3/relu_expand3x3"
  type: "ReLU"
  bottom: "fire3/expand3x3"
  top: "fire3/expand3x3"
}
layer {
  name: "fire3/concat"
  type: "Concat"
  bottom: "fire3/expand1x1"
  bottom: "fire3/expand3x3"
  top: "fire3/concat"
}
layer {
  name: "pool3"
  type: "Pooling"
  bottom: "fire3/concat"
  top: "pool3"
  pooling_param {
    pool: MAX
    kernel_size: 3
    stride: 2
  }
}
layer {
  name: "fire4/squeeze1x1"
  type: "Convolution"
  bottom: "pool3"
  top: "fire4/squeeze1x1"
  convolution_param {
    num_output: 32
    kernel_size: 1
    weight_filler {
      type: "xavier"
    }
  }
}
layer {
  name: "fire4/relu_squeeze1x1"
  type: "ReLU"
  bottom: "fire4/squeeze1x1"
  top: "fire4/squeeze1x1"
}
layer {
  name: "fire4/expand1x1"
  type: "Convolution"
  bottom: "fire4/squeeze1x1"
  top: "fire4/expand1x1"
  convolution_param {
    num_output: 128
    kernel_size: 1
    weight_filler {
      type: "xavier"
    }
  }
}
layer {
  name: "fire4/relu_expand1x1"
  type: "ReLU"
  bottom: "fire4/expand1x1"
  top: "fire4/expand1x1"
}
layer {
  name: "fire4/expand3x3"
  type: "Convolution"
  bottom: "fire4/squeeze1x1"
  top: "fire4/expand3x3"
  convolution_param {
    num_output: 128
    pad: 1
    kernel_size: 3
    weight_filler {
      type: "xavier"
    }
  }
}
layer {
  name: "fire4/relu_expand3x3"
  type: "ReLU"
  bottom: "fire4/expand3x3"
  top: "fire4/expand3x3"
}
layer {
  name: "fire4/concat"
  type: "Concat"
  bottom: "fire4/expand1x1"
  bottom: "fire4/expand3x3"
  top: "fire4/concat"
}
layer {
  name: "fire5/squeeze1x1"
  type: "Convolution"
  bottom: "fire4/concat"
  top: "fire5/squeeze1x1"
  convolution_param {
    num_output: 32
    kernel_size: 1
    weight_filler {
      type: "xavier"
    }
  }
}
layer {
  name: "fire5/relu_squeeze1x1"
  type: "ReLU"
  bottom: "fire5/squeeze1x1"
  top: "fire5/squeeze1x1"
}
layer {
  name: "fire5/expand1x1"
  type: "Convolution"
  bottom: "fire5/squeeze1x1"
  top: "fire5/expand1x1"
  convolution_param {
    num_output: 128
    kernel_size: 1
    weight_filler {
      type: "xavier"
    }
  }
}
layer {
  name: "fire5/relu_expand1x1"
  type: "ReLU"
  bottom: "fire5/expand1x1"
  top: "fire5/expand1x1"
}
layer {
  name: "fire5/expand3x3"
  type: "Convolution"
  bottom: "fire5/squeeze1x1"
  top: "fire5/expand3x3"
  convolution_param {
    num_output: 128
    pad: 1
    kernel_size: 3
    weight_filler {
      type: "xavier"
    }
  }
}
layer {
  name: "fire5/relu_expand3x3"
  type: "ReLU"
  bottom: "fire5/expand3x3"
  top: "fire5/expand3x3"
}
layer {
  name: "fire5/concat"
  type: "Concat"
  bottom: "fire5/expand1x1"
  bottom: "fire5/expand3x3"
  top: "fire5/concat"
}
layer {
  name: "pool5"
  type: "Pooling"
  bottom: "fire5/concat"
  top: "pool5"
  pooling_param {
    pool: MAX
    kernel_size: 3
    stride: 2
  }
}
layer {
  name: "fire6/squeeze1x1"
  type: "Convolution"
  bottom: "pool5"
  top: "fire6/squeeze1x1"
  convolution_param {
    num_output: 48
    kernel_size: 1
    weight_filler {
      type: "xavier"
    }
  }
}
layer {
  name: "fire6/relu_squeeze1x1"
  type: "ReLU"
  bottom: "fire6/squeeze1x1"
  top: "fire6/squeeze1x1"
}
layer {
  name: "fire6/expand1x1"
  type: "Convolution"
  bottom: "fire6/squeeze1x1"
  top: "fire6/expand1x1"
  convolution_param {
    num_output: 192
    kernel_size: 1
    weight_filler {
      type: "xavier"
    }
  }
}
layer {
  name: "fire6/relu_expand1x1"
  type: "ReLU"
  bottom: "fire6/expand1x1"
  top: "fire6/expand1x1"
}
layer {
  name: "fire6/expand3x3"
  type: "Convolution"
  bottom: "fire6/squeeze1x1"
  top: "fire6/expand3x3"
  convolution_param {
    num_output: 192
    pad: 1
    kernel_size: 3
    weight_filler {
      type: "xavier"
    }
  }
}
layer {
  name: "fire6/relu_expand3x3"
  type: "ReLU"
  bottom: "fire6/expand3x3"
  top: "fire6/expand3x3"
}
layer {
  name: "fire6/concat"
  type: "Concat"
  bottom: "fire6/expand1x1"
  bottom: "fire6/expand3x3"
  top: "fire6/concat"
}
layer {
  name: "fire7/squeeze1x1"
  type: "Convolution"
  bottom: "fire6/concat"
  top: "fire7/squeeze1x1"
  convolution_param {
    num_output: 48
    kernel_size: 1
    weight_filler {
      type: "xavier"
    }
  }
}
layer {
  name: "fire7/relu_squeeze1x1"
  type: "ReLU"
  bottom: "fire7/squeeze1x1"
  top: "fire7/squeeze1x1"
}
layer {
  name: "fire7/expand1x1"
  type: "Convolution"
  bottom: "fire7/squeeze1x1"
  top: "fire7/expand1x1"
  convolution_param {
    num_output: 192
    kernel_size: 1
    weight_filler {
      type: "xavier"
    }
  }
}
layer {
  name: "fire7/relu_expand1x1"
  type: "ReLU"
  bottom: "fire7/expand1x1"
  top: "fire7/expand1x1"
}
layer {
  name: "fire7/expand3x3"
  type: "Convolution"
  bottom: "fire7/squeeze1x1"
  top: "fire7/expand3x3"
  convolution_param {
    num_output: 192
    pad: 1
    kernel_size: 3
    weight_filler {
      type: "xavier"
    }
  }
}
layer {
  name: "fire7/relu_expand3x3"
  type: "ReLU"
  bottom: "fire7/expand3x3"
  top: "fire7/expand3x3"
}
layer {
  name: "fire7/concat"
  type: "Concat"
  bottom: "fire7/expand1x1"
  bottom: "fire7/expand3x3"
  top: "fire7/concat"
}
layer {
  name: "fire8/squeeze1x1"
  type: "Convolution"
  bottom: "fire7/concat"
  top: "fire8/squeeze1x1"
  convolution_param {
    num_output: 64
    kernel_size: 1
    weight_filler {
      type: "xavier"
    }
  }
}
layer {
  name: "fire8/relu_squeeze1x1"
  type: "ReLU"
  bottom: "fire8/squeeze1x1"
  top: "fire8/squeeze1x1"
}
layer {
  name: "fire8/expand1x1"
  type: "Convolution"
  bottom: "fire8/squeeze1x1"
  top: "fire8/expand1x1"
  convolution_param {
    num_output: 256
    kernel_size: 1
    weight_filler {
      type: "xavier"
    }
  }
}
layer {
  name: "fire8/relu_expand1x1"
  type: "ReLU"
  bottom: "fire8/expand1x1"
  top: "fire8/expand1x1"
}
layer {
  name: "fire8/expand3x3"
  type: "Convolution"
  bottom: "fire8/squeeze1x1"
  top: "fire8/expand3x3"
  convolution_param {
    num_output: 256
    pad: 1
    kernel_size: 3
    weight_filler {
      type: "xavier"
    }
  }
}
layer {
  name: "fire8/relu_expand3x3"
  type: "ReLU"
  bottom: "fire8/expand3x3"
  top: "fire8/expand3x3"
}
layer {
  name: "fire8/concat"
  type: "Concat"
  bottom: "fire8/expand1x1"
  bottom: "fire8/expand3x3"
  top: "fire8/concat"
}
layer {
  name: "fire9/squeeze1x1"
  type: "Convolution"
  bottom: "fire8/concat"
  top: "fire9/squeeze1x1"
  convolution_param {
    num_output: 64
    kernel_size: 1
    weight_filler {
      type: "xavier"
    }
  }
}
layer {
  name: "fire9/relu_squeeze1x1"
  type: "ReLU"
  bottom: "fire9/squeeze1x1"
  top: "fire9/squeeze1x1"
}
layer {
  name: "fire9/expand1x1"
  type: "Convolution"
  bottom: "fire9/squeeze1x1"
  top: "fire9/expand1x1"
  convolution_param {
    num_output: 256
    kernel_size: 1
    weight_filler {
      type: "xavier"
    }
  }
}
layer {
  name: "fire9/relu_expand1x1"
  type: "ReLU"
  bottom: "fire9/expand1x1"
  top: "fire9/expand1x1"
}
layer {
  name: "fire9/expand3x3"
  type: "Convolution"
  bottom: "fire9/squeeze1x1"
  top: "fire9/expand3x3"
  convolution_param {
    num_output: 256
    pad: 1
    kernel_size: 3
    weight_filler {
      type: "xavier"
    }
  }
}
layer {
  name: "fire9/relu_expand3x3"
  type: "ReLU"
  bottom: "fire9/expand3x3"
  top: "fire9/expand3x3"
}
layer {
  name: "fire9/concat"
  type: "Concat"
  bottom: "fire9/expand1x1"
  bottom: "fire9/expand3x3"
  top: "fire9/concat"
}
layer {
  name: "drop9"
  type: "Dropout"
  bottom: "fire9/concat"
  top: "fire9/concat"
  dropout_param {
    dropout_ratio: 0.5
  }
}
layer {
  name: "conv10_new"
  type: "Convolution"
  bottom: "fire9/concat"
  top: "conv10_new"
  convolution_param {
    num_output: 196
    kernel_size: 1
    weight_filler {
      type: "gaussian"
      mean: 0
      std: 0.01
    }
  }
}
layer {
  name: "relu_conv10"
  type: "ReLU"
  bottom: "conv10_new"
  top: "conv10_new"
}
layer {
  name: "pool10"
  type: "Pooling"
  bottom: "conv10_new"
  top: "pool10"
  pooling_param {
    pool: AVE
    global_pooling: true
  }
}
layer {
  name: "loss"
  type: "SoftmaxWithLoss"
  bottom: "pool10"
  bottom: "label"
  top: "loss"
}
I0424 22:26:50.900048 25635 layer_factory.hpp:77] Creating layer data
I0424 22:26:50.900131 25635 net.cpp:84] Creating Layer data
I0424 22:26:50.900171 25635 net.cpp:380] data -> data
I0424 22:26:50.900220 25635 net.cpp:380] data -> label
I0424 22:26:50.900255 25635 image_data_layer.cpp:38] Opening file ./trainval.txt
I0424 22:26:50.909581 25635 image_data_layer.cpp:53] Shuffling data
I0424 22:26:50.920369 25635 image_data_layer.cpp:63] A total of 12084 images.
I0424 22:26:50.927732 25635 image_data_layer.cpp:90] output data size: 40,3,227,227
I0424 22:26:51.080018 25635 net.cpp:122] Setting up data
I0424 22:26:51.080091 25635 net.cpp:129] Top shape: 40 3 227 227 (6183480)
I0424 22:26:51.080101 25635 net.cpp:129] Top shape: 40 (40)
I0424 22:26:51.080107 25635 net.cpp:137] Memory required for data: 24734080
I0424 22:26:51.080119 25635 layer_factory.hpp:77] Creating layer conv1
I0424 22:26:51.080157 25635 net.cpp:84] Creating Layer conv1
I0424 22:26:51.080168 25635 net.cpp:406] conv1 <- data
I0424 22:26:51.080188 25635 net.cpp:380] conv1 -> conv1
I0424 22:26:51.741797 25635 net.cpp:122] Setting up conv1
I0424 22:26:51.741889 25635 net.cpp:129] Top shape: 40 64 113 113 (32688640)
I0424 22:26:51.741900 25635 net.cpp:137] Memory required for data: 155488640
I0424 22:26:51.741947 25635 layer_factory.hpp:77] Creating layer relu_conv1
I0424 22:26:51.741976 25635 net.cpp:84] Creating Layer relu_conv1
I0424 22:26:51.741988 25635 net.cpp:406] relu_conv1 <- conv1
I0424 22:26:51.742002 25635 net.cpp:367] relu_conv1 -> conv1 (in-place)
I0424 22:26:51.742242 25635 net.cpp:122] Setting up relu_conv1
I0424 22:26:51.742260 25635 net.cpp:129] Top shape: 40 64 113 113 (32688640)
I0424 22:26:51.742269 25635 net.cpp:137] Memory required for data: 286243200
I0424 22:26:51.742276 25635 layer_factory.hpp:77] Creating layer pool1
I0424 22:26:51.742288 25635 net.cpp:84] Creating Layer pool1
I0424 22:26:51.742297 25635 net.cpp:406] pool1 <- conv1
I0424 22:26:51.742307 25635 net.cpp:380] pool1 -> pool1
I0424 22:26:51.742377 25635 net.cpp:122] Setting up pool1
I0424 22:26:51.742391 25635 net.cpp:129] Top shape: 40 64 56 56 (8028160)
I0424 22:26:51.742399 25635 net.cpp:137] Memory required for data: 318355840
I0424 22:26:51.742406 25635 layer_factory.hpp:77] Creating layer fire2/squeeze1x1
I0424 22:26:51.742425 25635 net.cpp:84] Creating Layer fire2/squeeze1x1
I0424 22:26:51.742434 25635 net.cpp:406] fire2/squeeze1x1 <- pool1
I0424 22:26:51.742446 25635 net.cpp:380] fire2/squeeze1x1 -> fire2/squeeze1x1
I0424 22:26:51.745440 25635 net.cpp:122] Setting up fire2/squeeze1x1
I0424 22:26:51.745463 25635 net.cpp:129] Top shape: 40 16 56 56 (2007040)
I0424 22:26:51.745472 25635 net.cpp:137] Memory required for data: 326384000
I0424 22:26:51.745489 25635 layer_factory.hpp:77] Creating layer fire2/relu_squeeze1x1
I0424 22:26:51.745503 25635 net.cpp:84] Creating Layer fire2/relu_squeeze1x1
I0424 22:26:51.745510 25635 net.cpp:406] fire2/relu_squeeze1x1 <- fire2/squeeze1x1
I0424 22:26:51.745520 25635 net.cpp:367] fire2/relu_squeeze1x1 -> fire2/squeeze1x1 (in-place)
I0424 22:26:51.745821 25635 net.cpp:122] Setting up fire2/relu_squeeze1x1
I0424 22:26:51.745837 25635 net.cpp:129] Top shape: 40 16 56 56 (2007040)
I0424 22:26:51.745846 25635 net.cpp:137] Memory required for data: 334412160
I0424 22:26:51.745852 25635 layer_factory.hpp:77] Creating layer fire2/squeeze1x1_fire2/relu_squeeze1x1_0_split
I0424 22:26:51.745863 25635 net.cpp:84] Creating Layer fire2/squeeze1x1_fire2/relu_squeeze1x1_0_split
I0424 22:26:51.745872 25635 net.cpp:406] fire2/squeeze1x1_fire2/relu_squeeze1x1_0_split <- fire2/squeeze1x1
I0424 22:26:51.745882 25635 net.cpp:380] fire2/squeeze1x1_fire2/relu_squeeze1x1_0_split -> fire2/squeeze1x1_fire2/relu_squeeze1x1_0_split_0
I0424 22:26:51.745895 25635 net.cpp:380] fire2/squeeze1x1_fire2/relu_squeeze1x1_0_split -> fire2/squeeze1x1_fire2/relu_squeeze1x1_0_split_1
I0424 22:26:51.745949 25635 net.cpp:122] Setting up fire2/squeeze1x1_fire2/relu_squeeze1x1_0_split
I0424 22:26:51.745962 25635 net.cpp:129] Top shape: 40 16 56 56 (2007040)
I0424 22:26:51.745972 25635 net.cpp:129] Top shape: 40 16 56 56 (2007040)
I0424 22:26:51.745980 25635 net.cpp:137] Memory required for data: 350468480
I0424 22:26:51.746109 25635 layer_factory.hpp:77] Creating layer fire2/expand1x1
I0424 22:26:51.746130 25635 net.cpp:84] Creating Layer fire2/expand1x1
I0424 22:26:51.746140 25635 net.cpp:406] fire2/expand1x1 <- fire2/squeeze1x1_fire2/relu_squeeze1x1_0_split_0
I0424 22:26:51.746199 25635 net.cpp:380] fire2/expand1x1 -> fire2/expand1x1
I0424 22:26:51.747834 25635 net.cpp:122] Setting up fire2/expand1x1
I0424 22:26:51.747856 25635 net.cpp:129] Top shape: 40 64 56 56 (8028160)
I0424 22:26:51.747864 25635 net.cpp:137] Memory required for data: 382581120
I0424 22:26:51.747880 25635 layer_factory.hpp:77] Creating layer fire2/relu_expand1x1
I0424 22:26:51.747912 25635 net.cpp:84] Creating Layer fire2/relu_expand1x1
I0424 22:26:51.747925 25635 net.cpp:406] fire2/relu_expand1x1 <- fire2/expand1x1
I0424 22:26:51.747936 25635 net.cpp:367] fire2/relu_expand1x1 -> fire2/expand1x1 (in-place)
I0424 22:26:51.748173 25635 net.cpp:122] Setting up fire2/relu_expand1x1
I0424 22:26:51.748191 25635 net.cpp:129] Top shape: 40 64 56 56 (8028160)
I0424 22:26:51.748200 25635 net.cpp:137] Memory required for data: 414693760
I0424 22:26:51.748208 25635 layer_factory.hpp:77] Creating layer fire2/expand3x3
I0424 22:26:51.748221 25635 net.cpp:84] Creating Layer fire2/expand3x3
I0424 22:26:51.748230 25635 net.cpp:406] fire2/expand3x3 <- fire2/squeeze1x1_fire2/relu_squeeze1x1_0_split_1
I0424 22:26:51.748245 25635 net.cpp:380] fire2/expand3x3 -> fire2/expand3x3
I0424 22:26:51.750530 25635 net.cpp:122] Setting up fire2/expand3x3
I0424 22:26:51.750550 25635 net.cpp:129] Top shape: 40 64 56 56 (8028160)
I0424 22:26:51.750558 25635 net.cpp:137] Memory required for data: 446806400
I0424 22:26:51.750572 25635 layer_factory.hpp:77] Creating layer fire2/relu_expand3x3
I0424 22:26:51.750584 25635 net.cpp:84] Creating Layer fire2/relu_expand3x3
I0424 22:26:51.750591 25635 net.cpp:406] fire2/relu_expand3x3 <- fire2/expand3x3
I0424 22:26:51.750603 25635 net.cpp:367] fire2/relu_expand3x3 -> fire2/expand3x3 (in-place)
I0424 22:26:51.750954 25635 net.cpp:122] Setting up fire2/relu_expand3x3
I0424 22:26:51.750972 25635 net.cpp:129] Top shape: 40 64 56 56 (8028160)
I0424 22:26:51.750980 25635 net.cpp:137] Memory required for data: 478919040
I0424 22:26:51.750986 25635 layer_factory.hpp:77] Creating layer fire2/concat
I0424 22:26:51.750998 25635 net.cpp:84] Creating Layer fire2/concat
I0424 22:26:51.751006 25635 net.cpp:406] fire2/concat <- fire2/expand1x1
I0424 22:26:51.751014 25635 net.cpp:406] fire2/concat <- fire2/expand3x3
I0424 22:26:51.751026 25635 net.cpp:380] fire2/concat -> fire2/concat
I0424 22:26:51.751070 25635 net.cpp:122] Setting up fire2/concat
I0424 22:26:51.751086 25635 net.cpp:129] Top shape: 40 128 56 56 (16056320)
I0424 22:26:51.751093 25635 net.cpp:137] Memory required for data: 543144320
I0424 22:26:51.751101 25635 layer_factory.hpp:77] Creating layer fire3/squeeze1x1
I0424 22:26:51.751113 25635 net.cpp:84] Creating Layer fire3/squeeze1x1
I0424 22:26:51.751121 25635 net.cpp:406] fire3/squeeze1x1 <- fire2/concat
I0424 22:26:51.751134 25635 net.cpp:380] fire3/squeeze1x1 -> fire3/squeeze1x1
I0424 22:26:51.753851 25635 net.cpp:122] Setting up fire3/squeeze1x1
I0424 22:26:51.753872 25635 net.cpp:129] Top shape: 40 16 56 56 (2007040)
I0424 22:26:51.753880 25635 net.cpp:137] Memory required for data: 551172480
I0424 22:26:51.753897 25635 layer_factory.hpp:77] Creating layer fire3/relu_squeeze1x1
I0424 22:26:51.753912 25635 net.cpp:84] Creating Layer fire3/relu_squeeze1x1
I0424 22:26:51.753922 25635 net.cpp:406] fire3/relu_squeeze1x1 <- fire3/squeeze1x1
I0424 22:26:51.753934 25635 net.cpp:367] fire3/relu_squeeze1x1 -> fire3/squeeze1x1 (in-place)
I0424 22:26:51.760089 25635 net.cpp:122] Setting up fire3/relu_squeeze1x1
I0424 22:26:51.760123 25635 net.cpp:129] Top shape: 40 16 56 56 (2007040)
I0424 22:26:51.760130 25635 net.cpp:137] Memory required for data: 559200640
I0424 22:26:51.760138 25635 layer_factory.hpp:77] Creating layer fire3/squeeze1x1_fire3/relu_squeeze1x1_0_split
I0424 22:26:51.760149 25635 net.cpp:84] Creating Layer fire3/squeeze1x1_fire3/relu_squeeze1x1_0_split
I0424 22:26:51.760239 25635 net.cpp:406] fire3/squeeze1x1_fire3/relu_squeeze1x1_0_split <- fire3/squeeze1x1
I0424 22:26:51.760254 25635 net.cpp:380] fire3/squeeze1x1_fire3/relu_squeeze1x1_0_split -> fire3/squeeze1x1_fire3/relu_squeeze1x1_0_split_0
I0424 22:26:51.760280 25635 net.cpp:380] fire3/squeeze1x1_fire3/relu_squeeze1x1_0_split -> fire3/squeeze1x1_fire3/relu_squeeze1x1_0_split_1
I0424 22:26:51.760340 25635 net.cpp:122] Setting up fire3/squeeze1x1_fire3/relu_squeeze1x1_0_split
I0424 22:26:51.760351 25635 net.cpp:129] Top shape: 40 16 56 56 (2007040)
I0424 22:26:51.760360 25635 net.cpp:129] Top shape: 40 16 56 56 (2007040)
I0424 22:26:51.760365 25635 net.cpp:137] Memory required for data: 575256960
I0424 22:26:51.760370 25635 layer_factory.hpp:77] Creating layer fire3/expand1x1
I0424 22:26:51.760385 25635 net.cpp:84] Creating Layer fire3/expand1x1
I0424 22:26:51.760391 25635 net.cpp:406] fire3/expand1x1 <- fire3/squeeze1x1_fire3/relu_squeeze1x1_0_split_0
I0424 22:26:51.760401 25635 net.cpp:380] fire3/expand1x1 -> fire3/expand1x1
I0424 22:26:51.761792 25635 net.cpp:122] Setting up fire3/expand1x1
I0424 22:26:51.761813 25635 net.cpp:129] Top shape: 40 64 56 56 (8028160)
I0424 22:26:51.761819 25635 net.cpp:137] Memory required for data: 607369600
I0424 22:26:51.761831 25635 layer_factory.hpp:77] Creating layer fire3/relu_expand1x1
I0424 22:26:51.761849 25635 net.cpp:84] Creating Layer fire3/relu_expand1x1
I0424 22:26:51.761857 25635 net.cpp:406] fire3/relu_expand1x1 <- fire3/expand1x1
I0424 22:26:51.761868 25635 net.cpp:367] fire3/relu_expand1x1 -> fire3/expand1x1 (in-place)
I0424 22:26:51.766012 25635 net.cpp:122] Setting up fire3/relu_expand1x1
I0424 22:26:51.766041 25635 net.cpp:129] Top shape: 40 64 56 56 (8028160)
I0424 22:26:51.766047 25635 net.cpp:137] Memory required for data: 639482240
I0424 22:26:51.766053 25635 layer_factory.hpp:77] Creating layer fire3/expand3x3
I0424 22:26:51.766069 25635 net.cpp:84] Creating Layer fire3/expand3x3
I0424 22:26:51.766077 25635 net.cpp:406] fire3/expand3x3 <- fire3/squeeze1x1_fire3/relu_squeeze1x1_0_split_1
I0424 22:26:51.766086 25635 net.cpp:380] fire3/expand3x3 -> fire3/expand3x3
I0424 22:26:51.767859 25635 net.cpp:122] Setting up fire3/expand3x3
I0424 22:26:51.767881 25635 net.cpp:129] Top shape: 40 64 56 56 (8028160)
I0424 22:26:51.767887 25635 net.cpp:137] Memory required for data: 671594880
I0424 22:26:51.767899 25635 layer_factory.hpp:77] Creating layer fire3/relu_expand3x3
I0424 22:26:51.767910 25635 net.cpp:84] Creating Layer fire3/relu_expand3x3
I0424 22:26:51.767915 25635 net.cpp:406] fire3/relu_expand3x3 <- fire3/expand3x3
I0424 22:26:51.767925 25635 net.cpp:367] fire3/relu_expand3x3 -> fire3/expand3x3 (in-place)
I0424 22:26:51.768127 25635 net.cpp:122] Setting up fire3/relu_expand3x3
I0424 22:26:51.768143 25635 net.cpp:129] Top shape: 40 64 56 56 (8028160)
I0424 22:26:51.768149 25635 net.cpp:137] Memory required for data: 703707520
I0424 22:26:51.768154 25635 layer_factory.hpp:77] Creating layer fire3/concat
I0424 22:26:51.768163 25635 net.cpp:84] Creating Layer fire3/concat
I0424 22:26:51.768169 25635 net.cpp:406] fire3/concat <- fire3/expand1x1
I0424 22:26:51.768177 25635 net.cpp:406] fire3/concat <- fire3/expand3x3
I0424 22:26:51.768184 25635 net.cpp:380] fire3/concat -> fire3/concat
I0424 22:26:51.768218 25635 net.cpp:122] Setting up fire3/concat
I0424 22:26:51.768229 25635 net.cpp:129] Top shape: 40 128 56 56 (16056320)
I0424 22:26:51.768234 25635 net.cpp:137] Memory required for data: 767932800
I0424 22:26:51.768239 25635 layer_factory.hpp:77] Creating layer pool3
I0424 22:26:51.768250 25635 net.cpp:84] Creating Layer pool3
I0424 22:26:51.768257 25635 net.cpp:406] pool3 <- fire3/concat
I0424 22:26:51.768265 25635 net.cpp:380] pool3 -> pool3
I0424 22:26:51.768317 25635 net.cpp:122] Setting up pool3
I0424 22:26:51.768327 25635 net.cpp:129] Top shape: 40 128 28 28 (4014080)
I0424 22:26:51.768333 25635 net.cpp:137] Memory required for data: 783989120
I0424 22:26:51.768339 25635 layer_factory.hpp:77] Creating layer fire4/squeeze1x1
I0424 22:26:51.768352 25635 net.cpp:84] Creating Layer fire4/squeeze1x1
I0424 22:26:51.768425 25635 net.cpp:406] fire4/squeeze1x1 <- pool3
I0424 22:26:51.768440 25635 net.cpp:380] fire4/squeeze1x1 -> fire4/squeeze1x1
I0424 22:26:51.770156 25635 net.cpp:122] Setting up fire4/squeeze1x1
I0424 22:26:51.770174 25635 net.cpp:129] Top shape: 40 32 28 28 (1003520)
I0424 22:26:51.770180 25635 net.cpp:137] Memory required for data: 788003200
I0424 22:26:51.770191 25635 layer_factory.hpp:77] Creating layer fire4/relu_squeeze1x1
I0424 22:26:51.770203 25635 net.cpp:84] Creating Layer fire4/relu_squeeze1x1
I0424 22:26:51.770210 25635 net.cpp:406] fire4/relu_squeeze1x1 <- fire4/squeeze1x1
I0424 22:26:51.770217 25635 net.cpp:367] fire4/relu_squeeze1x1 -> fire4/squeeze1x1 (in-place)
I0424 22:26:51.770522 25635 net.cpp:122] Setting up fire4/relu_squeeze1x1
I0424 22:26:51.770535 25635 net.cpp:129] Top shape: 40 32 28 28 (1003520)
I0424 22:26:51.770541 25635 net.cpp:137] Memory required for data: 792017280
I0424 22:26:51.770546 25635 layer_factory.hpp:77] Creating layer fire4/squeeze1x1_fire4/relu_squeeze1x1_0_split
I0424 22:26:51.770558 25635 net.cpp:84] Creating Layer fire4/squeeze1x1_fire4/relu_squeeze1x1_0_split
I0424 22:26:51.770563 25635 net.cpp:406] fire4/squeeze1x1_fire4/relu_squeeze1x1_0_split <- fire4/squeeze1x1
I0424 22:26:51.770572 25635 net.cpp:380] fire4/squeeze1x1_fire4/relu_squeeze1x1_0_split -> fire4/squeeze1x1_fire4/relu_squeeze1x1_0_split_0
I0424 22:26:51.770584 25635 net.cpp:380] fire4/squeeze1x1_fire4/relu_squeeze1x1_0_split -> fire4/squeeze1x1_fire4/relu_squeeze1x1_0_split_1
I0424 22:26:51.770630 25635 net.cpp:122] Setting up fire4/squeeze1x1_fire4/relu_squeeze1x1_0_split
I0424 22:26:51.770656 25635 net.cpp:129] Top shape: 40 32 28 28 (1003520)
I0424 22:26:51.770664 25635 net.cpp:129] Top shape: 40 32 28 28 (1003520)
I0424 22:26:51.770670 25635 net.cpp:137] Memory required for data: 800045440
I0424 22:26:51.770676 25635 layer_factory.hpp:77] Creating layer fire4/expand1x1
I0424 22:26:51.770689 25635 net.cpp:84] Creating Layer fire4/expand1x1
I0424 22:26:51.770696 25635 net.cpp:406] fire4/expand1x1 <- fire4/squeeze1x1_fire4/relu_squeeze1x1_0_split_0
I0424 22:26:51.770706 25635 net.cpp:380] fire4/expand1x1 -> fire4/expand1x1
I0424 22:26:51.773854 25635 net.cpp:122] Setting up fire4/expand1x1
I0424 22:26:51.773874 25635 net.cpp:129] Top shape: 40 128 28 28 (4014080)
I0424 22:26:51.773880 25635 net.cpp:137] Memory required for data: 816101760
I0424 22:26:51.773897 25635 layer_factory.hpp:77] Creating layer fire4/relu_expand1x1
I0424 22:26:51.773910 25635 net.cpp:84] Creating Layer fire4/relu_expand1x1
I0424 22:26:51.773916 25635 net.cpp:406] fire4/relu_expand1x1 <- fire4/expand1x1
I0424 22:26:51.773924 25635 net.cpp:367] fire4/relu_expand1x1 -> fire4/expand1x1 (in-place)
I0424 22:26:51.774134 25635 net.cpp:122] Setting up fire4/relu_expand1x1
I0424 22:26:51.774148 25635 net.cpp:129] Top shape: 40 128 28 28 (4014080)
I0424 22:26:51.774153 25635 net.cpp:137] Memory required for data: 832158080
I0424 22:26:51.774159 25635 layer_factory.hpp:77] Creating layer fire4/expand3x3
I0424 22:26:51.774173 25635 net.cpp:84] Creating Layer fire4/expand3x3
I0424 22:26:51.774179 25635 net.cpp:406] fire4/expand3x3 <- fire4/squeeze1x1_fire4/relu_squeeze1x1_0_split_1
I0424 22:26:51.774190 25635 net.cpp:380] fire4/expand3x3 -> fire4/expand3x3
I0424 22:26:51.790760 25635 net.cpp:122] Setting up fire4/expand3x3
I0424 22:26:51.790838 25635 net.cpp:129] Top shape: 40 128 28 28 (4014080)
I0424 22:26:51.790850 25635 net.cpp:137] Memory required for data: 848214400
I0424 22:26:51.790889 25635 layer_factory.hpp:77] Creating layer fire4/relu_expand3x3
I0424 22:26:51.790930 25635 net.cpp:84] Creating Layer fire4/relu_expand3x3
I0424 22:26:51.790946 25635 net.cpp:406] fire4/relu_expand3x3 <- fire4/expand3x3
I0424 22:26:51.790966 25635 net.cpp:367] fire4/relu_expand3x3 -> fire4/expand3x3 (in-place)
I0424 22:26:51.791239 25635 net.cpp:122] Setting up fire4/relu_expand3x3
I0424 22:26:51.791254 25635 net.cpp:129] Top shape: 40 128 28 28 (4014080)
I0424 22:26:51.791262 25635 net.cpp:137] Memory required for data: 864270720
I0424 22:26:51.791610 25635 layer_factory.hpp:77] Creating layer fire4/concat
I0424 22:26:51.791625 25635 net.cpp:84] Creating Layer fire4/concat
I0424 22:26:51.791656 25635 net.cpp:406] fire4/concat <- fire4/expand1x1
I0424 22:26:51.791667 25635 net.cpp:406] fire4/concat <- fire4/expand3x3
I0424 22:26:51.791682 25635 net.cpp:380] fire4/concat -> fire4/concat
I0424 22:26:51.791726 25635 net.cpp:122] Setting up fire4/concat
I0424 22:26:51.791740 25635 net.cpp:129] Top shape: 40 256 28 28 (8028160)
I0424 22:26:51.791748 25635 net.cpp:137] Memory required for data: 896383360
I0424 22:26:51.791754 25635 layer_factory.hpp:77] Creating layer fire5/squeeze1x1
I0424 22:26:51.791784 25635 net.cpp:84] Creating Layer fire5/squeeze1x1
I0424 22:26:51.791793 25635 net.cpp:406] fire5/squeeze1x1 <- fire4/concat
I0424 22:26:51.791805 25635 net.cpp:380] fire5/squeeze1x1 -> fire5/squeeze1x1
I0424 22:26:51.793586 25635 net.cpp:122] Setting up fire5/squeeze1x1
I0424 22:26:51.793609 25635 net.cpp:129] Top shape: 40 32 28 28 (1003520)
I0424 22:26:51.793619 25635 net.cpp:137] Memory required for data: 900397440
I0424 22:26:51.793632 25635 layer_factory.hpp:77] Creating layer fire5/relu_squeeze1x1
I0424 22:26:51.793644 25635 net.cpp:84] Creating Layer fire5/relu_squeeze1x1
I0424 22:26:51.793653 25635 net.cpp:406] fire5/relu_squeeze1x1 <- fire5/squeeze1x1
I0424 22:26:51.793663 25635 net.cpp:367] fire5/relu_squeeze1x1 -> fire5/squeeze1x1 (in-place)
I0424 22:26:51.794486 25635 net.cpp:122] Setting up fire5/relu_squeeze1x1
I0424 22:26:51.794509 25635 net.cpp:129] Top shape: 40 32 28 28 (1003520)
I0424 22:26:51.794518 25635 net.cpp:137] Memory required for data: 904411520
I0424 22:26:51.794525 25635 layer_factory.hpp:77] Creating layer fire5/squeeze1x1_fire5/relu_squeeze1x1_0_split
I0424 22:26:51.794536 25635 net.cpp:84] Creating Layer fire5/squeeze1x1_fire5/relu_squeeze1x1_0_split
I0424 22:26:51.794545 25635 net.cpp:406] fire5/squeeze1x1_fire5/relu_squeeze1x1_0_split <- fire5/squeeze1x1
I0424 22:26:51.794559 25635 net.cpp:380] fire5/squeeze1x1_fire5/relu_squeeze1x1_0_split -> fire5/squeeze1x1_fire5/relu_squeeze1x1_0_split_0
I0424 22:26:51.794574 25635 net.cpp:380] fire5/squeeze1x1_fire5/relu_squeeze1x1_0_split -> fire5/squeeze1x1_fire5/relu_squeeze1x1_0_split_1
I0424 22:26:51.794632 25635 net.cpp:122] Setting up fire5/squeeze1x1_fire5/relu_squeeze1x1_0_split
I0424 22:26:51.794654 25635 net.cpp:129] Top shape: 40 32 28 28 (1003520)
I0424 22:26:51.794664 25635 net.cpp:129] Top shape: 40 32 28 28 (1003520)
I0424 22:26:51.794670 25635 net.cpp:137] Memory required for data: 912439680
I0424 22:26:51.794677 25635 layer_factory.hpp:77] Creating layer fire5/expand1x1
I0424 22:26:51.794708 25635 net.cpp:84] Creating Layer fire5/expand1x1
I0424 22:26:51.794718 25635 net.cpp:406] fire5/expand1x1 <- fire5/squeeze1x1_fire5/relu_squeeze1x1_0_split_0
I0424 22:26:51.794729 25635 net.cpp:380] fire5/expand1x1 -> fire5/expand1x1
I0424 22:26:51.797646 25635 net.cpp:122] Setting up fire5/expand1x1
I0424 22:26:51.797667 25635 net.cpp:129] Top shape: 40 128 28 28 (4014080)
I0424 22:26:51.797677 25635 net.cpp:137] Memory required for data: 928496000
I0424 22:26:51.797688 25635 layer_factory.hpp:77] Creating layer fire5/relu_expand1x1
I0424 22:26:51.797700 25635 net.cpp:84] Creating Layer fire5/relu_expand1x1
I0424 22:26:51.797708 25635 net.cpp:406] fire5/relu_expand1x1 <- fire5/expand1x1
I0424 22:26:51.797720 25635 net.cpp:367] fire5/relu_expand1x1 -> fire5/expand1x1 (in-place)
I0424 22:26:51.804565 25635 net.cpp:122] Setting up fire5/relu_expand1x1
I0424 22:26:51.804653 25635 net.cpp:129] Top shape: 40 128 28 28 (4014080)
I0424 22:26:51.804666 25635 net.cpp:137] Memory required for data: 944552320
I0424 22:26:51.804677 25635 layer_factory.hpp:77] Creating layer fire5/expand3x3
I0424 22:26:51.804715 25635 net.cpp:84] Creating Layer fire5/expand3x3
I0424 22:26:51.804729 25635 net.cpp:406] fire5/expand3x3 <- fire5/squeeze1x1_fire5/relu_squeeze1x1_0_split_1
I0424 22:26:51.804755 25635 net.cpp:380] fire5/expand3x3 -> fire5/expand3x3
I0424 22:26:51.809130 25635 net.cpp:122] Setting up fire5/expand3x3
I0424 22:26:51.809314 25635 net.cpp:129] Top shape: 40 128 28 28 (4014080)
I0424 22:26:51.809327 25635 net.cpp:137] Memory required for data: 960608640
I0424 22:26:51.809454 25635 layer_factory.hpp:77] Creating layer fire5/relu_expand3x3
I0424 22:26:51.809495 25635 net.cpp:84] Creating Layer fire5/relu_expand3x3
I0424 22:26:51.809511 25635 net.cpp:406] fire5/relu_expand3x3 <- fire5/expand3x3
I0424 22:26:51.809542 25635 net.cpp:367] fire5/relu_expand3x3 -> fire5/expand3x3 (in-place)
I0424 22:26:51.811370 25635 net.cpp:122] Setting up fire5/relu_expand3x3
I0424 22:26:51.811480 25635 net.cpp:129] Top shape: 40 128 28 28 (4014080)
I0424 22:26:51.811491 25635 net.cpp:137] Memory required for data: 976664960
I0424 22:26:51.811511 25635 layer_factory.hpp:77] Creating layer fire5/concat
I0424 22:26:51.811545 25635 net.cpp:84] Creating Layer fire5/concat
I0424 22:26:51.811558 25635 net.cpp:406] fire5/concat <- fire5/expand1x1
I0424 22:26:51.811578 25635 net.cpp:406] fire5/concat <- fire5/expand3x3
I0424 22:26:51.811592 25635 net.cpp:380] fire5/concat -> fire5/concat
I0424 22:26:51.811777 25635 net.cpp:122] Setting up fire5/concat
I0424 22:26:51.811796 25635 net.cpp:129] Top shape: 40 256 28 28 (8028160)
I0424 22:26:51.811806 25635 net.cpp:137] Memory required for data: 1008777600
I0424 22:26:51.811816 25635 layer_factory.hpp:77] Creating layer pool5
I0424 22:26:51.811841 25635 net.cpp:84] Creating Layer pool5
I0424 22:26:51.811849 25635 net.cpp:406] pool5 <- fire5/concat
I0424 22:26:51.811866 25635 net.cpp:380] pool5 -> pool5
I0424 22:26:51.811971 25635 net.cpp:122] Setting up pool5
I0424 22:26:51.811991 25635 net.cpp:129] Top shape: 40 256 14 14 (2007040)
I0424 22:26:51.812000 25635 net.cpp:137] Memory required for data: 1016805760
I0424 22:26:51.812005 25635 layer_factory.hpp:77] Creating layer fire6/squeeze1x1
I0424 22:26:51.812041 25635 net.cpp:84] Creating Layer fire6/squeeze1x1
I0424 22:26:51.812049 25635 net.cpp:406] fire6/squeeze1x1 <- pool5
I0424 22:26:51.812060 25635 net.cpp:380] fire6/squeeze1x1 -> fire6/squeeze1x1
I0424 22:26:51.825857 25635 net.cpp:122] Setting up fire6/squeeze1x1
I0424 22:26:51.825961 25635 net.cpp:129] Top shape: 40 48 14 14 (376320)
I0424 22:26:51.825973 25635 net.cpp:137] Memory required for data: 1018311040
I0424 22:26:51.826005 25635 layer_factory.hpp:77] Creating layer fire6/relu_squeeze1x1
I0424 22:26:51.826035 25635 net.cpp:84] Creating Layer fire6/relu_squeeze1x1
I0424 22:26:51.826050 25635 net.cpp:406] fire6/relu_squeeze1x1 <- fire6/squeeze1x1
I0424 22:26:51.826071 25635 net.cpp:367] fire6/relu_squeeze1x1 -> fire6/squeeze1x1 (in-place)
I0424 22:26:51.826383 25635 net.cpp:122] Setting up fire6/relu_squeeze1x1
I0424 22:26:51.826401 25635 net.cpp:129] Top shape: 40 48 14 14 (376320)
I0424 22:26:51.826408 25635 net.cpp:137] Memory required for data: 1019816320
I0424 22:26:51.826416 25635 layer_factory.hpp:77] Creating layer fire6/squeeze1x1_fire6/relu_squeeze1x1_0_split
I0424 22:26:51.826431 25635 net.cpp:84] Creating Layer fire6/squeeze1x1_fire6/relu_squeeze1x1_0_split
I0424 22:26:51.826439 25635 net.cpp:406] fire6/squeeze1x1_fire6/relu_squeeze1x1_0_split <- fire6/squeeze1x1
I0424 22:26:51.826452 25635 net.cpp:380] fire6/squeeze1x1_fire6/relu_squeeze1x1_0_split -> fire6/squeeze1x1_fire6/relu_squeeze1x1_0_split_0
I0424 22:26:51.826470 25635 net.cpp:380] fire6/squeeze1x1_fire6/relu_squeeze1x1_0_split -> fire6/squeeze1x1_fire6/relu_squeeze1x1_0_split_1
I0424 22:26:51.826584 25635 net.cpp:122] Setting up fire6/squeeze1x1_fire6/relu_squeeze1x1_0_split
I0424 22:26:51.826598 25635 net.cpp:129] Top shape: 40 48 14 14 (376320)
I0424 22:26:51.826611 25635 net.cpp:129] Top shape: 40 48 14 14 (376320)
I0424 22:26:51.826618 25635 net.cpp:137] Memory required for data: 1022826880
I0424 22:26:51.826625 25635 layer_factory.hpp:77] Creating layer fire6/expand1x1
I0424 22:26:51.826668 25635 net.cpp:84] Creating Layer fire6/expand1x1
I0424 22:26:51.826680 25635 net.cpp:406] fire6/expand1x1 <- fire6/squeeze1x1_fire6/relu_squeeze1x1_0_split_0
I0424 22:26:51.827002 25635 net.cpp:380] fire6/expand1x1 -> fire6/expand1x1
I0424 22:26:51.829061 25635 net.cpp:122] Setting up fire6/expand1x1
I0424 22:26:51.829082 25635 net.cpp:129] Top shape: 40 192 14 14 (1505280)
I0424 22:26:51.829104 25635 net.cpp:137] Memory required for data: 1028848000
I0424 22:26:51.829114 25635 layer_factory.hpp:77] Creating layer fire6/relu_expand1x1
I0424 22:26:51.829124 25635 net.cpp:84] Creating Layer fire6/relu_expand1x1
I0424 22:26:51.829129 25635 net.cpp:406] fire6/relu_expand1x1 <- fire6/expand1x1
I0424 22:26:51.829134 25635 net.cpp:367] fire6/relu_expand1x1 -> fire6/expand1x1 (in-place)
I0424 22:26:51.829282 25635 net.cpp:122] Setting up fire6/relu_expand1x1
I0424 22:26:51.829293 25635 net.cpp:129] Top shape: 40 192 14 14 (1505280)
I0424 22:26:51.829296 25635 net.cpp:137] Memory required for data: 1034869120
I0424 22:26:51.829299 25635 layer_factory.hpp:77] Creating layer fire6/expand3x3
I0424 22:26:51.829310 25635 net.cpp:84] Creating Layer fire6/expand3x3
I0424 22:26:51.829314 25635 net.cpp:406] fire6/expand3x3 <- fire6/squeeze1x1_fire6/relu_squeeze1x1_0_split_1
I0424 22:26:51.829321 25635 net.cpp:380] fire6/expand3x3 -> fire6/expand3x3
I0424 22:26:51.832120 25635 net.cpp:122] Setting up fire6/expand3x3
I0424 22:26:51.832137 25635 net.cpp:129] Top shape: 40 192 14 14 (1505280)
I0424 22:26:51.832141 25635 net.cpp:137] Memory required for data: 1040890240
I0424 22:26:51.832149 25635 layer_factory.hpp:77] Creating layer fire6/relu_expand3x3
I0424 22:26:51.832159 25635 net.cpp:84] Creating Layer fire6/relu_expand3x3
I0424 22:26:51.832164 25635 net.cpp:406] fire6/relu_expand3x3 <- fire6/expand3x3
I0424 22:26:51.832168 25635 net.cpp:367] fire6/relu_expand3x3 -> fire6/expand3x3 (in-place)
I0424 22:26:51.832322 25635 net.cpp:122] Setting up fire6/relu_expand3x3
I0424 22:26:51.832332 25635 net.cpp:129] Top shape: 40 192 14 14 (1505280)
I0424 22:26:51.832336 25635 net.cpp:137] Memory required for data: 1046911360
I0424 22:26:51.832340 25635 layer_factory.hpp:77] Creating layer fire6/concat
I0424 22:26:51.832346 25635 net.cpp:84] Creating Layer fire6/concat
I0424 22:26:51.832350 25635 net.cpp:406] fire6/concat <- fire6/expand1x1
I0424 22:26:51.832355 25635 net.cpp:406] fire6/concat <- fire6/expand3x3
I0424 22:26:51.832361 25635 net.cpp:380] fire6/concat -> fire6/concat
I0424 22:26:51.832391 25635 net.cpp:122] Setting up fire6/concat
I0424 22:26:51.832396 25635 net.cpp:129] Top shape: 40 384 14 14 (3010560)
I0424 22:26:51.832401 25635 net.cpp:137] Memory required for data: 1058953600
I0424 22:26:51.832403 25635 layer_factory.hpp:77] Creating layer fire7/squeeze1x1
I0424 22:26:51.832412 25635 net.cpp:84] Creating Layer fire7/squeeze1x1
I0424 22:26:51.832417 25635 net.cpp:406] fire7/squeeze1x1 <- fire6/concat
I0424 22:26:51.832422 25635 net.cpp:380] fire7/squeeze1x1 -> fire7/squeeze1x1
I0424 22:26:51.833598 25635 net.cpp:122] Setting up fire7/squeeze1x1
I0424 22:26:51.833614 25635 net.cpp:129] Top shape: 40 48 14 14 (376320)
I0424 22:26:51.833618 25635 net.cpp:137] Memory required for data: 1060458880
I0424 22:26:51.834302 25635 layer_factory.hpp:77] Creating layer fire7/relu_squeeze1x1
I0424 22:26:51.834314 25635 net.cpp:84] Creating Layer fire7/relu_squeeze1x1
I0424 22:26:51.834318 25635 net.cpp:406] fire7/relu_squeeze1x1 <- fire7/squeeze1x1
I0424 22:26:51.834326 25635 net.cpp:367] fire7/relu_squeeze1x1 -> fire7/squeeze1x1 (in-place)
I0424 22:26:51.836028 25635 net.cpp:122] Setting up fire7/relu_squeeze1x1
I0424 22:26:51.836043 25635 net.cpp:129] Top shape: 40 48 14 14 (376320)
I0424 22:26:51.836047 25635 net.cpp:137] Memory required for data: 1061964160
I0424 22:26:51.836051 25635 layer_factory.hpp:77] Creating layer fire7/squeeze1x1_fire7/relu_squeeze1x1_0_split
I0424 22:26:51.836058 25635 net.cpp:84] Creating Layer fire7/squeeze1x1_fire7/relu_squeeze1x1_0_split
I0424 22:26:51.836062 25635 net.cpp:406] fire7/squeeze1x1_fire7/relu_squeeze1x1_0_split <- fire7/squeeze1x1
I0424 22:26:51.836069 25635 net.cpp:380] fire7/squeeze1x1_fire7/relu_squeeze1x1_0_split -> fire7/squeeze1x1_fire7/relu_squeeze1x1_0_split_0
I0424 22:26:51.836167 25635 net.cpp:380] fire7/squeeze1x1_fire7/relu_squeeze1x1_0_split -> fire7/squeeze1x1_fire7/relu_squeeze1x1_0_split_1
I0424 22:26:51.836211 25635 net.cpp:122] Setting up fire7/squeeze1x1_fire7/relu_squeeze1x1_0_split
I0424 22:26:51.836225 25635 net.cpp:129] Top shape: 40 48 14 14 (376320)
I0424 22:26:51.836230 25635 net.cpp:129] Top shape: 40 48 14 14 (376320)
I0424 22:26:51.836233 25635 net.cpp:137] Memory required for data: 1064974720
I0424 22:26:51.836238 25635 layer_factory.hpp:77] Creating layer fire7/expand1x1
I0424 22:26:51.836247 25635 net.cpp:84] Creating Layer fire7/expand1x1
I0424 22:26:51.836251 25635 net.cpp:406] fire7/expand1x1 <- fire7/squeeze1x1_fire7/relu_squeeze1x1_0_split_0
I0424 22:26:51.836257 25635 net.cpp:380] fire7/expand1x1 -> fire7/expand1x1
I0424 22:26:51.836951 25635 net.cpp:122] Setting up fire7/expand1x1
I0424 22:26:51.836961 25635 net.cpp:129] Top shape: 40 192 14 14 (1505280)
I0424 22:26:51.836966 25635 net.cpp:137] Memory required for data: 1070995840
I0424 22:26:51.836972 25635 layer_factory.hpp:77] Creating layer fire7/relu_expand1x1
I0424 22:26:51.836979 25635 net.cpp:84] Creating Layer fire7/relu_expand1x1
I0424 22:26:51.836982 25635 net.cpp:406] fire7/relu_expand1x1 <- fire7/expand1x1
I0424 22:26:51.836990 25635 net.cpp:367] fire7/relu_expand1x1 -> fire7/expand1x1 (in-place)
I0424 22:26:51.837551 25635 net.cpp:122] Setting up fire7/relu_expand1x1
I0424 22:26:51.837566 25635 net.cpp:129] Top shape: 40 192 14 14 (1505280)
I0424 22:26:51.837570 25635 net.cpp:137] Memory required for data: 1077016960
I0424 22:26:51.837574 25635 layer_factory.hpp:77] Creating layer fire7/expand3x3
I0424 22:26:51.837584 25635 net.cpp:84] Creating Layer fire7/expand3x3
I0424 22:26:51.837589 25635 net.cpp:406] fire7/expand3x3 <- fire7/squeeze1x1_fire7/relu_squeeze1x1_0_split_1
I0424 22:26:51.837595 25635 net.cpp:380] fire7/expand3x3 -> fire7/expand3x3
I0424 22:26:51.841362 25635 net.cpp:122] Setting up fire7/expand3x3
I0424 22:26:51.841574 25635 net.cpp:129] Top shape: 40 192 14 14 (1505280)
I0424 22:26:51.841593 25635 net.cpp:137] Memory required for data: 1083038080
I0424 22:26:51.841636 25635 layer_factory.hpp:77] Creating layer fire7/relu_expand3x3
I0424 22:26:51.841676 25635 net.cpp:84] Creating Layer fire7/relu_expand3x3
I0424 22:26:51.841691 25635 net.cpp:406] fire7/relu_expand3x3 <- fire7/expand3x3
I0424 22:26:51.841717 25635 net.cpp:367] fire7/relu_expand3x3 -> fire7/expand3x3 (in-place)
I0424 22:26:51.842382 25635 net.cpp:122] Setting up fire7/relu_expand3x3
I0424 22:26:51.842412 25635 net.cpp:129] Top shape: 40 192 14 14 (1505280)
I0424 22:26:51.842422 25635 net.cpp:137] Memory required for data: 1089059200
I0424 22:26:51.842432 25635 layer_factory.hpp:77] Creating layer fire7/concat
I0424 22:26:51.842447 25635 net.cpp:84] Creating Layer fire7/concat
I0424 22:26:51.842456 25635 net.cpp:406] fire7/concat <- fire7/expand1x1
I0424 22:26:51.842466 25635 net.cpp:406] fire7/concat <- fire7/expand3x3
I0424 22:26:51.842478 25635 net.cpp:380] fire7/concat -> fire7/concat
I0424 22:26:51.842589 25635 net.cpp:122] Setting up fire7/concat
I0424 22:26:51.842605 25635 net.cpp:129] Top shape: 40 384 14 14 (3010560)
I0424 22:26:51.842613 25635 net.cpp:137] Memory required for data: 1101101440
I0424 22:26:51.842622 25635 layer_factory.hpp:77] Creating layer fire8/squeeze1x1
I0424 22:26:51.842669 25635 net.cpp:84] Creating Layer fire8/squeeze1x1
I0424 22:26:51.842680 25635 net.cpp:406] fire8/squeeze1x1 <- fire7/concat
I0424 22:26:51.842696 25635 net.cpp:380] fire8/squeeze1x1 -> fire8/squeeze1x1
I0424 22:26:51.845937 25635 net.cpp:122] Setting up fire8/squeeze1x1
I0424 22:26:51.846071 25635 net.cpp:129] Top shape: 40 64 14 14 (501760)
I0424 22:26:51.846082 25635 net.cpp:137] Memory required for data: 1103108480
I0424 22:26:51.846118 25635 layer_factory.hpp:77] Creating layer fire8/relu_squeeze1x1
I0424 22:26:51.846153 25635 net.cpp:84] Creating Layer fire8/relu_squeeze1x1
I0424 22:26:51.846164 25635 net.cpp:406] fire8/relu_squeeze1x1 <- fire8/squeeze1x1
I0424 22:26:51.846190 25635 net.cpp:367] fire8/relu_squeeze1x1 -> fire8/squeeze1x1 (in-place)
I0424 22:26:51.846863 25635 net.cpp:122] Setting up fire8/relu_squeeze1x1
I0424 22:26:51.846886 25635 net.cpp:129] Top shape: 40 64 14 14 (501760)
I0424 22:26:51.846931 25635 net.cpp:137] Memory required for data: 1105115520
I0424 22:26:51.846946 25635 layer_factory.hpp:77] Creating layer fire8/squeeze1x1_fire8/relu_squeeze1x1_0_split
I0424 22:26:51.846961 25635 net.cpp:84] Creating Layer fire8/squeeze1x1_fire8/relu_squeeze1x1_0_split
I0424 22:26:51.846969 25635 net.cpp:406] fire8/squeeze1x1_fire8/relu_squeeze1x1_0_split <- fire8/squeeze1x1
I0424 22:26:51.846985 25635 net.cpp:380] fire8/squeeze1x1_fire8/relu_squeeze1x1_0_split -> fire8/squeeze1x1_fire8/relu_squeeze1x1_0_split_0
I0424 22:26:51.847000 25635 net.cpp:380] fire8/squeeze1x1_fire8/relu_squeeze1x1_0_split -> fire8/squeeze1x1_fire8/relu_squeeze1x1_0_split_1
I0424 22:26:51.847120 25635 net.cpp:122] Setting up fire8/squeeze1x1_fire8/relu_squeeze1x1_0_split
I0424 22:26:51.847133 25635 net.cpp:129] Top shape: 40 64 14 14 (501760)
I0424 22:26:51.847142 25635 net.cpp:129] Top shape: 40 64 14 14 (501760)
I0424 22:26:51.847148 25635 net.cpp:137] Memory required for data: 1109129600
I0424 22:26:51.847156 25635 layer_factory.hpp:77] Creating layer fire8/expand1x1
I0424 22:26:51.847183 25635 net.cpp:84] Creating Layer fire8/expand1x1
I0424 22:26:51.847193 25635 net.cpp:406] fire8/expand1x1 <- fire8/squeeze1x1_fire8/relu_squeeze1x1_0_split_0
I0424 22:26:51.847211 25635 net.cpp:380] fire8/expand1x1 -> fire8/expand1x1
I0424 22:26:51.851064 25635 net.cpp:122] Setting up fire8/expand1x1
I0424 22:26:51.851308 25635 net.cpp:129] Top shape: 40 256 14 14 (2007040)
I0424 22:26:51.851323 25635 net.cpp:137] Memory required for data: 1117157760
I0424 22:26:51.851366 25635 layer_factory.hpp:77] Creating layer fire8/relu_expand1x1
I0424 22:26:51.851405 25635 net.cpp:84] Creating Layer fire8/relu_expand1x1
I0424 22:26:51.851424 25635 net.cpp:406] fire8/relu_expand1x1 <- fire8/expand1x1
I0424 22:26:51.851444 25635 net.cpp:367] fire8/relu_expand1x1 -> fire8/expand1x1 (in-place)
I0424 22:26:51.851856 25635 net.cpp:122] Setting up fire8/relu_expand1x1
I0424 22:26:51.851883 25635 net.cpp:129] Top shape: 40 256 14 14 (2007040)
I0424 22:26:51.851893 25635 net.cpp:137] Memory required for data: 1125185920
I0424 22:26:51.851902 25635 layer_factory.hpp:77] Creating layer fire8/expand3x3
I0424 22:26:51.851938 25635 net.cpp:84] Creating Layer fire8/expand3x3
I0424 22:26:51.851948 25635 net.cpp:406] fire8/expand3x3 <- fire8/squeeze1x1_fire8/relu_squeeze1x1_0_split_1
I0424 22:26:51.851963 25635 net.cpp:380] fire8/expand3x3 -> fire8/expand3x3
I0424 22:26:51.859624 25635 net.cpp:122] Setting up fire8/expand3x3
I0424 22:26:51.859824 25635 net.cpp:129] Top shape: 40 256 14 14 (2007040)
I0424 22:26:51.859835 25635 net.cpp:137] Memory required for data: 1133214080
I0424 22:26:51.859886 25635 layer_factory.hpp:77] Creating layer fire8/relu_expand3x3
I0424 22:26:51.859943 25635 net.cpp:84] Creating Layer fire8/relu_expand3x3
I0424 22:26:51.859958 25635 net.cpp:406] fire8/relu_expand3x3 <- fire8/expand3x3
I0424 22:26:51.859987 25635 net.cpp:367] fire8/relu_expand3x3 -> fire8/expand3x3 (in-place)
I0424 22:26:51.860426 25635 net.cpp:122] Setting up fire8/relu_expand3x3
I0424 22:26:51.860445 25635 net.cpp:129] Top shape: 40 256 14 14 (2007040)
I0424 22:26:51.860450 25635 net.cpp:137] Memory required for data: 1141242240
I0424 22:26:51.860457 25635 layer_factory.hpp:77] Creating layer fire8/concat
I0424 22:26:51.860472 25635 net.cpp:84] Creating Layer fire8/concat
I0424 22:26:51.860478 25635 net.cpp:406] fire8/concat <- fire8/expand1x1
I0424 22:26:51.860488 25635 net.cpp:406] fire8/concat <- fire8/expand3x3
I0424 22:26:51.860502 25635 net.cpp:380] fire8/concat -> fire8/concat
I0424 22:26:51.860647 25635 net.cpp:122] Setting up fire8/concat
I0424 22:26:51.860663 25635 net.cpp:129] Top shape: 40 512 14 14 (4014080)
I0424 22:26:51.860669 25635 net.cpp:137] Memory required for data: 1157298560
I0424 22:26:51.860676 25635 layer_factory.hpp:77] Creating layer fire9/squeeze1x1
I0424 22:26:51.861299 25635 net.cpp:84] Creating Layer fire9/squeeze1x1
I0424 22:26:51.861318 25635 net.cpp:406] fire9/squeeze1x1 <- fire8/concat
I0424 22:26:51.861338 25635 net.cpp:380] fire9/squeeze1x1 -> fire9/squeeze1x1
I0424 22:26:51.864162 25635 net.cpp:122] Setting up fire9/squeeze1x1
I0424 22:26:51.864264 25635 net.cpp:129] Top shape: 40 64 14 14 (501760)
I0424 22:26:51.864270 25635 net.cpp:137] Memory required for data: 1159305600
I0424 22:26:51.864305 25635 layer_factory.hpp:77] Creating layer fire9/relu_squeeze1x1
I0424 22:26:51.864341 25635 net.cpp:84] Creating Layer fire9/relu_squeeze1x1
I0424 22:26:51.864354 25635 net.cpp:406] fire9/relu_squeeze1x1 <- fire9/squeeze1x1
I0424 22:26:51.864369 25635 net.cpp:367] fire9/relu_squeeze1x1 -> fire9/squeeze1x1 (in-place)
I0424 22:26:51.865406 25635 net.cpp:122] Setting up fire9/relu_squeeze1x1
I0424 22:26:51.865427 25635 net.cpp:129] Top shape: 40 64 14 14 (501760)
I0424 22:26:51.865432 25635 net.cpp:137] Memory required for data: 1161312640
I0424 22:26:51.865437 25635 layer_factory.hpp:77] Creating layer fire9/squeeze1x1_fire9/relu_squeeze1x1_0_split
I0424 22:26:51.865514 25635 net.cpp:84] Creating Layer fire9/squeeze1x1_fire9/relu_squeeze1x1_0_split
I0424 22:26:51.865522 25635 net.cpp:406] fire9/squeeze1x1_fire9/relu_squeeze1x1_0_split <- fire9/squeeze1x1
I0424 22:26:51.865535 25635 net.cpp:380] fire9/squeeze1x1_fire9/relu_squeeze1x1_0_split -> fire9/squeeze1x1_fire9/relu_squeeze1x1_0_split_0
I0424 22:26:51.865548 25635 net.cpp:380] fire9/squeeze1x1_fire9/relu_squeeze1x1_0_split -> fire9/squeeze1x1_fire9/relu_squeeze1x1_0_split_1
I0424 22:26:51.865687 25635 net.cpp:122] Setting up fire9/squeeze1x1_fire9/relu_squeeze1x1_0_split
I0424 22:26:51.865695 25635 net.cpp:129] Top shape: 40 64 14 14 (501760)
I0424 22:26:51.865701 25635 net.cpp:129] Top shape: 40 64 14 14 (501760)
I0424 22:26:51.865705 25635 net.cpp:137] Memory required for data: 1165326720
I0424 22:26:51.865710 25635 layer_factory.hpp:77] Creating layer fire9/expand1x1
I0424 22:26:51.865733 25635 net.cpp:84] Creating Layer fire9/expand1x1
I0424 22:26:51.865741 25635 net.cpp:406] fire9/expand1x1 <- fire9/squeeze1x1_fire9/relu_squeeze1x1_0_split_0
I0424 22:26:51.865751 25635 net.cpp:380] fire9/expand1x1 -> fire9/expand1x1
I0424 22:26:51.866983 25635 net.cpp:122] Setting up fire9/expand1x1
I0424 22:26:51.867009 25635 net.cpp:129] Top shape: 40 256 14 14 (2007040)
I0424 22:26:51.867015 25635 net.cpp:137] Memory required for data: 1173354880
I0424 22:26:51.867029 25635 layer_factory.hpp:77] Creating layer fire9/relu_expand1x1
I0424 22:26:51.867040 25635 net.cpp:84] Creating Layer fire9/relu_expand1x1
I0424 22:26:51.867045 25635 net.cpp:406] fire9/relu_expand1x1 <- fire9/expand1x1
I0424 22:26:51.867053 25635 net.cpp:367] fire9/relu_expand1x1 -> fire9/expand1x1 (in-place)
I0424 22:26:51.868154 25635 net.cpp:122] Setting up fire9/relu_expand1x1
I0424 22:26:51.868175 25635 net.cpp:129] Top shape: 40 256 14 14 (2007040)
I0424 22:26:51.868180 25635 net.cpp:137] Memory required for data: 1181383040
I0424 22:26:51.868185 25635 layer_factory.hpp:77] Creating layer fire9/expand3x3
I0424 22:26:51.868204 25635 net.cpp:84] Creating Layer fire9/expand3x3
I0424 22:26:51.868209 25635 net.cpp:406] fire9/expand3x3 <- fire9/squeeze1x1_fire9/relu_squeeze1x1_0_split_1
I0424 22:26:51.868217 25635 net.cpp:380] fire9/expand3x3 -> fire9/expand3x3
I0424 22:26:51.871021 25635 net.cpp:122] Setting up fire9/expand3x3
I0424 22:26:51.871093 25635 net.cpp:129] Top shape: 40 256 14 14 (2007040)
I0424 22:26:51.871098 25635 net.cpp:137] Memory required for data: 1189411200
I0424 22:26:51.871121 25635 layer_factory.hpp:77] Creating layer fire9/relu_expand3x3
I0424 22:26:51.871147 25635 net.cpp:84] Creating Layer fire9/relu_expand3x3
I0424 22:26:51.871158 25635 net.cpp:406] fire9/relu_expand3x3 <- fire9/expand3x3
I0424 22:26:51.871181 25635 net.cpp:367] fire9/relu_expand3x3 -> fire9/expand3x3 (in-place)
I0424 22:26:51.871390 25635 net.cpp:122] Setting up fire9/relu_expand3x3
I0424 22:26:51.871403 25635 net.cpp:129] Top shape: 40 256 14 14 (2007040)
I0424 22:26:51.871701 25635 net.cpp:137] Memory required for data: 1197439360
I0424 22:26:51.871706 25635 layer_factory.hpp:77] Creating layer fire9/concat
I0424 22:26:51.871718 25635 net.cpp:84] Creating Layer fire9/concat
I0424 22:26:51.871762 25635 net.cpp:406] fire9/concat <- fire9/expand1x1
I0424 22:26:51.871769 25635 net.cpp:406] fire9/concat <- fire9/expand3x3
I0424 22:26:51.871778 25635 net.cpp:380] fire9/concat -> fire9/concat
I0424 22:26:51.871863 25635 net.cpp:122] Setting up fire9/concat
I0424 22:26:51.871872 25635 net.cpp:129] Top shape: 40 512 14 14 (4014080)
I0424 22:26:51.871876 25635 net.cpp:137] Memory required for data: 1213495680
I0424 22:26:51.871879 25635 layer_factory.hpp:77] Creating layer drop9
I0424 22:26:51.871891 25635 net.cpp:84] Creating Layer drop9
I0424 22:26:51.871894 25635 net.cpp:406] drop9 <- fire9/concat
I0424 22:26:51.871901 25635 net.cpp:367] drop9 -> fire9/concat (in-place)
I0424 22:26:51.871945 25635 net.cpp:122] Setting up drop9
I0424 22:26:51.871953 25635 net.cpp:129] Top shape: 40 512 14 14 (4014080)
I0424 22:26:51.871956 25635 net.cpp:137] Memory required for data: 1229552000
I0424 22:26:51.871960 25635 layer_factory.hpp:77] Creating layer conv10_new
I0424 22:26:51.871978 25635 net.cpp:84] Creating Layer conv10_new
I0424 22:26:51.871982 25635 net.cpp:406] conv10_new <- fire9/concat
I0424 22:26:51.871992 25635 net.cpp:380] conv10_new -> conv10_new
I0424 22:26:51.877374 25635 net.cpp:122] Setting up conv10_new
I0424 22:26:51.877513 25635 net.cpp:129] Top shape: 40 196 14 14 (1536640)
I0424 22:26:51.877518 25635 net.cpp:137] Memory required for data: 1235698560
I0424 22:26:51.877539 25635 layer_factory.hpp:77] Creating layer relu_conv10
I0424 22:26:51.877562 25635 net.cpp:84] Creating Layer relu_conv10
I0424 22:26:51.877569 25635 net.cpp:406] relu_conv10 <- conv10_new
I0424 22:26:51.877584 25635 net.cpp:367] relu_conv10 -> conv10_new (in-place)
I0424 22:26:51.877794 25635 net.cpp:122] Setting up relu_conv10
I0424 22:26:51.877810 25635 net.cpp:129] Top shape: 40 196 14 14 (1536640)
I0424 22:26:51.877815 25635 net.cpp:137] Memory required for data: 1241845120
I0424 22:26:51.877820 25635 layer_factory.hpp:77] Creating layer pool10
I0424 22:26:51.877840 25635 net.cpp:84] Creating Layer pool10
I0424 22:26:51.877846 25635 net.cpp:406] pool10 <- conv10_new
I0424 22:26:51.877853 25635 net.cpp:380] pool10 -> pool10
I0424 22:26:51.878106 25635 net.cpp:122] Setting up pool10
I0424 22:26:51.878123 25635 net.cpp:129] Top shape: 40 196 1 1 (7840)
I0424 22:26:51.878126 25635 net.cpp:137] Memory required for data: 1241876480
I0424 22:26:51.878132 25635 layer_factory.hpp:77] Creating layer loss
I0424 22:26:51.878147 25635 net.cpp:84] Creating Layer loss
I0424 22:26:51.878154 25635 net.cpp:406] loss <- pool10
I0424 22:26:51.878161 25635 net.cpp:406] loss <- label
I0424 22:26:51.878175 25635 net.cpp:380] loss -> loss
I0424 22:26:51.878221 25635 layer_factory.hpp:77] Creating layer loss
…
I0424 22:26:51.885349 25635 solver.cpp:172] Creating test net (#0) specified by net file: finetune.prototxt
I0424 22:26:51.885504 25635 net.cpp:294] The NetState phase (1) differed from the phase (0) specified by a rule in layer data
I0424 22:26:51.885978 25635 net.cpp:51] Initializing net from parameters: 
state {
  phase: TEST
}
layer {
  name: "data"
  type: "ImageData"
  top: "data"
  top: "label"
  include {
    phase: TEST
  }
  transform_param {
    mean_value: 104
    mean_value: 117
    mean_value: 123
  }
  image_data_param {
    source: "./val2.txt"
    batch_size: 40
    mirror: false
    shuffle: true
  }
}
layer {
  name: "conv1"
  type: "Convolution"
  bottom: "data"
  top: "conv1"
  convolution_param {
    num_output: 64
    kernel_size: 3
    stride: 2
    weight_filler {
      type: "xavier"
    }
  }
}
layer {
  name: "relu_conv1"
  type: "ReLU"
  bottom: "conv1"
  top: "conv1"
}
layer {
  name: "pool1"
  type: "Pooling"
  bottom: "conv1"
  top: "pool1"
  pooling_param {
    pool: MAX
    kernel_size: 3
    stride: 2
  }
}
layer {
  name: "fire2/squeeze1x1"
  type: "Convolution"
  bottom: "pool1"
  top: "fire2/squeeze1x1"
  convolution_param {
    num_output: 16
    kernel_size: 1
    weight_filler {
      type: "xavier"
    }
  }
}
layer {
  name: "fire2/relu_squeeze1x1"
  type: "ReLU"
  bottom: "fire2/squeeze1x1"
  top: "fire2/squeeze1x1"
}
layer {
  name: "fire2/expand1x1"
  type: "Convolution"
  bottom: "fire2/squeeze1x1"
  top: "fire2/expand1x1"
  convolution_param {
    num_output: 64
    kernel_size: 1
    weight_filler {
      type: "xavier"
    }
  }
}
layer {
  name: "fire2/relu_expand1x1"
  type: "ReLU"
  bottom: "fire2/expand1x1"
  top: "fire2/expand1x1"
}
layer {
  name: "fire2/expand3x3"
  type: "Convolution"
  bottom: "fire2/squeeze1x1"
  top: "fire2/expand3x3"
  convolution_param {
    num_output: 64
    pad: 1
    kernel_size: 3
    weight_filler {
      type: "xavier"
    }
  }
}
layer {
  name: "fire2/relu_expand3x3"
  type: "ReLU"
  bottom: "fire2/expand3x3"
  top: "fire2/expand3x3"
}
layer {
  name: "fire2/concat"
  type: "Concat"
  bottom: "fire2/expand1x1"
  bottom: "fire2/expand3x3"
  top: "fire2/concat"
}
layer {
  name: "fire3/squeeze1x1"
  type: "Convolution"
  bottom: "fire2/concat"
  top: "fire3/squeeze1x1"
  convolution_param {
    num_output: 16
    kernel_size: 1
    weight_filler {
      type: "xavier"
    }
  }
}
layer {
  name: "fire3/relu_squeeze1x1"
  type: "ReLU"
  bottom: "fire3/squeeze1x1"
  top: "fire3/squeeze1x1"
}
layer {
  name: "fire3/expand1x1"
  type: "Convolution"
  bottom: "fire3/squeeze1x1"
  top: "fire3/expand1x1"
  convolution_param {
    num_output: 64
    kernel_size: 1
    weight_filler {
      type: "xavier"
    }
  }
}
layer {
  name: "fire3/relu_expand1x1"
  type: "ReLU"
  bottom: "fire3/expand1x1"
  top: "fire3/expand1x1"
}
layer {
  name: "fire3/expand3x3"
  type: "Convolution"
  bottom: "fire3/squeeze1x1"
  top: "fire3/expand3x3"
  convolution_param {
    num_output: 64
    pad: 1
    kernel_size: 3
    weight_filler {
      type: "xavier"
    }
  }
}
layer {
  name: "fire3/relu_expand3x3"
  type: "ReLU"
  bottom: "fire3/expand3x3"
  top: "fire3/expand3x3"
}
layer {
  name: "fire3/concat"
  type: "Concat"
  bottom: "fire3/expand1x1"
  bottom: "fire3/expand3x3"
  top: "fire3/concat"
}
layer {
  name: "pool3"
  type: "Pooling"
  bottom: "fire3/concat"
  top: "pool3"
  pooling_param {
    pool: MAX
    kernel_size: 3
    stride: 2
  }
}
layer {
  name: "fire4/squeeze1x1"
  type: "Convolution"
  bottom: "pool3"
  top: "fire4/squeeze1x1"
  convolution_param {
    num_output: 32
    kernel_size: 1
    weight_filler {
      type: "xavier"
    }
  }
}
layer {
  name: "fire4/relu_squeeze1x1"
  type: "ReLU"
  bottom: "fire4/squeeze1x1"
  top: "fire4/squeeze1x1"
}
layer {
  name: "fire4/expand1x1"
  type: "Convolution"
  bottom: "fire4/squeeze1x1"
  top: "fire4/expand1x1"
  convolution_param {
    num_output: 128
    kernel_size: 1
    weight_filler {
      type: "xavier"
    }
  }
}
layer {
  name: "fire4/relu_expand1x1"
  type: "ReLU"
  bottom: "fire4/expand1x1"
  top: "fire4/expand1x1"
}
layer {
  name: "fire4/expand3x3"
  type: "Convolution"
  bottom: "fire4/squeeze1x1"
  top: "fire4/expand3x3"
  convolution_param {
    num_output: 128
    pad: 1
    kernel_size: 3
    weight_filler {
      type: "xavier"
    }
  }
}
layer {
  name: "fire4/relu_expand3x3"
  type: "ReLU"
  bottom: "fire4/expand3x3"
  top: "fire4/expand3x3"
}
layer {
  name: "fire4/concat"
  type: "Concat"
  bottom: "fire4/expand1x1"
  bottom: "fire4/expand3x3"
  top: "fire4/concat"
}
layer {
  name: "fire5/squeeze1x1"
  type: "Convolution"
  bottom: "fire4/concat"
  top: "fire5/squeeze1x1"
  convolution_param {
    num_output: 32
    kernel_size: 1
    weight_filler {
      type: "xavier"
    }
  }
}
layer {
  name: "fire5/relu_squeeze1x1"
  type: "ReLU"
  bottom: "fire5/squeeze1x1"
  top: "fire5/squeeze1x1"
}
layer {
  name: "fire5/expand1x1"
  type: "Convolution"
  bottom: "fire5/squeeze1x1"
  top: "fire5/expand1x1"
  convolution_param {
    num_output: 128
    kernel_size: 1
    weight_filler {
      type: "xavier"
    }
  }
}
layer {
  name: "fire5/relu_expand1x1"
  type: "ReLU"
  bottom: "fire5/expand1x1"
  top: "fire5/expand1x1"
}
layer {
  name: "fire5/expand3x3"
  type: "Convolution"
  bottom: "fire5/squeeze1x1"
  top: "fire5/expand3x3"
  convolution_param {
    num_output: 128
    pad: 1
    kernel_size: 3
    weight_filler {
      type: "xavier"
    }
  }
}
layer {
  name: "fire5/relu_expand3x3"
  type: "ReLU"
  bottom: "fire5/expand3x3"
  top: "fire5/expand3x3"
}
layer {
  name: "fire5/concat"
  type: "Concat"
  bottom: "fire5/expand1x1"
  bottom: "fire5/expand3x3"
  top: "fire5/concat"
}
layer {
  name: "pool5"
  type: "Pooling"
  bottom: "fire5/concat"
  top: "pool5"
  pooling_param {
    pool: MAX
    kernel_size: 3
    stride: 2
  }
}
layer {
  name: "fire6/squeeze1x1"
  type: "Convolution"
  bottom: "pool5"
  top: "fire6/squeeze1x1"
  convolution_param {
    num_output: 48
    kernel_size: 1
    weight_filler {
      type: "xavier"
    }
  }
}
layer {
  name: "fire6/relu_squeeze1x1"
  type: "ReLU"
  bottom: "fire6/squeeze1x1"
  top: "fire6/squeeze1x1"
}
layer {
  name: "fire6/expand1x1"
  type: "Convolution"
  bottom: "fire6/squeeze1x1"
  top: "fire6/expand1x1"
  convolution_param {
    num_output: 192
    kernel_size: 1
    weight_filler {
      type: "xavier"
    }
  }
}
layer {
  name: "fire6/relu_expand1x1"
  type: "ReLU"
  bottom: "fire6/expand1x1"
  top: "fire6/expand1x1"
}
layer {
  name: "fire6/expand3x3"
  type: "Convolution"
  bottom: "fire6/squeeze1x1"
  top: "fire6/expand3x3"
  convolution_param {
    num_output: 192
    pad: 1
    kernel_size: 3
    weight_filler {
      type: "xavier"
    }
  }
}
layer {
  name: "fire6/relu_expand3x3"
  type: "ReLU"
  bottom: "fire6/expand3x3"
  top: "fire6/expand3x3"
}
layer {
  name: "fire6/concat"
  type: "Concat"
  bottom: "fire6/expand1x1"
  bottom: "fire6/expand3x3"
  top: "fire6/concat"
}
layer {
  name: "fire7/squeeze1x1"
  type: "Convolution"
  bottom: "fire6/concat"
  top: "fire7/squeeze1x1"
  convolution_param {
    num_output: 48
    kernel_size: 1
    weight_filler {
      type: "xavier"
    }
  }
}
layer {
  name: "fire7/relu_squeeze1x1"
  type: "ReLU"
  bottom: "fire7/squeeze1x1"
  top: "fire7/squeeze1x1"
}
layer {
  name: "fire7/expand1x1"
  type: "Convolution"
  bottom: "fire7/squeeze1x1"
  top: "fire7/expand1x1"
  convolution_param {
    num_output: 192
    kernel_size: 1
    weight_filler {
      type: "xavier"
    }
  }
}
layer {
  name: "fire7/relu_expand1x1"
  type: "ReLU"
  bottom: "fire7/expand1x1"
  top: "fire7/expand1x1"
}
layer {
  name: "fire7/expand3x3"
  type: "Convolution"
  bottom: "fire7/squeeze1x1"
  top: "fire7/expand3x3"
  convolution_param {
    num_output: 192
    pad: 1
    kernel_size: 3
    weight_filler {
      type: "xavier"
    }
  }
}
layer {
  name: "fire7/relu_expand3x3"
  type: "ReLU"
  bottom: "fire7/expand3x3"
  top: "fire7/expand3x3"
}
layer {
  name: "fire7/concat"
  type: "Concat"
  bottom: "fire7/expand1x1"
  bottom: "fire7/expand3x3"
  top: "fire7/concat"
}
layer {
  name: "fire8/squeeze1x1"
  type: "Convolution"
  bottom: "fire7/concat"
  top: "fire8/squeeze1x1"
  convolution_param {
    num_output: 64
    kernel_size: 1
    weight_filler {
      type: "xavier"
    }
  }
}
layer {
  name: "fire8/relu_squeeze1x1"
  type: "ReLU"
  bottom: "fire8/squeeze1x1"
  top: "fire8/squeeze1x1"
}
layer {
  name: "fire8/expand1x1"
  type: "Convolution"
  bottom: "fire8/squeeze1x1"
  top: "fire8/expand1x1"
  convolution_param {
    num_output: 256
    kernel_size: 1
    weight_filler {
      type: "xavier"
    }
  }
}
layer {
  name: "fire8/relu_expand1x1"
  type: "ReLU"
  bottom: "fire8/expand1x1"
  top: "fire8/expand1x1"
}
layer {
  name: "fire8/expand3x3"
  type: "Convolution"
  bottom: "fire8/squeeze1x1"
  top: "fire8/expand3x3"
  convolution_param {
    num_output: 256
    pad: 1
    kernel_size: 3
    weight_filler {
      type: "xavier"
    }
  }
}
layer {
  name: "fire8/relu_expand3x3"
  type: "ReLU"
  bottom: "fire8/expand3x3"
  top: "fire8/expand3x3"
}
layer {
  name: "fire8/concat"
  type: "Concat"
  bottom: "fire8/expand1x1"
  bottom: "fire8/expand3x3"
  top: "fire8/concat"
}
layer {
  name: "fire9/squeeze1x1"
  type: "Convolution"
  bottom: "fire8/concat"
  top: "fire9/squeeze1x1"
  convolution_param {
    num_output: 64
    kernel_size: 1
    weight_filler {
      type: "xavier"
    }
  }
}
layer {
  name: "fire9/relu_squeeze1x1"
  type: "ReLU"
  bottom: "fire9/squeeze1x1"
  top: "fire9/squeeze1x1"
}
layer {
  name: "fire9/expand1x1"
  type: "Convolution"
  bottom: "fire9/squeeze1x1"
  top: "fire9/expand1x1"
  convolution_param {
    num_output: 256
    kernel_size: 1
    weight_filler {
      type: "xavier"
    }
  }
}
layer {
  name: "fire9/relu_expand1x1"
  type: "ReLU"
  bottom: "fire9/expand1x1"
  top: "fire9/expand1x1"
}
layer {
  name: "fire9/expand3x3"
  type: "Convolution"
  bottom: "fire9/squeeze1x1"
  top: "fire9/expand3x3"
  convolution_param {
    num_output: 256
    pad: 1
    kernel_size: 3
    weight_filler {
      type: "xavier"
    }
  }
}
layer {
  name: "fire9/relu_expand3x3"
  type: "ReLU"
  bottom: "fire9/expand3x3"
  top: "fire9/expand3x3"
}
layer {
  name: "fire9/concat"
  type: "Concat"
  bottom: "fire9/expand1x1"
  bottom: "fire9/expand3x3"
  top: "fire9/concat"
}
layer {
  name: "drop9"
  type: "Dropout"
  bottom: "fire9/concat"
  top: "fire9/concat"
  dropout_param {
    dropout_ratio: 0.5
  }
}
layer {
  name: "conv10_new"
  type: "Convolution"
  bottom: "fire9/concat"
  top: "conv10_new"
  convolution_param {
    num_output: 196
    kernel_size: 1
    weight_filler {
      type: "gaussian"
      mean: 0
      std: 0.01
    }
  }
}
layer {
  name: "relu_conv10"
  type: "ReLU"
  bottom: "conv10_new"
  top: "conv10_new"
}
layer {
  name: "pool10"
  type: "Pooling"
  bottom: "conv10_new"
  top: "pool10"
  pooling_param {
    pool: AVE
    global_pooling: true
  }
}
layer {
  name: "loss"
  type: "SoftmaxWithLoss"
  bottom: "pool10"
  bottom: "label"
  top: "loss"
}
layer {
  name: "accuracy"
  type: "Accuracy"
  bottom: "pool10"
  bottom: "label"
  top: "accuracy"
  include {
    phase: TEST
  }
}
layer {
  name: "accuracy_top5"
  type: "Accuracy"
  bottom: "pool10"
  bottom: "label"
  top: "accuracy_top5"
  include {
    phase: TEST
  }
  accuracy_param {
    top_k: 5
  }
}
I0424 22:26:51.886700 25635 layer_factory.hpp:77] Creating layer data
I0424 22:26:51.886780 25635 net.cpp:84] Creating Layer data
I0424 22:26:51.886797 25635 net.cpp:380] data -> data
I0424 22:26:51.886833 25635 net.cpp:380] data -> label
I0424 22:26:51.886869 25635 image_data_layer.cpp:38] Opening file ./val2.txt
I0424 22:26:51.892240 25635 image_data_layer.cpp:53] Shuffling data
I0424 22:26:51.893405 25635 image_data_layer.cpp:63] A total of 4101 images.
I0424 22:26:51.895463 25635 image_data_layer.cpp:90] output data size: 40,3,227,227
I0424 22:26:51.976024 25635 net.cpp:122] Setting up data
I0424 22:26:51.976083 25635 net.cpp:129] Top shape: 40 3 227 227 (6183480)
I0424 22:26:51.976092 25635 net.cpp:129] Top shape: 40 (40)
I0424 22:26:51.976099 25635 net.cpp:137] Memory required for data: 24734080
I0424 22:26:51.976109 25635 layer_factory.hpp:77] Creating layer label_data_1_split
I0424 22:26:51.976127 25635 net.cpp:84] Creating Layer label_data_1_split
I0424 22:26:51.976135 25635 net.cpp:406] label_data_1_split <- label
I0424 22:26:51.976147 25635 net.cpp:380] label_data_1_split -> label_data_1_split_0
I0424 22:26:51.976166 25635 net.cpp:380] label_data_1_split -> label_data_1_split_1
I0424 22:26:51.976176 25635 net.cpp:380] label_data_1_split -> label_data_1_split_2
I0424 22:26:51.976284 25635 net.cpp:122] Setting up label_data_1_split
I0424 22:26:51.976294 25635 net.cpp:129] Top shape: 40 (40)
I0424 22:26:51.976302 25635 net.cpp:129] Top shape: 40 (40)
I0424 22:26:51.976310 25635 net.cpp:129] Top shape: 40 (40)
I0424 22:26:51.976315 25635 net.cpp:137] Memory required for data: 24734560
I0424 22:26:51.976320 25635 layer_factory.hpp:77] Creating layer conv1
I0424 22:26:51.976338 25635 net.cpp:84] Creating Layer conv1
I0424 22:26:51.976344 25635 net.cpp:406] conv1 <- data
I0424 22:26:51.976352 25635 net.cpp:380] conv1 -> conv1
I0424 22:26:51.986459 25635 net.cpp:122] Setting up conv1
I0424 22:26:51.986495 25635 net.cpp:129] Top shape: 40 64 113 113 (32688640)
I0424 22:26:51.986502 25635 net.cpp:137] Memory required for data: 155489120
I0424 22:26:51.986526 25635 layer_factory.hpp:77] Creating layer relu_conv1
I0424 22:26:51.986538 25635 net.cpp:84] Creating Layer relu_conv1
I0424 22:26:51.986546 25635 net.cpp:406] relu_conv1 <- conv1
I0424 22:26:51.986554 25635 net.cpp:367] relu_conv1 -> conv1 (in-place)
I0424 22:26:51.998577 25635 net.cpp:122] Setting up relu_conv1
I0424 22:26:51.998684 25635 net.cpp:129] Top shape: 40 64 113 113 (32688640)
I0424 22:26:51.998694 25635 net.cpp:137] Memory required for data: 286243680
I0424 22:26:51.998708 25635 layer_factory.hpp:77] Creating layer pool1
I0424 22:26:51.998737 25635 net.cpp:84] Creating Layer pool1
I0424 22:26:51.998744 25635 net.cpp:406] pool1 <- conv1
I0424 22:26:51.998762 25635 net.cpp:380] pool1 -> pool1
I0424 22:26:51.998946 25635 net.cpp:122] Setting up pool1
I0424 22:26:51.998960 25635 net.cpp:129] Top shape: 40 64 56 56 (8028160)
I0424 22:26:51.998965 25635 net.cpp:137] Memory required for data: 318356320
I0424 22:26:51.998971 25635 layer_factory.hpp:77] Creating layer fire2/squeeze1x1
I0424 22:26:51.999049 25635 net.cpp:84] Creating Layer fire2/squeeze1x1
I0424 22:26:51.999056 25635 net.cpp:406] fire2/squeeze1x1 <- pool1
I0424 22:26:51.999065 25635 net.cpp:380] fire2/squeeze1x1 -> fire2/squeeze1x1
I0424 22:26:52.017767 25635 net.cpp:122] Setting up fire2/squeeze1x1
I0424 22:26:52.017936 25635 net.cpp:129] Top shape: 40 16 56 56 (2007040)
I0424 22:26:52.017946 25635 net.cpp:137] Memory required for data: 326384480
I0424 22:26:52.017997 25635 layer_factory.hpp:77] Creating layer fire2/relu_squeeze1x1
I0424 22:26:52.018029 25635 net.cpp:84] Creating Layer fire2/relu_squeeze1x1
I0424 22:26:52.018040 25635 net.cpp:406] fire2/relu_squeeze1x1 <- fire2/squeeze1x1
I0424 22:26:52.018065 25635 net.cpp:367] fire2/relu_squeeze1x1 -> fire2/squeeze1x1 (in-place)
I0424 22:26:52.018673 25635 net.cpp:122] Setting up fire2/relu_squeeze1x1
I0424 22:26:52.018692 25635 net.cpp:129] Top shape: 40 16 56 56 (2007040)
I0424 22:26:52.018697 25635 net.cpp:137] Memory required for data: 334412640
I0424 22:26:52.018703 25635 layer_factory.hpp:77] Creating layer fire2/squeeze1x1_fire2/relu_squeeze1x1_0_split
I0424 22:26:52.018713 25635 net.cpp:84] Creating Layer fire2/squeeze1x1_fire2/relu_squeeze1x1_0_split
I0424 22:26:52.018720 25635 net.cpp:406] fire2/squeeze1x1_fire2/relu_squeeze1x1_0_split <- fire2/squeeze1x1
I0424 22:26:52.018730 25635 net.cpp:380] fire2/squeeze1x1_fire2/relu_squeeze1x1_0_split -> fire2/squeeze1x1_fire2/relu_squeeze1x1_0_split_0
I0424 22:26:52.018746 25635 net.cpp:380] fire2/squeeze1x1_fire2/relu_squeeze1x1_0_split -> fire2/squeeze1x1_fire2/relu_squeeze1x1_0_split_1
I0424 22:26:52.018842 25635 net.cpp:122] Setting up fire2/squeeze1x1_fire2/relu_squeeze1x1_0_split
I0424 22:26:52.018856 25635 net.cpp:129] Top shape: 40 16 56 56 (2007040)
I0424 22:26:52.018862 25635 net.cpp:129] Top shape: 40 16 56 56 (2007040)
I0424 22:26:52.018868 25635 net.cpp:137] Memory required for data: 350468960
I0424 22:26:52.018874 25635 layer_factory.hpp:77] Creating layer fire2/expand1x1
I0424 22:26:52.018898 25635 net.cpp:84] Creating Layer fire2/expand1x1
I0424 22:26:52.018904 25635 net.cpp:406] fire2/expand1x1 <- fire2/squeeze1x1_fire2/relu_squeeze1x1_0_split_0
I0424 22:26:52.018913 25635 net.cpp:380] fire2/expand1x1 -> fire2/expand1x1
I0424 22:26:52.020871 25635 net.cpp:122] Setting up fire2/expand1x1
I0424 22:26:52.020900 25635 net.cpp:129] Top shape: 40 64 56 56 (8028160)
I0424 22:26:52.020907 25635 net.cpp:137] Memory required for data: 382581600
I0424 22:26:52.020927 25635 layer_factory.hpp:77] Creating layer fire2/relu_expand1x1
I0424 22:26:52.020939 25635 net.cpp:84] Creating Layer fire2/relu_expand1x1
I0424 22:26:52.020947 25635 net.cpp:406] fire2/relu_expand1x1 <- fire2/expand1x1
I0424 22:26:52.020957 25635 net.cpp:367] fire2/relu_expand1x1 -> fire2/expand1x1 (in-place)
I0424 22:26:52.021183 25635 net.cpp:122] Setting up fire2/relu_expand1x1
I0424 22:26:52.021198 25635 net.cpp:129] Top shape: 40 64 56 56 (8028160)
I0424 22:26:52.021203 25635 net.cpp:137] Memory required for data: 414694240
I0424 22:26:52.021209 25635 layer_factory.hpp:77] Creating layer fire2/expand3x3
I0424 22:26:52.021229 25635 net.cpp:84] Creating Layer fire2/expand3x3
I0424 22:26:52.021235 25635 net.cpp:406] fire2/expand3x3 <- fire2/squeeze1x1_fire2/relu_squeeze1x1_0_split_1
I0424 22:26:52.021245 25635 net.cpp:380] fire2/expand3x3 -> fire2/expand3x3
I0424 22:26:52.024160 25635 net.cpp:122] Setting up fire2/expand3x3
I0424 22:26:52.024188 25635 net.cpp:129] Top shape: 40 64 56 56 (8028160)
I0424 22:26:52.024194 25635 net.cpp:137] Memory required for data: 446806880
I0424 22:26:52.024209 25635 layer_factory.hpp:77] Creating layer fire2/relu_expand3x3
I0424 22:26:52.024221 25635 net.cpp:84] Creating Layer fire2/relu_expand3x3
I0424 22:26:52.024227 25635 net.cpp:406] fire2/relu_expand3x3 <- fire2/expand3x3
I0424 22:26:52.024238 25635 net.cpp:367] fire2/relu_expand3x3 -> fire2/expand3x3 (in-place)
I0424 22:26:52.024457 25635 net.cpp:122] Setting up fire2/relu_expand3x3
I0424 22:26:52.024471 25635 net.cpp:129] Top shape: 40 64 56 56 (8028160)
I0424 22:26:52.024507 25635 net.cpp:137] Memory required for data: 478919520
I0424 22:26:52.024513 25635 layer_factory.hpp:77] Creating layer fire2/concat
I0424 22:26:52.024523 25635 net.cpp:84] Creating Layer fire2/concat
I0424 22:26:52.024544 25635 net.cpp:406] fire2/concat <- fire2/expand1x1
I0424 22:26:52.024551 25635 net.cpp:406] fire2/concat <- fire2/expand3x3
I0424 22:26:52.024562 25635 net.cpp:380] fire2/concat -> fire2/concat
I0424 22:26:52.024601 25635 net.cpp:122] Setting up fire2/concat
I0424 22:26:52.024615 25635 net.cpp:129] Top shape: 40 128 56 56 (16056320)
I0424 22:26:52.024619 25635 net.cpp:137] Memory required for data: 543144800
I0424 22:26:52.024626 25635 layer_factory.hpp:77] Creating layer fire3/squeeze1x1
I0424 22:26:52.024639 25635 net.cpp:84] Creating Layer fire3/squeeze1x1
I0424 22:26:52.024646 25635 net.cpp:406] fire3/squeeze1x1 <- fire2/concat
I0424 22:26:52.024657 25635 net.cpp:380] fire3/squeeze1x1 -> fire3/squeeze1x1
I0424 22:26:52.027323 25635 net.cpp:122] Setting up fire3/squeeze1x1
I0424 22:26:52.027354 25635 net.cpp:129] Top shape: 40 16 56 56 (2007040)
I0424 22:26:52.027359 25635 net.cpp:137] Memory required for data: 551172960
I0424 22:26:52.027379 25635 layer_factory.hpp:77] Creating layer fire3/relu_squeeze1x1
I0424 22:26:52.027393 25635 net.cpp:84] Creating Layer fire3/relu_squeeze1x1
I0424 22:26:52.027403 25635 net.cpp:406] fire3/relu_squeeze1x1 <- fire3/squeeze1x1
I0424 22:26:52.027416 25635 net.cpp:367] fire3/relu_squeeze1x1 -> fire3/squeeze1x1 (in-place)
I0424 22:26:52.027640 25635 net.cpp:122] Setting up fire3/relu_squeeze1x1
I0424 22:26:52.027654 25635 net.cpp:129] Top shape: 40 16 56 56 (2007040)
I0424 22:26:52.027660 25635 net.cpp:137] Memory required for data: 559201120
I0424 22:26:52.027667 25635 layer_factory.hpp:77] Creating layer fire3/squeeze1x1_fire3/relu_squeeze1x1_0_split
I0424 22:26:52.027676 25635 net.cpp:84] Creating Layer fire3/squeeze1x1_fire3/relu_squeeze1x1_0_split
I0424 22:26:52.027683 25635 net.cpp:406] fire3/squeeze1x1_fire3/relu_squeeze1x1_0_split <- fire3/squeeze1x1
I0424 22:26:52.027694 25635 net.cpp:380] fire3/squeeze1x1_fire3/relu_squeeze1x1_0_split -> fire3/squeeze1x1_fire3/relu_squeeze1x1_0_split_0
I0424 22:26:52.027706 25635 net.cpp:380] fire3/squeeze1x1_fire3/relu_squeeze1x1_0_split -> fire3/squeeze1x1_fire3/relu_squeeze1x1_0_split_1
I0424 22:26:52.027763 25635 net.cpp:122] Setting up fire3/squeeze1x1_fire3/relu_squeeze1x1_0_split
I0424 22:26:52.027775 25635 net.cpp:129] Top shape: 40 16 56 56 (2007040)
I0424 22:26:52.027783 25635 net.cpp:129] Top shape: 40 16 56 56 (2007040)
I0424 22:26:52.027788 25635 net.cpp:137] Memory required for data: 575257440
I0424 22:26:52.027793 25635 layer_factory.hpp:77] Creating layer fire3/expand1x1
I0424 22:26:52.027812 25635 net.cpp:84] Creating Layer fire3/expand1x1
I0424 22:26:52.027820 25635 net.cpp:406] fire3/expand1x1 <- fire3/squeeze1x1_fire3/relu_squeeze1x1_0_split_0
I0424 22:26:52.027832 25635 net.cpp:380] fire3/expand1x1 -> fire3/expand1x1
I0424 22:26:52.029553 25635 net.cpp:122] Setting up fire3/expand1x1
I0424 22:26:52.029573 25635 net.cpp:129] Top shape: 40 64 56 56 (8028160)
I0424 22:26:52.029580 25635 net.cpp:137] Memory required for data: 607370080
I0424 22:26:52.029592 25635 layer_factory.hpp:77] Creating layer fire3/relu_expand1x1
I0424 22:26:52.029601 25635 net.cpp:84] Creating Layer fire3/relu_expand1x1
I0424 22:26:52.029608 25635 net.cpp:406] fire3/relu_expand1x1 <- fire3/expand1x1
I0424 22:26:52.029619 25635 net.cpp:367] fire3/relu_expand1x1 -> fire3/expand1x1 (in-place)
I0424 22:26:52.030493 25635 net.cpp:122] Setting up fire3/relu_expand1x1
I0424 22:26:52.030509 25635 net.cpp:129] Top shape: 40 64 56 56 (8028160)
I0424 22:26:52.030516 25635 net.cpp:137] Memory required for data: 639482720
I0424 22:26:52.030524 25635 layer_factory.hpp:77] Creating layer fire3/expand3x3
I0424 22:26:52.030539 25635 net.cpp:84] Creating Layer fire3/expand3x3
I0424 22:26:52.030546 25635 net.cpp:406] fire3/expand3x3 <- fire3/squeeze1x1_fire3/relu_squeeze1x1_0_split_1
I0424 22:26:52.030557 25635 net.cpp:380] fire3/expand3x3 -> fire3/expand3x3
I0424 22:26:52.032392 25635 net.cpp:122] Setting up fire3/expand3x3
I0424 22:26:52.032420 25635 net.cpp:129] Top shape: 40 64 56 56 (8028160)
I0424 22:26:52.032428 25635 net.cpp:137] Memory required for data: 671595360
I0424 22:26:52.032465 25635 layer_factory.hpp:77] Creating layer fire3/relu_expand3x3
I0424 22:26:52.032482 25635 net.cpp:84] Creating Layer fire3/relu_expand3x3
I0424 22:26:52.032490 25635 net.cpp:406] fire3/relu_expand3x3 <- fire3/expand3x3
I0424 22:26:52.032500 25635 net.cpp:367] fire3/relu_expand3x3 -> fire3/expand3x3 (in-place)
I0424 22:26:52.032738 25635 net.cpp:122] Setting up fire3/relu_expand3x3
I0424 22:26:52.032753 25635 net.cpp:129] Top shape: 40 64 56 56 (8028160)
I0424 22:26:52.032759 25635 net.cpp:137] Memory required for data: 703708000
I0424 22:26:52.032765 25635 layer_factory.hpp:77] Creating layer fire3/concat
I0424 22:26:52.032775 25635 net.cpp:84] Creating Layer fire3/concat
I0424 22:26:52.032783 25635 net.cpp:406] fire3/concat <- fire3/expand1x1
I0424 22:26:52.032791 25635 net.cpp:406] fire3/concat <- fire3/expand3x3
I0424 22:26:52.032801 25635 net.cpp:380] fire3/concat -> fire3/concat
I0424 22:26:52.032845 25635 net.cpp:122] Setting up fire3/concat
I0424 22:26:52.032856 25635 net.cpp:129] Top shape: 40 128 56 56 (16056320)
I0424 22:26:52.032861 25635 net.cpp:137] Memory required for data: 767933280
I0424 22:26:52.032867 25635 layer_factory.hpp:77] Creating layer pool3
I0424 22:26:52.032882 25635 net.cpp:84] Creating Layer pool3
I0424 22:26:52.032889 25635 net.cpp:406] pool3 <- fire3/concat
I0424 22:26:52.032897 25635 net.cpp:380] pool3 -> pool3
I0424 22:26:52.032959 25635 net.cpp:122] Setting up pool3
I0424 22:26:52.032969 25635 net.cpp:129] Top shape: 40 128 28 28 (4014080)
I0424 22:26:52.032976 25635 net.cpp:137] Memory required for data: 783989600
I0424 22:26:52.032982 25635 layer_factory.hpp:77] Creating layer fire4/squeeze1x1
I0424 22:26:52.033001 25635 net.cpp:84] Creating Layer fire4/squeeze1x1
I0424 22:26:52.033007 25635 net.cpp:406] fire4/squeeze1x1 <- pool3
I0424 22:26:52.033020 25635 net.cpp:380] fire4/squeeze1x1 -> fire4/squeeze1x1
I0424 22:26:52.034905 25635 net.cpp:122] Setting up fire4/squeeze1x1
I0424 22:26:52.034932 25635 net.cpp:129] Top shape: 40 32 28 28 (1003520)
I0424 22:26:52.034940 25635 net.cpp:137] Memory required for data: 788003680
I0424 22:26:52.034953 25635 layer_factory.hpp:77] Creating layer fire4/relu_squeeze1x1
I0424 22:26:52.034967 25635 net.cpp:84] Creating Layer fire4/relu_squeeze1x1
I0424 22:26:52.034974 25635 net.cpp:406] fire4/relu_squeeze1x1 <- fire4/squeeze1x1
I0424 22:26:52.034986 25635 net.cpp:367] fire4/relu_squeeze1x1 -> fire4/squeeze1x1 (in-place)
I0424 22:26:52.035213 25635 net.cpp:122] Setting up fire4/relu_squeeze1x1
I0424 22:26:52.035226 25635 net.cpp:129] Top shape: 40 32 28 28 (1003520)
I0424 22:26:52.035233 25635 net.cpp:137] Memory required for data: 792017760
I0424 22:26:52.035239 25635 layer_factory.hpp:77] Creating layer fire4/squeeze1x1_fire4/relu_squeeze1x1_0_split
I0424 22:26:52.035251 25635 net.cpp:84] Creating Layer fire4/squeeze1x1_fire4/relu_squeeze1x1_0_split
I0424 22:26:52.035257 25635 net.cpp:406] fire4/squeeze1x1_fire4/relu_squeeze1x1_0_split <- fire4/squeeze1x1
I0424 22:26:52.035266 25635 net.cpp:380] fire4/squeeze1x1_fire4/relu_squeeze1x1_0_split -> fire4/squeeze1x1_fire4/relu_squeeze1x1_0_split_0
I0424 22:26:52.035280 25635 net.cpp:380] fire4/squeeze1x1_fire4/relu_squeeze1x1_0_split -> fire4/squeeze1x1_fire4/relu_squeeze1x1_0_split_1
I0424 22:26:52.035334 25635 net.cpp:122] Setting up fire4/squeeze1x1_fire4/relu_squeeze1x1_0_split
I0424 22:26:52.035346 25635 net.cpp:129] Top shape: 40 32 28 28 (1003520)
I0424 22:26:52.035352 25635 net.cpp:129] Top shape: 40 32 28 28 (1003520)
I0424 22:26:52.035358 25635 net.cpp:137] Memory required for data: 800045920
I0424 22:26:52.035364 25635 layer_factory.hpp:77] Creating layer fire4/expand1x1
I0424 22:26:52.035379 25635 net.cpp:84] Creating Layer fire4/expand1x1
I0424 22:26:52.035385 25635 net.cpp:406] fire4/expand1x1 <- fire4/squeeze1x1_fire4/relu_squeeze1x1_0_split_0
I0424 22:26:52.035425 25635 net.cpp:380] fire4/expand1x1 -> fire4/expand1x1
I0424 22:26:52.037694 25635 net.cpp:122] Setting up fire4/expand1x1
I0424 22:26:52.037719 25635 net.cpp:129] Top shape: 40 128 28 28 (4014080)
I0424 22:26:52.037744 25635 net.cpp:137] Memory required for data: 816102240
I0424 22:26:52.037763 25635 layer_factory.hpp:77] Creating layer fire4/relu_expand1x1
I0424 22:26:52.037777 25635 net.cpp:84] Creating Layer fire4/relu_expand1x1
I0424 22:26:52.037784 25635 net.cpp:406] fire4/relu_expand1x1 <- fire4/expand1x1
I0424 22:26:52.037793 25635 net.cpp:367] fire4/relu_expand1x1 -> fire4/expand1x1 (in-place)
I0424 22:26:52.038015 25635 net.cpp:122] Setting up fire4/relu_expand1x1
I0424 22:26:52.038030 25635 net.cpp:129] Top shape: 40 128 28 28 (4014080)
I0424 22:26:52.038035 25635 net.cpp:137] Memory required for data: 832158560
I0424 22:26:52.038041 25635 layer_factory.hpp:77] Creating layer fire4/expand3x3
I0424 22:26:52.038054 25635 net.cpp:84] Creating Layer fire4/expand3x3
I0424 22:26:52.038063 25635 net.cpp:406] fire4/expand3x3 <- fire4/squeeze1x1_fire4/relu_squeeze1x1_0_split_1
I0424 22:26:52.038074 25635 net.cpp:380] fire4/expand3x3 -> fire4/expand3x3
I0424 22:26:52.040999 25635 net.cpp:122] Setting up fire4/expand3x3
I0424 22:26:52.041029 25635 net.cpp:129] Top shape: 40 128 28 28 (4014080)
I0424 22:26:52.041036 25635 net.cpp:137] Memory required for data: 848214880
I0424 22:26:52.041049 25635 layer_factory.hpp:77] Creating layer fire4/relu_expand3x3
I0424 22:26:52.041061 25635 net.cpp:84] Creating Layer fire4/relu_expand3x3
I0424 22:26:52.041069 25635 net.cpp:406] fire4/relu_expand3x3 <- fire4/expand3x3
I0424 22:26:52.041083 25635 net.cpp:367] fire4/relu_expand3x3 -> fire4/expand3x3 (in-place)
I0424 22:26:52.041302 25635 net.cpp:122] Setting up fire4/relu_expand3x3
I0424 22:26:52.041316 25635 net.cpp:129] Top shape: 40 128 28 28 (4014080)
I0424 22:26:52.041321 25635 net.cpp:137] Memory required for data: 864271200
I0424 22:26:52.041327 25635 layer_factory.hpp:77] Creating layer fire4/concat
I0424 22:26:52.041339 25635 net.cpp:84] Creating Layer fire4/concat
I0424 22:26:52.041345 25635 net.cpp:406] fire4/concat <- fire4/expand1x1
I0424 22:26:52.041352 25635 net.cpp:406] fire4/concat <- fire4/expand3x3
I0424 22:26:52.041362 25635 net.cpp:380] fire4/concat -> fire4/concat
I0424 22:26:52.041401 25635 net.cpp:122] Setting up fire4/concat
I0424 22:26:52.041414 25635 net.cpp:129] Top shape: 40 256 28 28 (8028160)
I0424 22:26:52.041419 25635 net.cpp:137] Memory required for data: 896383840
I0424 22:26:52.041425 25635 layer_factory.hpp:77] Creating layer fire5/squeeze1x1
I0424 22:26:52.041441 25635 net.cpp:84] Creating Layer fire5/squeeze1x1
I0424 22:26:52.041447 25635 net.cpp:406] fire5/squeeze1x1 <- fire4/concat
I0424 22:26:52.041460 25635 net.cpp:380] fire5/squeeze1x1 -> fire5/squeeze1x1
I0424 22:26:52.043272 25635 net.cpp:122] Setting up fire5/squeeze1x1
I0424 22:26:52.043292 25635 net.cpp:129] Top shape: 40 32 28 28 (1003520)
I0424 22:26:52.043299 25635 net.cpp:137] Memory required for data: 900397920
I0424 22:26:52.043310 25635 layer_factory.hpp:77] Creating layer fire5/relu_squeeze1x1
I0424 22:26:52.043321 25635 net.cpp:84] Creating Layer fire5/relu_squeeze1x1
I0424 22:26:52.043328 25635 net.cpp:406] fire5/relu_squeeze1x1 <- fire5/squeeze1x1
I0424 22:26:52.043337 25635 net.cpp:367] fire5/relu_squeeze1x1 -> fire5/squeeze1x1 (in-place)
I0424 22:26:52.043576 25635 net.cpp:122] Setting up fire5/relu_squeeze1x1
I0424 22:26:52.043591 25635 net.cpp:129] Top shape: 40 32 28 28 (1003520)
I0424 22:26:52.043596 25635 net.cpp:137] Memory required for data: 904412000
I0424 22:26:52.043603 25635 layer_factory.hpp:77] Creating layer fire5/squeeze1x1_fire5/relu_squeeze1x1_0_split
I0424 22:26:52.043627 25635 net.cpp:84] Creating Layer fire5/squeeze1x1_fire5/relu_squeeze1x1_0_split
I0424 22:26:52.043635 25635 net.cpp:406] fire5/squeeze1x1_fire5/relu_squeeze1x1_0_split <- fire5/squeeze1x1
I0424 22:26:52.043644 25635 net.cpp:380] fire5/squeeze1x1_fire5/relu_squeeze1x1_0_split -> fire5/squeeze1x1_fire5/relu_squeeze1x1_0_split_0
I0424 22:26:52.043686 25635 net.cpp:380] fire5/squeeze1x1_fire5/relu_squeeze1x1_0_split -> fire5/squeeze1x1_fire5/relu_squeeze1x1_0_split_1
I0424 22:26:52.043766 25635 net.cpp:122] Setting up fire5/squeeze1x1_fire5/relu_squeeze1x1_0_split
I0424 22:26:52.043777 25635 net.cpp:129] Top shape: 40 32 28 28 (1003520)
I0424 22:26:52.043786 25635 net.cpp:129] Top shape: 40 32 28 28 (1003520)
I0424 22:26:52.043790 25635 net.cpp:137] Memory required for data: 912440160
I0424 22:26:52.043797 25635 layer_factory.hpp:77] Creating layer fire5/expand1x1
I0424 22:26:52.043819 25635 net.cpp:84] Creating Layer fire5/expand1x1
I0424 22:26:52.043826 25635 net.cpp:406] fire5/expand1x1 <- fire5/squeeze1x1_fire5/relu_squeeze1x1_0_split_0
I0424 22:26:52.043835 25635 net.cpp:380] fire5/expand1x1 -> fire5/expand1x1
I0424 22:26:52.045552 25635 net.cpp:122] Setting up fire5/expand1x1
I0424 22:26:52.045574 25635 net.cpp:129] Top shape: 40 128 28 28 (4014080)
I0424 22:26:52.045581 25635 net.cpp:137] Memory required for data: 928496480
I0424 22:26:52.045593 25635 layer_factory.hpp:77] Creating layer fire5/relu_expand1x1
I0424 22:26:52.045608 25635 net.cpp:84] Creating Layer fire5/relu_expand1x1
I0424 22:26:52.045615 25635 net.cpp:406] fire5/relu_expand1x1 <- fire5/expand1x1
I0424 22:26:52.045624 25635 net.cpp:367] fire5/relu_expand1x1 -> fire5/expand1x1 (in-place)
I0424 22:26:52.046689 25635 net.cpp:122] Setting up fire5/relu_expand1x1
I0424 22:26:52.046710 25635 net.cpp:129] Top shape: 40 128 28 28 (4014080)
I0424 22:26:52.046717 25635 net.cpp:137] Memory required for data: 944552800
I0424 22:26:52.046725 25635 layer_factory.hpp:77] Creating layer fire5/expand3x3
I0424 22:26:52.046742 25635 net.cpp:84] Creating Layer fire5/expand3x3
I0424 22:26:52.046751 25635 net.cpp:406] fire5/expand3x3 <- fire5/squeeze1x1_fire5/relu_squeeze1x1_0_split_1
I0424 22:26:52.046762 25635 net.cpp:380] fire5/expand3x3 -> fire5/expand3x3
I0424 22:26:52.050369 25635 net.cpp:122] Setting up fire5/expand3x3
I0424 22:26:52.050485 25635 net.cpp:129] Top shape: 40 128 28 28 (4014080)
I0424 22:26:52.050496 25635 net.cpp:137] Memory required for data: 960609120
I0424 22:26:52.050535 25635 layer_factory.hpp:77] Creating layer fire5/relu_expand3x3
I0424 22:26:52.050572 25635 net.cpp:84] Creating Layer fire5/relu_expand3x3
I0424 22:26:52.050588 25635 net.cpp:406] fire5/relu_expand3x3 <- fire5/expand3x3
I0424 22:26:52.050613 25635 net.cpp:367] fire5/relu_expand3x3 -> fire5/expand3x3 (in-place)
I0424 22:26:52.051064 25635 net.cpp:122] Setting up fire5/relu_expand3x3
I0424 22:26:52.051090 25635 net.cpp:129] Top shape: 40 128 28 28 (4014080)
I0424 22:26:52.051097 25635 net.cpp:137] Memory required for data: 976665440
I0424 22:26:52.051107 25635 layer_factory.hpp:77] Creating layer fire5/concat
I0424 22:26:52.051127 25635 net.cpp:84] Creating Layer fire5/concat
I0424 22:26:52.051137 25635 net.cpp:406] fire5/concat <- fire5/expand1x1
I0424 22:26:52.051151 25635 net.cpp:406] fire5/concat <- fire5/expand3x3
I0424 22:26:52.051162 25635 net.cpp:380] fire5/concat -> fire5/concat
I0424 22:26:52.051255 25635 net.cpp:122] Setting up fire5/concat
I0424 22:26:52.051270 25635 net.cpp:129] Top shape: 40 256 28 28 (8028160)
I0424 22:26:52.051275 25635 net.cpp:137] Memory required for data: 1008778080
I0424 22:26:52.051282 25635 layer_factory.hpp:77] Creating layer pool5
I0424 22:26:52.051314 25635 net.cpp:84] Creating Layer pool5
I0424 22:26:52.051321 25635 net.cpp:406] pool5 <- fire5/concat
I0424 22:26:52.051333 25635 net.cpp:380] pool5 -> pool5
I0424 22:26:52.051466 25635 net.cpp:122] Setting up pool5
I0424 22:26:52.051488 25635 net.cpp:129] Top shape: 40 256 14 14 (2007040)
I0424 22:26:52.051496 25635 net.cpp:137] Memory required for data: 1016806240
I0424 22:26:52.051502 25635 layer_factory.hpp:77] Creating layer fire6/squeeze1x1
I0424 22:26:52.051542 25635 net.cpp:84] Creating Layer fire6/squeeze1x1
I0424 22:26:52.051550 25635 net.cpp:406] fire6/squeeze1x1 <- pool5
I0424 22:26:52.051560 25635 net.cpp:380] fire6/squeeze1x1 -> fire6/squeeze1x1
I0424 22:26:52.060784 25635 net.cpp:122] Setting up fire6/squeeze1x1
I0424 22:26:52.061039 25635 net.cpp:129] Top shape: 40 48 14 14 (376320)
I0424 22:26:52.061061 25635 net.cpp:137] Memory required for data: 1018311520
I0424 22:26:52.062479 25635 layer_factory.hpp:77] Creating layer fire6/relu_squeeze1x1
I0424 22:26:52.062551 25635 net.cpp:84] Creating Layer fire6/relu_squeeze1x1
I0424 22:26:52.062574 25635 net.cpp:406] fire6/relu_squeeze1x1 <- fire6/squeeze1x1
I0424 22:26:52.062621 25635 net.cpp:367] fire6/relu_squeeze1x1 -> fire6/squeeze1x1 (in-place)
I0424 22:26:52.064174 25635 net.cpp:122] Setting up fire6/relu_squeeze1x1
I0424 22:26:52.064254 25635 net.cpp:129] Top shape: 40 48 14 14 (376320)
I0424 22:26:52.064265 25635 net.cpp:137] Memory required for data: 1019816800
I0424 22:26:52.064277 25635 layer_factory.hpp:77] Creating layer fire6/squeeze1x1_fire6/relu_squeeze1x1_0_split
I0424 22:26:52.064301 25635 net.cpp:84] Creating Layer fire6/squeeze1x1_fire6/relu_squeeze1x1_0_split
I0424 22:26:52.064313 25635 net.cpp:406] fire6/squeeze1x1_fire6/relu_squeeze1x1_0_split <- fire6/squeeze1x1
I0424 22:26:52.064338 25635 net.cpp:380] fire6/squeeze1x1_fire6/relu_squeeze1x1_0_split -> fire6/squeeze1x1_fire6/relu_squeeze1x1_0_split_0
I0424 22:26:52.064365 25635 net.cpp:380] fire6/squeeze1x1_fire6/relu_squeeze1x1_0_split -> fire6/squeeze1x1_fire6/relu_squeeze1x1_0_split_1
I0424 22:26:52.064654 25635 net.cpp:122] Setting up fire6/squeeze1x1_fire6/relu_squeeze1x1_0_split
I0424 22:26:52.064677 25635 net.cpp:129] Top shape: 40 48 14 14 (376320)
I0424 22:26:52.064685 25635 net.cpp:129] Top shape: 40 48 14 14 (376320)
I0424 22:26:52.064693 25635 net.cpp:137] Memory required for data: 1022827360
I0424 22:26:52.064702 25635 layer_factory.hpp:77] Creating layer fire6/expand1x1
I0424 22:26:52.064744 25635 net.cpp:84] Creating Layer fire6/expand1x1
I0424 22:26:52.064756 25635 net.cpp:406] fire6/expand1x1 <- fire6/squeeze1x1_fire6/relu_squeeze1x1_0_split_0
I0424 22:26:52.064771 25635 net.cpp:380] fire6/expand1x1 -> fire6/expand1x1
I0424 22:26:52.075331 25635 net.cpp:122] Setting up fire6/expand1x1
I0424 22:26:52.075512 25635 net.cpp:129] Top shape: 40 192 14 14 (1505280)
I0424 22:26:52.075522 25635 net.cpp:137] Memory required for data: 1028848480
I0424 22:26:52.075551 25635 layer_factory.hpp:77] Creating layer fire6/relu_expand1x1
I0424 22:26:52.075573 25635 net.cpp:84] Creating Layer fire6/relu_expand1x1
I0424 22:26:52.075583 25635 net.cpp:406] fire6/relu_expand1x1 <- fire6/expand1x1
I0424 22:26:52.075599 25635 net.cpp:367] fire6/relu_expand1x1 -> fire6/expand1x1 (in-place)
I0424 22:26:52.075870 25635 net.cpp:122] Setting up fire6/relu_expand1x1
I0424 22:26:52.075891 25635 net.cpp:129] Top shape: 40 192 14 14 (1505280)
I0424 22:26:52.075901 25635 net.cpp:137] Memory required for data: 1034869600
I0424 22:26:52.075908 25635 layer_factory.hpp:77] Creating layer fire6/expand3x3
I0424 22:26:52.075932 25635 net.cpp:84] Creating Layer fire6/expand3x3
I0424 22:26:52.075942 25635 net.cpp:406] fire6/expand3x3 <- fire6/squeeze1x1_fire6/relu_squeeze1x1_0_split_1
I0424 22:26:52.075963 25635 net.cpp:380] fire6/expand3x3 -> fire6/expand3x3
I0424 22:26:52.080673 25635 net.cpp:122] Setting up fire6/expand3x3
I0424 22:26:52.080721 25635 net.cpp:129] Top shape: 40 192 14 14 (1505280)
I0424 22:26:52.080726 25635 net.cpp:137] Memory required for data: 1040890720
I0424 22:26:52.080741 25635 layer_factory.hpp:77] Creating layer fire6/relu_expand3x3
I0424 22:26:52.080760 25635 net.cpp:84] Creating Layer fire6/relu_expand3x3
I0424 22:26:52.080765 25635 net.cpp:406] fire6/relu_expand3x3 <- fire6/expand3x3
I0424 22:26:52.080775 25635 net.cpp:367] fire6/relu_expand3x3 -> fire6/expand3x3 (in-place)
I0424 22:26:52.080950 25635 net.cpp:122] Setting up fire6/relu_expand3x3
I0424 22:26:52.080960 25635 net.cpp:129] Top shape: 40 192 14 14 (1505280)
I0424 22:26:52.080963 25635 net.cpp:137] Memory required for data: 1046911840
I0424 22:26:52.080967 25635 layer_factory.hpp:77] Creating layer fire6/concat
I0424 22:26:52.080976 25635 net.cpp:84] Creating Layer fire6/concat
I0424 22:26:52.081012 25635 net.cpp:406] fire6/concat <- fire6/expand1x1
I0424 22:26:52.081018 25635 net.cpp:406] fire6/concat <- fire6/expand3x3
I0424 22:26:52.081027 25635 net.cpp:380] fire6/concat -> fire6/concat
I0424 22:26:52.081090 25635 net.cpp:122] Setting up fire6/concat
I0424 22:26:52.081097 25635 net.cpp:129] Top shape: 40 384 14 14 (3010560)
I0424 22:26:52.081101 25635 net.cpp:137] Memory required for data: 1058954080
I0424 22:26:52.081105 25635 layer_factory.hpp:77] Creating layer fire7/squeeze1x1
I0424 22:26:52.081121 25635 net.cpp:84] Creating Layer fire7/squeeze1x1
I0424 22:26:52.081125 25635 net.cpp:406] fire7/squeeze1x1 <- fire6/concat
I0424 22:26:52.081132 25635 net.cpp:380] fire7/squeeze1x1 -> fire7/squeeze1x1
I0424 22:26:52.083683 25635 net.cpp:122] Setting up fire7/squeeze1x1
I0424 22:26:52.083709 25635 net.cpp:129] Top shape: 40 48 14 14 (376320)
I0424 22:26:52.083714 25635 net.cpp:137] Memory required for data: 1060459360
I0424 22:26:52.083731 25635 layer_factory.hpp:77] Creating layer fire7/relu_squeeze1x1
I0424 22:26:52.083740 25635 net.cpp:84] Creating Layer fire7/relu_squeeze1x1
I0424 22:26:52.083745 25635 net.cpp:406] fire7/relu_squeeze1x1 <- fire7/squeeze1x1
I0424 22:26:52.083753 25635 net.cpp:367] fire7/relu_squeeze1x1 -> fire7/squeeze1x1 (in-place)
I0424 22:26:52.083920 25635 net.cpp:122] Setting up fire7/relu_squeeze1x1
I0424 22:26:52.083928 25635 net.cpp:129] Top shape: 40 48 14 14 (376320)
I0424 22:26:52.083931 25635 net.cpp:137] Memory required for data: 1061964640
I0424 22:26:52.083935 25635 layer_factory.hpp:77] Creating layer fire7/squeeze1x1_fire7/relu_squeeze1x1_0_split
I0424 22:26:52.083942 25635 net.cpp:84] Creating Layer fire7/squeeze1x1_fire7/relu_squeeze1x1_0_split
I0424 22:26:52.083946 25635 net.cpp:406] fire7/squeeze1x1_fire7/relu_squeeze1x1_0_split <- fire7/squeeze1x1
I0424 22:26:52.083953 25635 net.cpp:380] fire7/squeeze1x1_fire7/relu_squeeze1x1_0_split -> fire7/squeeze1x1_fire7/relu_squeeze1x1_0_split_0
I0424 22:26:52.083961 25635 net.cpp:380] fire7/squeeze1x1_fire7/relu_squeeze1x1_0_split -> fire7/squeeze1x1_fire7/relu_squeeze1x1_0_split_1
I0424 22:26:52.084012 25635 net.cpp:122] Setting up fire7/squeeze1x1_fire7/relu_squeeze1x1_0_split
I0424 22:26:52.084018 25635 net.cpp:129] Top shape: 40 48 14 14 (376320)
I0424 22:26:52.084022 25635 net.cpp:129] Top shape: 40 48 14 14 (376320)
I0424 22:26:52.084026 25635 net.cpp:137] Memory required for data: 1064975200
I0424 22:26:52.084030 25635 layer_factory.hpp:77] Creating layer fire7/expand1x1
I0424 22:26:52.084043 25635 net.cpp:84] Creating Layer fire7/expand1x1
I0424 22:26:52.084048 25635 net.cpp:406] fire7/expand1x1 <- fire7/squeeze1x1_fire7/relu_squeeze1x1_0_split_0
I0424 22:26:52.084053 25635 net.cpp:380] fire7/expand1x1 -> fire7/expand1x1
I0424 22:26:52.085883 25635 net.cpp:122] Setting up fire7/expand1x1
I0424 22:26:52.085899 25635 net.cpp:129] Top shape: 40 192 14 14 (1505280)
I0424 22:26:52.085903 25635 net.cpp:137] Memory required for data: 1070996320
I0424 22:26:52.085911 25635 layer_factory.hpp:77] Creating layer fire7/relu_expand1x1
I0424 22:26:52.085919 25635 net.cpp:84] Creating Layer fire7/relu_expand1x1
I0424 22:26:52.085923 25635 net.cpp:406] fire7/relu_expand1x1 <- fire7/expand1x1
I0424 22:26:52.085930 25635 net.cpp:367] fire7/relu_expand1x1 -> fire7/expand1x1 (in-place)
I0424 22:26:52.086521 25635 net.cpp:122] Setting up fire7/relu_expand1x1
I0424 22:26:52.086536 25635 net.cpp:129] Top shape: 40 192 14 14 (1505280)
I0424 22:26:52.086540 25635 net.cpp:137] Memory required for data: 1077017440
I0424 22:26:52.086544 25635 layer_factory.hpp:77] Creating layer fire7/expand3x3
I0424 22:26:52.086555 25635 net.cpp:84] Creating Layer fire7/expand3x3
I0424 22:26:52.086560 25635 net.cpp:406] fire7/expand3x3 <- fire7/squeeze1x1_fire7/relu_squeeze1x1_0_split_1
I0424 22:26:52.086567 25635 net.cpp:380] fire7/expand3x3 -> fire7/expand3x3
I0424 22:26:52.088572 25635 net.cpp:122] Setting up fire7/expand3x3
I0424 22:26:52.088593 25635 net.cpp:129] Top shape: 40 192 14 14 (1505280)
I0424 22:26:52.088598 25635 net.cpp:137] Memory required for data: 1083038560
I0424 22:26:52.088636 25635 layer_factory.hpp:77] Creating layer fire7/relu_expand3x3
I0424 22:26:52.088644 25635 net.cpp:84] Creating Layer fire7/relu_expand3x3
I0424 22:26:52.088649 25635 net.cpp:406] fire7/relu_expand3x3 <- fire7/expand3x3
I0424 22:26:52.088671 25635 net.cpp:367] fire7/relu_expand3x3 -> fire7/expand3x3 (in-place)
I0424 22:26:52.088845 25635 net.cpp:122] Setting up fire7/relu_expand3x3
I0424 22:26:52.088856 25635 net.cpp:129] Top shape: 40 192 14 14 (1505280)
I0424 22:26:52.088860 25635 net.cpp:137] Memory required for data: 1089059680
I0424 22:26:52.088865 25635 layer_factory.hpp:77] Creating layer fire7/concat
I0424 22:26:52.088871 25635 net.cpp:84] Creating Layer fire7/concat
I0424 22:26:52.088876 25635 net.cpp:406] fire7/concat <- fire7/expand1x1
I0424 22:26:52.088881 25635 net.cpp:406] fire7/concat <- fire7/expand3x3
I0424 22:26:52.088886 25635 net.cpp:380] fire7/concat -> fire7/concat
I0424 22:26:52.088925 25635 net.cpp:122] Setting up fire7/concat
I0424 22:26:52.088932 25635 net.cpp:129] Top shape: 40 384 14 14 (3010560)
I0424 22:26:52.088935 25635 net.cpp:137] Memory required for data: 1101101920
I0424 22:26:52.088939 25635 layer_factory.hpp:77] Creating layer fire8/squeeze1x1
I0424 22:26:52.088950 25635 net.cpp:84] Creating Layer fire8/squeeze1x1
I0424 22:26:52.088954 25635 net.cpp:406] fire8/squeeze1x1 <- fire7/concat
I0424 22:26:52.088961 25635 net.cpp:380] fire8/squeeze1x1 -> fire8/squeeze1x1
I0424 22:26:52.095103 25635 net.cpp:122] Setting up fire8/squeeze1x1
I0424 22:26:52.095250 25635 net.cpp:129] Top shape: 40 64 14 14 (501760)
I0424 22:26:52.095261 25635 net.cpp:137] Memory required for data: 1103108960
I0424 22:26:52.095304 25635 layer_factory.hpp:77] Creating layer fire8/relu_squeeze1x1
I0424 22:26:52.095371 25635 net.cpp:84] Creating Layer fire8/relu_squeeze1x1
I0424 22:26:52.095399 25635 net.cpp:406] fire8/relu_squeeze1x1 <- fire8/squeeze1x1
I0424 22:26:52.095453 25635 net.cpp:367] fire8/relu_squeeze1x1 -> fire8/squeeze1x1 (in-place)
I0424 22:26:52.095973 25635 net.cpp:122] Setting up fire8/relu_squeeze1x1
I0424 22:26:52.096091 25635 net.cpp:129] Top shape: 40 64 14 14 (501760)
I0424 22:26:52.096096 25635 net.cpp:137] Memory required for data: 1105116000
I0424 22:26:52.096103 25635 layer_factory.hpp:77] Creating layer fire8/squeeze1x1_fire8/relu_squeeze1x1_0_split
I0424 22:26:52.096120 25635 net.cpp:84] Creating Layer fire8/squeeze1x1_fire8/relu_squeeze1x1_0_split
I0424 22:26:52.096132 25635 net.cpp:406] fire8/squeeze1x1_fire8/relu_squeeze1x1_0_split <- fire8/squeeze1x1
I0424 22:26:52.096156 25635 net.cpp:380] fire8/squeeze1x1_fire8/relu_squeeze1x1_0_split -> fire8/squeeze1x1_fire8/relu_squeeze1x1_0_split_0
I0424 22:26:52.096189 25635 net.cpp:380] fire8/squeeze1x1_fire8/relu_squeeze1x1_0_split -> fire8/squeeze1x1_fire8/relu_squeeze1x1_0_split_1
I0424 22:26:52.096441 25635 net.cpp:122] Setting up fire8/squeeze1x1_fire8/relu_squeeze1x1_0_split
I0424 22:26:52.096462 25635 net.cpp:129] Top shape: 40 64 14 14 (501760)
I0424 22:26:52.096473 25635 net.cpp:129] Top shape: 40 64 14 14 (501760)
I0424 22:26:52.096482 25635 net.cpp:137] Memory required for data: 1109130080
I0424 22:26:52.096493 25635 layer_factory.hpp:77] Creating layer fire8/expand1x1
I0424 22:26:52.096540 25635 net.cpp:84] Creating Layer fire8/expand1x1
I0424 22:26:52.096550 25635 net.cpp:406] fire8/expand1x1 <- fire8/squeeze1x1_fire8/relu_squeeze1x1_0_split_0
I0424 22:26:52.096559 25635 net.cpp:380] fire8/expand1x1 -> fire8/expand1x1
I0424 22:26:52.103051 25635 net.cpp:122] Setting up fire8/expand1x1
I0424 22:26:52.103204 25635 net.cpp:129] Top shape: 40 256 14 14 (2007040)
I0424 22:26:52.103216 25635 net.cpp:137] Memory required for data: 1117158240
I0424 22:26:52.103274 25635 layer_factory.hpp:77] Creating layer fire8/relu_expand1x1
I0424 22:26:52.103343 25635 net.cpp:84] Creating Layer fire8/relu_expand1x1
I0424 22:26:52.103371 25635 net.cpp:406] fire8/relu_expand1x1 <- fire8/expand1x1
I0424 22:26:52.103410 25635 net.cpp:367] fire8/relu_expand1x1 -> fire8/expand1x1 (in-place)
I0424 22:26:52.103852 25635 net.cpp:122] Setting up fire8/relu_expand1x1
I0424 22:26:52.103969 25635 net.cpp:129] Top shape: 40 256 14 14 (2007040)
I0424 22:26:52.103978 25635 net.cpp:137] Memory required for data: 1125186400
I0424 22:26:52.104034 25635 layer_factory.hpp:77] Creating layer fire8/expand3x3
I0424 22:26:52.104066 25635 net.cpp:84] Creating Layer fire8/expand3x3
I0424 22:26:52.104075 25635 net.cpp:406] fire8/expand3x3 <- fire8/squeeze1x1_fire8/relu_squeeze1x1_0_split_1
I0424 22:26:52.104097 25635 net.cpp:380] fire8/expand3x3 -> fire8/expand3x3
I0424 22:26:52.111428 25635 net.cpp:122] Setting up fire8/expand3x3
I0424 22:26:52.111618 25635 net.cpp:129] Top shape: 40 256 14 14 (2007040)
I0424 22:26:52.111631 25635 net.cpp:137] Memory required for data: 1133214560
I0424 22:26:52.111696 25635 layer_factory.hpp:77] Creating layer fire8/relu_expand3x3
I0424 22:26:52.111747 25635 net.cpp:84] Creating Layer fire8/relu_expand3x3
I0424 22:26:52.111763 25635 net.cpp:406] fire8/relu_expand3x3 <- fire8/expand3x3
I0424 22:26:52.111796 25635 net.cpp:367] fire8/relu_expand3x3 -> fire8/expand3x3 (in-place)
I0424 22:26:52.113670 25635 net.cpp:122] Setting up fire8/relu_expand3x3
I0424 22:26:52.113759 25635 net.cpp:129] Top shape: 40 256 14 14 (2007040)
I0424 22:26:52.113766 25635 net.cpp:137] Memory required for data: 1141242720
I0424 22:26:52.113781 25635 layer_factory.hpp:77] Creating layer fire8/concat
I0424 22:26:52.113818 25635 net.cpp:84] Creating Layer fire8/concat
I0424 22:26:52.113833 25635 net.cpp:406] fire8/concat <- fire8/expand1x1
I0424 22:26:52.113862 25635 net.cpp:406] fire8/concat <- fire8/expand3x3
I0424 22:26:52.113880 25635 net.cpp:380] fire8/concat -> fire8/concat
I0424 22:26:52.114058 25635 net.cpp:122] Setting up fire8/concat
I0424 22:26:52.114069 25635 net.cpp:129] Top shape: 40 512 14 14 (4014080)
I0424 22:26:52.114075 25635 net.cpp:137] Memory required for data: 1157299040
I0424 22:26:52.114081 25635 layer_factory.hpp:77] Creating layer fire9/squeeze1x1
I0424 22:26:52.114112 25635 net.cpp:84] Creating Layer fire9/squeeze1x1
I0424 22:26:52.114121 25635 net.cpp:406] fire9/squeeze1x1 <- fire8/concat
I0424 22:26:52.114131 25635 net.cpp:380] fire9/squeeze1x1 -> fire9/squeeze1x1
I0424 22:26:52.118894 25635 net.cpp:122] Setting up fire9/squeeze1x1
I0424 22:26:52.119024 25635 net.cpp:129] Top shape: 40 64 14 14 (501760)
I0424 22:26:52.119035 25635 net.cpp:137] Memory required for data: 1159306080
I0424 22:26:52.119088 25635 layer_factory.hpp:77] Creating layer fire9/relu_squeeze1x1
I0424 22:26:52.119261 25635 net.cpp:84] Creating Layer fire9/relu_squeeze1x1
I0424 22:26:52.119287 25635 net.cpp:406] fire9/relu_squeeze1x1 <- fire9/squeeze1x1
I0424 22:26:52.119312 25635 net.cpp:367] fire9/relu_squeeze1x1 -> fire9/squeeze1x1 (in-place)
I0424 22:26:52.119613 25635 net.cpp:122] Setting up fire9/relu_squeeze1x1
I0424 22:26:52.119629 25635 net.cpp:129] Top shape: 40 64 14 14 (501760)
I0424 22:26:52.119635 25635 net.cpp:137] Memory required for data: 1161313120
I0424 22:26:52.119643 25635 layer_factory.hpp:77] Creating layer fire9/squeeze1x1_fire9/relu_squeeze1x1_0_split
I0424 22:26:52.119657 25635 net.cpp:84] Creating Layer fire9/squeeze1x1_fire9/relu_squeeze1x1_0_split
I0424 22:26:52.119663 25635 net.cpp:406] fire9/squeeze1x1_fire9/relu_squeeze1x1_0_split <- fire9/squeeze1x1
I0424 22:26:52.119678 25635 net.cpp:380] fire9/squeeze1x1_fire9/relu_squeeze1x1_0_split -> fire9/squeeze1x1_fire9/relu_squeeze1x1_0_split_0
I0424 22:26:52.119693 25635 net.cpp:380] fire9/squeeze1x1_fire9/relu_squeeze1x1_0_split -> fire9/squeeze1x1_fire9/relu_squeeze1x1_0_split_1
I0424 22:26:52.119851 25635 net.cpp:122] Setting up fire9/squeeze1x1_fire9/relu_squeeze1x1_0_split
I0424 22:26:52.119868 25635 net.cpp:129] Top shape: 40 64 14 14 (501760)
I0424 22:26:52.119877 25635 net.cpp:129] Top shape: 40 64 14 14 (501760)
I0424 22:26:52.119884 25635 net.cpp:137] Memory required for data: 1165327200
I0424 22:26:52.119891 25635 layer_factory.hpp:77] Creating layer fire9/expand1x1
I0424 22:26:52.119938 25635 net.cpp:84] Creating Layer fire9/expand1x1
I0424 22:26:52.120043 25635 net.cpp:406] fire9/expand1x1 <- fire9/squeeze1x1_fire9/relu_squeeze1x1_0_split_0
I0424 22:26:52.120143 25635 net.cpp:380] fire9/expand1x1 -> fire9/expand1x1
I0424 22:26:52.123833 25635 net.cpp:122] Setting up fire9/expand1x1
I0424 22:26:52.124114 25635 net.cpp:129] Top shape: 40 256 14 14 (2007040)
I0424 22:26:52.124126 25635 net.cpp:137] Memory required for data: 1173355360
I0424 22:26:52.124163 25635 layer_factory.hpp:77] Creating layer fire9/relu_expand1x1
I0424 22:26:52.124195 25635 net.cpp:84] Creating Layer fire9/relu_expand1x1
I0424 22:26:52.124209 25635 net.cpp:406] fire9/relu_expand1x1 <- fire9/expand1x1
I0424 22:26:52.124236 25635 net.cpp:367] fire9/relu_expand1x1 -> fire9/expand1x1 (in-place)
I0424 22:26:52.125907 25635 net.cpp:122] Setting up fire9/relu_expand1x1
I0424 22:26:52.125968 25635 net.cpp:129] Top shape: 40 256 14 14 (2007040)
I0424 22:26:52.125975 25635 net.cpp:137] Memory required for data: 1181383520
I0424 22:26:52.125985 25635 layer_factory.hpp:77] Creating layer fire9/expand3x3
I0424 22:26:52.126039 25635 net.cpp:84] Creating Layer fire9/expand3x3
I0424 22:26:52.126054 25635 net.cpp:406] fire9/expand3x3 <- fire9/squeeze1x1_fire9/relu_squeeze1x1_0_split_1
I0424 22:26:52.126077 25635 net.cpp:380] fire9/expand3x3 -> fire9/expand3x3
I0424 22:26:52.134212 25635 net.cpp:122] Setting up fire9/expand3x3
I0424 22:26:52.134346 25635 net.cpp:129] Top shape: 40 256 14 14 (2007040)
I0424 22:26:52.134352 25635 net.cpp:137] Memory required for data: 1189411680
I0424 22:26:52.134385 25635 layer_factory.hpp:77] Creating layer fire9/relu_expand3x3
I0424 22:26:52.134429 25635 net.cpp:84] Creating Layer fire9/relu_expand3x3
I0424 22:26:52.134441 25635 net.cpp:406] fire9/relu_expand3x3 <- fire9/expand3x3
I0424 22:26:52.134465 25635 net.cpp:367] fire9/relu_expand3x3 -> fire9/expand3x3 (in-place)
I0424 22:26:52.134881 25635 net.cpp:122] Setting up fire9/relu_expand3x3
I0424 22:26:52.134898 25635 net.cpp:129] Top shape: 40 256 14 14 (2007040)
I0424 22:26:52.134904 25635 net.cpp:137] Memory required for data: 1197439840
I0424 22:26:52.134908 25635 layer_factory.hpp:77] Creating layer fire9/concat
I0424 22:26:52.134920 25635 net.cpp:84] Creating Layer fire9/concat
I0424 22:26:52.134927 25635 net.cpp:406] fire9/concat <- fire9/expand1x1
I0424 22:26:52.134932 25635 net.cpp:406] fire9/concat <- fire9/expand3x3
I0424 22:26:52.134944 25635 net.cpp:380] fire9/concat -> fire9/concat
I0424 22:26:52.135026 25635 net.cpp:122] Setting up fire9/concat
I0424 22:26:52.135036 25635 net.cpp:129] Top shape: 40 512 14 14 (4014080)
I0424 22:26:52.135040 25635 net.cpp:137] Memory required for data: 1213496160
I0424 22:26:52.135044 25635 layer_factory.hpp:77] Creating layer drop9
I0424 22:26:52.135058 25635 net.cpp:84] Creating Layer drop9
I0424 22:26:52.135063 25635 net.cpp:406] drop9 <- fire9/concat
I0424 22:26:52.135071 25635 net.cpp:367] drop9 -> fire9/concat (in-place)
I0424 22:26:52.135109 25635 net.cpp:122] Setting up drop9
I0424 22:26:52.135116 25635 net.cpp:129] Top shape: 40 512 14 14 (4014080)
I0424 22:26:52.135121 25635 net.cpp:137] Memory required for data: 1229552480
I0424 22:26:52.135125 25635 layer_factory.hpp:77] Creating layer conv10_new
I0424 22:26:52.135161 25635 net.cpp:84] Creating Layer conv10_new
I0424 22:26:52.135191 25635 net.cpp:406] conv10_new <- fire9/concat
I0424 22:26:52.135208 25635 net.cpp:380] conv10_new -> conv10_new
I0424 22:26:52.139170 25635 net.cpp:122] Setting up conv10_new
I0424 22:26:52.139340 25635 net.cpp:129] Top shape: 40 196 14 14 (1536640)
I0424 22:26:52.139349 25635 net.cpp:137] Memory required for data: 1235699040
I0424 22:26:52.139397 25635 layer_factory.hpp:77] Creating layer relu_conv10
I0424 22:26:52.139443 25635 net.cpp:84] Creating Layer relu_conv10
I0424 22:26:52.139461 25635 net.cpp:406] relu_conv10 <- conv10_new
I0424 22:26:52.139483 25635 net.cpp:367] relu_conv10 -> conv10_new (in-place)
I0424 22:26:52.139827 25635 net.cpp:122] Setting up relu_conv10
I0424 22:26:52.139847 25635 net.cpp:129] Top shape: 40 196 14 14 (1536640)
I0424 22:26:52.139853 25635 net.cpp:137] Memory required for data: 1241845600
I0424 22:26:52.139979 25635 layer_factory.hpp:77] Creating layer pool10
I0424 22:26:52.140007 25635 net.cpp:84] Creating Layer pool10
I0424 22:26:52.140018 25635 net.cpp:406] pool10 <- conv10_new
I0424 22:26:52.140101 25635 net.cpp:380] pool10 -> pool10
I0424 22:26:52.140450 25635 net.cpp:122] Setting up pool10
I0424 22:26:52.140473 25635 net.cpp:129] Top shape: 40 196 1 1 (7840)
I0424 22:26:52.140477 25635 net.cpp:137] Memory required for data: 1241876960
I0424 22:26:52.140482 25635 layer_factory.hpp:77] Creating layer pool10_pool10_0_split
I0424 22:26:52.140496 25635 net.cpp:84] Creating Layer pool10_pool10_0_split
I0424 22:26:52.140501 25635 net.cpp:406] pool10_pool10_0_split <- pool10
I0424 22:26:52.140534 25635 net.cpp:380] pool10_pool10_0_split -> pool10_pool10_0_split_0
I0424 22:26:52.140547 25635 net.cpp:380] pool10_pool10_0_split -> pool10_pool10_0_split_1
I0424 22:26:52.140558 25635 net.cpp:380] pool10_pool10_0_split -> pool10_pool10_0_split_2
I0424 22:26:52.140632 25635 net.cpp:122] Setting up pool10_pool10_0_split
I0424 22:26:52.140641 25635 net.cpp:129] Top shape: 40 196 1 1 (7840)
I0424 22:26:52.140646 25635 net.cpp:129] Top shape: 40 196 1 1 (7840)
I0424 22:26:52.140650 25635 net.cpp:129] Top shape: 40 196 1 1 (7840)
I0424 22:26:52.140653 25635 net.cpp:137] Memory required for data: 1241971040
I0424 22:26:52.140657 25635 layer_factory.hpp:77] Creating layer loss
I0424 22:26:52.140671 25635 net.cpp:84] Creating Layer loss
I0424 22:26:52.140674 25635 net.cpp:406] loss <- pool10_pool10_0_split_0
I0424 22:26:52.140681 25635 net.cpp:406] loss <- label_data_1_split_0
I0424 22:26:52.140689 25635 net.cpp:380] loss -> loss
…
