…
I0424 23:38:31.282433 31330 net.cpp:294] The NetState phase (0) differed from the phase (1) specified by a rule in layer accuracy_top5
I0424 23:38:31.282726 31330 net.cpp:51] Initializing net from parameters: 
state {
  phase: TRAIN
  level: 0
  stage: ""
}
layer {
  name: "data"
  type: "ImageData"
  top: "data"
  top: "label"
  include {
    phase: TRAIN
  }
  transform_param {
    mean_value: 104
    mean_value: 117
    mean_value: 123
  }
  image_data_param {
    source: "./trainval.txt"
    batch_size: 40
    crop_size: 227
    mirror: true
    shuffle: true
  }
}
layer {
  name: "conv1"
  type: "Convolution"
  bottom: "data"
  top: "conv1"
  convolution_param {
    num_output: 64
    kernel_size: 3
    stride: 2
    weight_filler {
      type: "xavier"
    }
  }
}
layer {
  name: "relu_conv1"
  type: "ReLU"
  bottom: "conv1"
  top: "conv1"
}
layer {
  name: "pool1"
  type: "Pooling"
  bottom: "conv1"
  top: "pool1"
  pooling_param {
    pool: MAX
    kernel_size: 3
    stride: 2
  }
}
layer {
  name: "fire2/squeeze1x1"
  type: "Convolution"
  bottom: "pool1"
  top: "fire2/squeeze1x1"
  convolution_param {
    num_output: 16
    kernel_size: 1
    weight_filler {
      type: "xavier"
    }
  }
}
layer {
  name: "fire2/relu_squeeze1x1"
  type: "ReLU"
  bottom: "fire2/squeeze1x1"
  top: "fire2/squeeze1x1"
}
layer {
  name: "fire2/expand1x1"
  type: "Convolution"
  bottom: "fire2/squeeze1x1"
  top: "fire2/expand1x1"
  convolution_param {
    num_output: 64
    kernel_size: 1
    weight_filler {
      type: "xavier"
    }
  }
}
layer {
  name: "fire2/relu_expand1x1"
  type: "ReLU"
  bottom: "fire2/expand1x1"
  top: "fire2/expand1x1"
}
layer {
  name: "fire2/expand3x3"
  type: "Convolution"
  bottom: "fire2/squeeze1x1"
  top: "fire2/expand3x3"
  convolution_param {
    num_output: 64
    pad: 1
    kernel_size: 3
    weight_filler {
      type: "xavier"
    }
  }
}
layer {
  name: "fire2/relu_expand3x3"
  type: "ReLU"
  bottom: "fire2/expand3x3"
  top: "fire2/expand3x3"
}
layer {
  name: "fire2/concat"
  type: "Concat"
  bottom: "fire2/expand1x1"
  bottom: "fire2/expand3x3"
  top: "fire2/concat"
}
layer {
  name: "fire3/squeeze1x1"
  type: "Convolution"
  bottom: "fire2/concat"
  top: "fire3/squeeze1x1"
  convolution_param {
    num_output: 16
    kernel_size: 1
    weight_filler {
      type: "xavier"
    }
  }
}
layer {
  name: "fire3/relu_squeeze1x1"
  type: "ReLU"
  bottom: "fire3/squeeze1x1"
  top: "fire3/squeeze1x1"
}
layer {
  name: "fire3/expand1x1"
  type: "Convolution"
  bottom: "fire3/squeeze1x1"
  top: "fire3/expand1x1"
  convolution_param {
    num_output: 64
    kernel_size: 1
    weight_filler {
      type: "xavier"
    }
  }
}
layer {
  name: "fire3/relu_expand1x1"
  type: "ReLU"
  bottom: "fire3/expand1x1"
  top: "fire3/expand1x1"
}
layer {
  name: "fire3/expand3x3"
  type: "Convolution"
  bottom: "fire3/squeeze1x1"
  top: "fire3/expand3x3"
  convolution_param {
    num_output: 64
    pad: 1
    kernel_size: 3
    weight_filler {
      type: "xavier"
    }
  }
}
layer {
  name: "fire3/relu_expand3x3"
  type: "ReLU"
  bottom: "fire3/expand3x3"
  top: "fire3/expand3x3"
}
layer {
  name: "fire3/concat"
  type: "Concat"
  bottom: "fire3/expand1x1"
  bottom: "fire3/expand3x3"
  top: "fire3/concat"
}
layer {
  name: "pool3"
  type: "Pooling"
  bottom: "fire3/concat"
  top: "pool3"
  pooling_param {
    pool: MAX
    kernel_size: 3
    stride: 2
  }
}
layer {
  name: "fire4/squeeze1x1"
  type: "Convolution"
  bottom: "pool3"
  top: "fire4/squeeze1x1"
  convolution_param {
    num_output: 32
    kernel_size: 1
    weight_filler {
      type: "xavier"
    }
  }
}
layer {
  name: "fire4/relu_squeeze1x1"
  type: "ReLU"
  bottom: "fire4/squeeze1x1"
  top: "fire4/squeeze1x1"
}
layer {
  name: "fire4/expand1x1"
  type: "Convolution"
  bottom: "fire4/squeeze1x1"
  top: "fire4/expand1x1"
  convolution_param {
    num_output: 128
    kernel_size: 1
    weight_filler {
      type: "xavier"
    }
  }
}
layer {
  name: "fire4/relu_expand1x1"
  type: "ReLU"
  bottom: "fire4/expand1x1"
  top: "fire4/expand1x1"
}
layer {
  name: "fire4/expand3x3"
  type: "Convolution"
  bottom: "fire4/squeeze1x1"
  top: "fire4/expand3x3"
  convolution_param {
    num_output: 128
    pad: 1
    kernel_size: 3
    weight_filler {
      type: "xavier"
    }
  }
}
layer {
  name: "fire4/relu_expand3x3"
  type: "ReLU"
  bottom: "fire4/expand3x3"
  top: "fire4/expand3x3"
}
layer {
  name: "fire4/concat"
  type: "Concat"
  bottom: "fire4/expand1x1"
  bottom: "fire4/expand3x3"
  top: "fire4/concat"
}
layer {
  name: "fire5/squeeze1x1"
  type: "Convolution"
  bottom: "fire4/concat"
  top: "fire5/squeeze1x1"
  convolution_param {
    num_output: 32
    kernel_size: 1
    weight_filler {
      type: "xavier"
    }
  }
}
layer {
  name: "fire5/relu_squeeze1x1"
  type: "ReLU"
  bottom: "fire5/squeeze1x1"
  top: "fire5/squeeze1x1"
}
layer {
  name: "fire5/expand1x1"
  type: "Convolution"
  bottom: "fire5/squeeze1x1"
  top: "fire5/expand1x1"
  convolution_param {
    num_output: 128
    kernel_size: 1
    weight_filler {
      type: "xavier"
    }
  }
}
layer {
  name: "fire5/relu_expand1x1"
  type: "ReLU"
  bottom: "fire5/expand1x1"
  top: "fire5/expand1x1"
}
layer {
  name: "fire5/expand3x3"
  type: "Convolution"
  bottom: "fire5/squeeze1x1"
  top: "fire5/expand3x3"
  convolution_param {
    num_output: 128
    pad: 1
    kernel_size: 3
    weight_filler {
      type: "xavier"
    }
  }
}
layer {
  name: "fire5/relu_expand3x3"
  type: "ReLU"
  bottom: "fire5/expand3x3"
  top: "fire5/expand3x3"
}
layer {
  name: "fire5/concat"
  type: "Concat"
  bottom: "fire5/expand1x1"
  bottom: "fire5/expand3x3"
  top: "fire5/concat"
}
layer {
  name: "pool5"
  type: "Pooling"
  bottom: "fire5/concat"
  top: "pool5"
  pooling_param {
    pool: MAX
    kernel_size: 3
    stride: 2
  }
}
layer {
  name: "fire6/squeeze1x1"
  type: "Convolution"
  bottom: "pool5"
  top: "fire6/squeeze1x1"
  convolution_param {
    num_output: 48
    kernel_size: 1
    weight_filler {
      type: "xavier"
    }
  }
}
layer {
  name: "fire6/relu_squeeze1x1"
  type: "ReLU"
  bottom: "fire6/squeeze1x1"
  top: "fire6/squeeze1x1"
}
layer {
  name: "fire6/expand1x1"
  type: "Convolution"
  bottom: "fire6/squeeze1x1"
  top: "fire6/expand1x1"
  convolution_param {
    num_output: 192
    kernel_size: 1
    weight_filler {
      type: "xavier"
    }
  }
}
layer {
  name: "fire6/relu_expand1x1"
  type: "ReLU"
  bottom: "fire6/expand1x1"
  top: "fire6/expand1x1"
}
layer {
  name: "fire6/expand3x3"
  type: "Convolution"
  bottom: "fire6/squeeze1x1"
  top: "fire6/expand3x3"
  convolution_param {
    num_output: 192
    pad: 1
    kernel_size: 3
    weight_filler {
      type: "xavier"
    }
  }
}
layer {
  name: "fire6/relu_expand3x3"
  type: "ReLU"
  bottom: "fire6/expand3x3"
  top: "fire6/expand3x3"
}
layer {
  name: "fire6/concat"
  type: "Concat"
  bottom: "fire6/expand1x1"
  bottom: "fire6/expand3x3"
  top: "fire6/concat"
}
layer {
  name: "fire7/squeeze1x1"
  type: "Convolution"
  bottom: "fire6/concat"
  top: "fire7/squeeze1x1"
  convolution_param {
    num_output: 48
    kernel_size: 1
    weight_filler {
      type: "xavier"
    }
  }
}
layer {
  name: "fire7/relu_squeeze1x1"
  type: "ReLU"
  bottom: "fire7/squeeze1x1"
  top: "fire7/squeeze1x1"
}
layer {
  name: "fire7/expand1x1"
  type: "Convolution"
  bottom: "fire7/squeeze1x1"
  top: "fire7/expand1x1"
  convolution_param {
    num_output: 192
    kernel_size: 1
    weight_filler {
      type: "xavier"
    }
  }
}
layer {
  name: "fire7/relu_expand1x1"
  type: "ReLU"
  bottom: "fire7/expand1x1"
  top: "fire7/expand1x1"
}
layer {
  name: "fire7/expand3x3"
  type: "Convolution"
  bottom: "fire7/squeeze1x1"
  top: "fire7/expand3x3"
  convolution_param {
    num_output: 192
    pad: 1
    kernel_size: 3
    weight_filler {
      type: "xavier"
    }
  }
}
layer {
  name: "fire7/relu_expand3x3"
  type: "ReLU"
  bottom: "fire7/expand3x3"
  top: "fire7/expand3x3"
}
layer {
  name: "fire7/concat"
  type: "Concat"
  bottom: "fire7/expand1x1"
  bottom: "fire7/expand3x3"
  top: "fire7/concat"
}
layer {
  name: "fire8/squeeze1x1"
  type: "Convolution"
  bottom: "fire7/concat"
  top: "fire8/squeeze1x1"
  convolution_param {
    num_output: 64
    kernel_size: 1
    weight_filler {
      type: "xavier"
    }
  }
}
layer {
  name: "fire8/relu_squeeze1x1"
  type: "ReLU"
  bottom: "fire8/squeeze1x1"
  top: "fire8/squeeze1x1"
}
layer {
  name: "fire8/expand1x1"
  type: "Convolution"
  bottom: "fire8/squeeze1x1"
  top: "fire8/expand1x1"
  convolution_param {
    num_output: 256
    kernel_size: 1
    weight_filler {
      type: "xavier"
    }
  }
}
layer {
  name: "fire8/relu_expand1x1"
  type: "ReLU"
  bottom: "fire8/expand1x1"
  top: "fire8/expand1x1"
}
layer {
  name: "fire8/expand3x3"
  type: "Convolution"
  bottom: "fire8/squeeze1x1"
  top: "fire8/expand3x3"
  convolution_param {
    num_output: 256
    pad: 1
    kernel_size: 3
    weight_filler {
      type: "xavier"
    }
  }
}
layer {
  name: "fire8/relu_expand3x3"
  type: "ReLU"
  bottom: "fire8/expand3x3"
  top: "fire8/expand3x3"
}
layer {
  name: "fire8/concat"
  type: "Concat"
  bottom: "fire8/expand1x1"
  bottom: "fire8/expand3x3"
  top: "fire8/concat"
}
layer {
  name: "fire9/squeeze1x1"
  type: "Convolution"
  bottom: "fire8/concat"
  top: "fire9/squeeze1x1"
  convolution_param {
    num_output: 64
    kernel_size: 1
    weight_filler {
      type: "xavier"
    }
  }
}
layer {
  name: "fire9/relu_squeeze1x1"
  type: "ReLU"
  bottom: "fire9/squeeze1x1"
  top: "fire9/squeeze1x1"
}
layer {
  name: "fire9/expand1x1"
  type: "Convolution"
  bottom: "fire9/squeeze1x1"
  top: "fire9/expand1x1"
  convolution_param {
    num_output: 256
    kernel_size: 1
    weight_filler {
      type: "xavier"
    }
  }
}
layer {
  name: "fire9/relu_expand1x1"
  type: "ReLU"
  bottom: "fire9/expand1x1"
  top: "fire9/expand1x1"
}
layer {
  name: "fire9/expand3x3"
  type: "Convolution"
  bottom: "fire9/squeeze1x1"
  top: "fire9/expand3x3"
  convolution_param {
    num_output: 256
    pad: 1
    kernel_size: 3
    weight_filler {
      type: "xavier"
    }
  }
}
layer {
  name: "fire9/relu_expand3x3"
  type: "ReLU"
  bottom: "fire9/expand3x3"
  top: "fire9/expand3x3"
}
layer {
  name: "fire9/concat"
  type: "Concat"
  bottom: "fire9/expand1x1"
  bottom: "fire9/expand3x3"
  top: "fire9/concat"
}
layer {
  name: "drop9"
  type: "Dropout"
  bottom: "fire9/concat"
  top: "fire9/concat"
  dropout_param {
    dropout_ratio: 0.5
  }
}
layer {
  name: "conv10_new"
  type: "Convolution"
  bottom: "fire9/concat"
  top: "conv10_new"
  convolution_param {
    num_output: 196
    kernel_size: 1
    weight_filler {
      type: "gaussian"
      mean: 0
      std: 0.01
    }
  }
}
layer {
  name: "relu_conv10"
  type: "ReLU"
  bottom: "conv10_new"
  top: "conv10_new"
}
layer {
  name: "pool10"
  type: "Pooling"
  bottom: "conv10_new"
  top: "pool10"
  pooling_param {
    pool: AVE
    global_pooling: true
  }
}
layer {
  name: "loss"
  type: "SoftmaxWithLoss"
  bottom: "pool10"
  bottom: "label"
  top: "loss"
}
I0424 23:38:31.283087 31330 layer_factory.hpp:77] Creating layer data
I0424 23:38:31.283124 31330 net.cpp:84] Creating Layer data
I0424 23:38:31.283156 31330 net.cpp:380] data -> data
I0424 23:38:31.283179 31330 net.cpp:380] data -> label
I0424 23:38:31.283197 31330 image_data_layer.cpp:38] Opening file ./trainval.txt
I0424 23:38:31.289840 31330 image_data_layer.cpp:53] Shuffling data
I0424 23:38:31.292496 31330 image_data_layer.cpp:63] A total of 12084 images.
I0424 23:38:31.296360 31330 image_data_layer.cpp:90] output data size: 40,3,300,300
I0424 23:38:31.458325 31330 net.cpp:122] Setting up data
I0424 23:38:31.458504 31330 net.cpp:129] Top shape: 40 3 300 300 (10800000)
I0424 23:38:31.458521 31330 net.cpp:129] Top shape: 40 (40)
I0424 23:38:31.458528 31330 net.cpp:137] Memory required for data: 43200160
I0424 23:38:31.458551 31330 layer_factory.hpp:77] Creating layer conv1
I0424 23:38:31.458618 31330 net.cpp:84] Creating Layer conv1
I0424 23:38:31.458652 31330 net.cpp:406] conv1 <- data
I0424 23:38:31.458696 31330 net.cpp:380] conv1 -> conv1
I0424 23:38:32.148041 31330 net.cpp:122] Setting up conv1
I0424 23:38:32.148207 31330 net.cpp:129] Top shape: 40 64 149 149 (56834560)
I0424 23:38:32.148224 31330 net.cpp:137] Memory required for data: 270538400
I0424 23:38:32.148313 31330 layer_factory.hpp:77] Creating layer relu_conv1
I0424 23:38:32.148357 31330 net.cpp:84] Creating Layer relu_conv1
I0424 23:38:32.148375 31330 net.cpp:406] relu_conv1 <- conv1
I0424 23:38:32.148394 31330 net.cpp:367] relu_conv1 -> conv1 (in-place)
I0424 23:38:32.148850 31330 net.cpp:122] Setting up relu_conv1
I0424 23:38:32.148875 31330 net.cpp:129] Top shape: 40 64 149 149 (56834560)
I0424 23:38:32.148881 31330 net.cpp:137] Memory required for data: 497876640
I0424 23:38:32.148887 31330 layer_factory.hpp:77] Creating layer pool1
I0424 23:38:32.148905 31330 net.cpp:84] Creating Layer pool1
I0424 23:38:32.148911 31330 net.cpp:406] pool1 <- conv1
I0424 23:38:32.148922 31330 net.cpp:380] pool1 -> pool1
I0424 23:38:32.149046 31330 net.cpp:122] Setting up pool1
I0424 23:38:32.149060 31330 net.cpp:129] Top shape: 40 64 74 74 (14018560)
I0424 23:38:32.149065 31330 net.cpp:137] Memory required for data: 553950880
I0424 23:38:32.149071 31330 layer_factory.hpp:77] Creating layer fire2/squeeze1x1
I0424 23:38:32.149096 31330 net.cpp:84] Creating Layer fire2/squeeze1x1
I0424 23:38:32.149104 31330 net.cpp:406] fire2/squeeze1x1 <- pool1
I0424 23:38:32.149116 31330 net.cpp:380] fire2/squeeze1x1 -> fire2/squeeze1x1
I0424 23:38:32.166280 31330 net.cpp:122] Setting up fire2/squeeze1x1
I0424 23:38:32.166451 31330 net.cpp:129] Top shape: 40 16 74 74 (3504640)
I0424 23:38:32.166462 31330 net.cpp:137] Memory required for data: 567969440
I0424 23:38:32.166525 31330 layer_factory.hpp:77] Creating layer fire2/relu_squeeze1x1
I0424 23:38:32.166560 31330 net.cpp:84] Creating Layer fire2/relu_squeeze1x1
I0424 23:38:32.166573 31330 net.cpp:406] fire2/relu_squeeze1x1 <- fire2/squeeze1x1
I0424 23:38:32.166599 31330 net.cpp:367] fire2/relu_squeeze1x1 -> fire2/squeeze1x1 (in-place)
I0424 23:38:32.167158 31330 net.cpp:122] Setting up fire2/relu_squeeze1x1
I0424 23:38:32.167207 31330 net.cpp:129] Top shape: 40 16 74 74 (3504640)
I0424 23:38:32.167214 31330 net.cpp:137] Memory required for data: 581988000
I0424 23:38:32.167227 31330 layer_factory.hpp:77] Creating layer fire2/squeeze1x1_fire2/relu_squeeze1x1_0_split
I0424 23:38:32.167253 31330 net.cpp:84] Creating Layer fire2/squeeze1x1_fire2/relu_squeeze1x1_0_split
I0424 23:38:32.167263 31330 net.cpp:406] fire2/squeeze1x1_fire2/relu_squeeze1x1_0_split <- fire2/squeeze1x1
I0424 23:38:32.167287 31330 net.cpp:380] fire2/squeeze1x1_fire2/relu_squeeze1x1_0_split -> fire2/squeeze1x1_fire2/relu_squeeze1x1_0_split_0
I0424 23:38:32.167311 31330 net.cpp:380] fire2/squeeze1x1_fire2/relu_squeeze1x1_0_split -> fire2/squeeze1x1_fire2/relu_squeeze1x1_0_split_1
I0424 23:38:32.167452 31330 net.cpp:122] Setting up fire2/squeeze1x1_fire2/relu_squeeze1x1_0_split
I0424 23:38:32.167469 31330 net.cpp:129] Top shape: 40 16 74 74 (3504640)
I0424 23:38:32.167479 31330 net.cpp:129] Top shape: 40 16 74 74 (3504640)
I0424 23:38:32.167486 31330 net.cpp:137] Memory required for data: 610025120
I0424 23:38:32.167587 31330 layer_factory.hpp:77] Creating layer fire2/expand1x1
I0424 23:38:32.167624 31330 net.cpp:84] Creating Layer fire2/expand1x1
I0424 23:38:32.167634 31330 net.cpp:406] fire2/expand1x1 <- fire2/squeeze1x1_fire2/relu_squeeze1x1_0_split_0
I0424 23:38:32.167695 31330 net.cpp:380] fire2/expand1x1 -> fire2/expand1x1
I0424 23:38:32.171656 31330 net.cpp:122] Setting up fire2/expand1x1
I0424 23:38:32.171831 31330 net.cpp:129] Top shape: 40 64 74 74 (14018560)
I0424 23:38:32.171844 31330 net.cpp:137] Memory required for data: 666099360
I0424 23:38:32.171901 31330 layer_factory.hpp:77] Creating layer fire2/relu_expand1x1
I0424 23:38:32.171950 31330 net.cpp:84] Creating Layer fire2/relu_expand1x1
I0424 23:38:32.171965 31330 net.cpp:406] fire2/relu_expand1x1 <- fire2/expand1x1
I0424 23:38:32.171994 31330 net.cpp:367] fire2/relu_expand1x1 -> fire2/expand1x1 (in-place)
I0424 23:38:32.172364 31330 net.cpp:122] Setting up fire2/relu_expand1x1
I0424 23:38:32.172389 31330 net.cpp:129] Top shape: 40 64 74 74 (14018560)
I0424 23:38:32.172396 31330 net.cpp:137] Memory required for data: 722173600
I0424 23:38:32.172410 31330 layer_factory.hpp:77] Creating layer fire2/expand3x3
I0424 23:38:32.172447 31330 net.cpp:84] Creating Layer fire2/expand3x3
I0424 23:38:32.172456 31330 net.cpp:406] fire2/expand3x3 <- fire2/squeeze1x1_fire2/relu_squeeze1x1_0_split_1
I0424 23:38:32.172477 31330 net.cpp:380] fire2/expand3x3 -> fire2/expand3x3
I0424 23:38:32.177244 31330 net.cpp:122] Setting up fire2/expand3x3
I0424 23:38:32.177410 31330 net.cpp:129] Top shape: 40 64 74 74 (14018560)
I0424 23:38:32.177423 31330 net.cpp:137] Memory required for data: 778247840
I0424 23:38:32.177459 31330 layer_factory.hpp:77] Creating layer fire2/relu_expand3x3
I0424 23:38:32.177511 31330 net.cpp:84] Creating Layer fire2/relu_expand3x3
I0424 23:38:32.177523 31330 net.cpp:406] fire2/relu_expand3x3 <- fire2/expand3x3
I0424 23:38:32.177549 31330 net.cpp:367] fire2/relu_expand3x3 -> fire2/expand3x3 (in-place)
I0424 23:38:32.177865 31330 net.cpp:122] Setting up fire2/relu_expand3x3
I0424 23:38:32.177887 31330 net.cpp:129] Top shape: 40 64 74 74 (14018560)
I0424 23:38:32.177896 31330 net.cpp:137] Memory required for data: 834322080
I0424 23:38:32.177903 31330 layer_factory.hpp:77] Creating layer fire2/concat
I0424 23:38:32.177929 31330 net.cpp:84] Creating Layer fire2/concat
I0424 23:38:32.177940 31330 net.cpp:406] fire2/concat <- fire2/expand1x1
I0424 23:38:32.177955 31330 net.cpp:406] fire2/concat <- fire2/expand3x3
I0424 23:38:32.177968 31330 net.cpp:380] fire2/concat -> fire2/concat
I0424 23:38:32.178032 31330 net.cpp:122] Setting up fire2/concat
I0424 23:38:32.178050 31330 net.cpp:129] Top shape: 40 128 74 74 (28037120)
I0424 23:38:32.178058 31330 net.cpp:137] Memory required for data: 946470560
I0424 23:38:32.178067 31330 layer_factory.hpp:77] Creating layer fire3/squeeze1x1
I0424 23:38:32.178102 31330 net.cpp:84] Creating Layer fire3/squeeze1x1
I0424 23:38:32.178113 31330 net.cpp:406] fire3/squeeze1x1 <- fire2/concat
I0424 23:38:32.178129 31330 net.cpp:380] fire3/squeeze1x1 -> fire3/squeeze1x1
I0424 23:38:32.180510 31330 net.cpp:122] Setting up fire3/squeeze1x1
I0424 23:38:32.180593 31330 net.cpp:129] Top shape: 40 16 74 74 (3504640)
I0424 23:38:32.180600 31330 net.cpp:137] Memory required for data: 960489120
I0424 23:38:32.180635 31330 layer_factory.hpp:77] Creating layer fire3/relu_squeeze1x1
I0424 23:38:32.180658 31330 net.cpp:84] Creating Layer fire3/relu_squeeze1x1
I0424 23:38:32.180670 31330 net.cpp:406] fire3/relu_squeeze1x1 <- fire3/squeeze1x1
I0424 23:38:32.180685 31330 net.cpp:367] fire3/relu_squeeze1x1 -> fire3/squeeze1x1 (in-place)
I0424 23:38:32.181736 31330 net.cpp:122] Setting up fire3/relu_squeeze1x1
I0424 23:38:32.181764 31330 net.cpp:129] Top shape: 40 16 74 74 (3504640)
I0424 23:38:32.181772 31330 net.cpp:137] Memory required for data: 974507680
I0424 23:38:32.181782 31330 layer_factory.hpp:77] Creating layer fire3/squeeze1x1_fire3/relu_squeeze1x1_0_split
I0424 23:38:32.181794 31330 net.cpp:84] Creating Layer fire3/squeeze1x1_fire3/relu_squeeze1x1_0_split
I0424 23:38:32.181849 31330 net.cpp:406] fire3/squeeze1x1_fire3/relu_squeeze1x1_0_split <- fire3/squeeze1x1
I0424 23:38:32.181864 31330 net.cpp:380] fire3/squeeze1x1_fire3/relu_squeeze1x1_0_split -> fire3/squeeze1x1_fire3/relu_squeeze1x1_0_split_0
I0424 23:38:32.181905 31330 net.cpp:380] fire3/squeeze1x1_fire3/relu_squeeze1x1_0_split -> fire3/squeeze1x1_fire3/relu_squeeze1x1_0_split_1
I0424 23:38:32.181985 31330 net.cpp:122] Setting up fire3/squeeze1x1_fire3/relu_squeeze1x1_0_split
I0424 23:38:32.181999 31330 net.cpp:129] Top shape: 40 16 74 74 (3504640)
I0424 23:38:32.182009 31330 net.cpp:129] Top shape: 40 16 74 74 (3504640)
I0424 23:38:32.182018 31330 net.cpp:137] Memory required for data: 1002544800
I0424 23:38:32.182024 31330 layer_factory.hpp:77] Creating layer fire3/expand1x1
I0424 23:38:32.182047 31330 net.cpp:84] Creating Layer fire3/expand1x1
I0424 23:38:32.182056 31330 net.cpp:406] fire3/expand1x1 <- fire3/squeeze1x1_fire3/relu_squeeze1x1_0_split_0
I0424 23:38:32.182067 31330 net.cpp:380] fire3/expand1x1 -> fire3/expand1x1
I0424 23:38:32.183625 31330 net.cpp:122] Setting up fire3/expand1x1
I0424 23:38:32.183693 31330 net.cpp:129] Top shape: 40 64 74 74 (14018560)
I0424 23:38:32.183704 31330 net.cpp:137] Memory required for data: 1058619040
I0424 23:38:32.183738 31330 layer_factory.hpp:77] Creating layer fire3/relu_expand1x1
I0424 23:38:32.183781 31330 net.cpp:84] Creating Layer fire3/relu_expand1x1
I0424 23:38:32.183794 31330 net.cpp:406] fire3/relu_expand1x1 <- fire3/expand1x1
I0424 23:38:32.183830 31330 net.cpp:367] fire3/relu_expand1x1 -> fire3/expand1x1 (in-place)
I0424 23:38:32.186089 31330 net.cpp:122] Setting up fire3/relu_expand1x1
I0424 23:38:32.186213 31330 net.cpp:129] Top shape: 40 64 74 74 (14018560)
I0424 23:38:32.186233 31330 net.cpp:137] Memory required for data: 1114693280
I0424 23:38:32.186249 31330 layer_factory.hpp:77] Creating layer fire3/expand3x3
I0424 23:38:32.186291 31330 net.cpp:84] Creating Layer fire3/expand3x3
I0424 23:38:32.186301 31330 net.cpp:406] fire3/expand3x3 <- fire3/squeeze1x1_fire3/relu_squeeze1x1_0_split_1
I0424 23:38:32.186328 31330 net.cpp:380] fire3/expand3x3 -> fire3/expand3x3
I0424 23:38:32.190132 31330 net.cpp:122] Setting up fire3/expand3x3
I0424 23:38:32.190280 31330 net.cpp:129] Top shape: 40 64 74 74 (14018560)
I0424 23:38:32.190294 31330 net.cpp:137] Memory required for data: 1170767520
I0424 23:38:32.190361 31330 layer_factory.hpp:77] Creating layer fire3/relu_expand3x3
I0424 23:38:32.190428 31330 net.cpp:84] Creating Layer fire3/relu_expand3x3
I0424 23:38:32.190451 31330 net.cpp:406] fire3/relu_expand3x3 <- fire3/expand3x3
I0424 23:38:32.190497 31330 net.cpp:367] fire3/relu_expand3x3 -> fire3/expand3x3 (in-place)
I0424 23:38:32.190887 31330 net.cpp:122] Setting up fire3/relu_expand3x3
I0424 23:38:32.190912 31330 net.cpp:129] Top shape: 40 64 74 74 (14018560)
I0424 23:38:32.190920 31330 net.cpp:137] Memory required for data: 1226841760
I0424 23:38:32.190932 31330 layer_factory.hpp:77] Creating layer fire3/concat
I0424 23:38:32.190948 31330 net.cpp:84] Creating Layer fire3/concat
I0424 23:38:32.190958 31330 net.cpp:406] fire3/concat <- fire3/expand1x1
I0424 23:38:32.190968 31330 net.cpp:406] fire3/concat <- fire3/expand3x3
I0424 23:38:32.190986 31330 net.cpp:380] fire3/concat -> fire3/concat
I0424 23:38:32.191072 31330 net.cpp:122] Setting up fire3/concat
I0424 23:38:32.191093 31330 net.cpp:129] Top shape: 40 128 74 74 (28037120)
I0424 23:38:32.191099 31330 net.cpp:137] Memory required for data: 1338990240
I0424 23:38:32.191110 31330 layer_factory.hpp:77] Creating layer pool3
I0424 23:38:32.191154 31330 net.cpp:84] Creating Layer pool3
I0424 23:38:32.191164 31330 net.cpp:406] pool3 <- fire3/concat
I0424 23:38:32.191182 31330 net.cpp:380] pool3 -> pool3
I0424 23:38:32.191313 31330 net.cpp:122] Setting up pool3
I0424 23:38:32.191336 31330 net.cpp:129] Top shape: 40 128 37 37 (7009280)
I0424 23:38:32.191347 31330 net.cpp:137] Memory required for data: 1367027360
I0424 23:38:32.191356 31330 layer_factory.hpp:77] Creating layer fire4/squeeze1x1
I0424 23:38:32.191490 31330 net.cpp:84] Creating Layer fire4/squeeze1x1
I0424 23:38:32.191500 31330 net.cpp:406] fire4/squeeze1x1 <- pool3
I0424 23:38:32.191512 31330 net.cpp:380] fire4/squeeze1x1 -> fire4/squeeze1x1
I0424 23:38:32.197760 31330 net.cpp:122] Setting up fire4/squeeze1x1
I0424 23:38:32.198061 31330 net.cpp:129] Top shape: 40 32 37 37 (1752320)
I0424 23:38:32.198081 31330 net.cpp:137] Memory required for data: 1374036640
I0424 23:38:32.198161 31330 layer_factory.hpp:77] Creating layer fire4/relu_squeeze1x1
I0424 23:38:32.198236 31330 net.cpp:84] Creating Layer fire4/relu_squeeze1x1
I0424 23:38:32.198263 31330 net.cpp:406] fire4/relu_squeeze1x1 <- fire4/squeeze1x1
I0424 23:38:32.198302 31330 net.cpp:367] fire4/relu_squeeze1x1 -> fire4/squeeze1x1 (in-place)
I0424 23:38:32.198818 31330 net.cpp:122] Setting up fire4/relu_squeeze1x1
I0424 23:38:32.198858 31330 net.cpp:129] Top shape: 40 32 37 37 (1752320)
I0424 23:38:32.198868 31330 net.cpp:137] Memory required for data: 1381045920
I0424 23:38:32.198879 31330 layer_factory.hpp:77] Creating layer fire4/squeeze1x1_fire4/relu_squeeze1x1_0_split
I0424 23:38:32.198905 31330 net.cpp:84] Creating Layer fire4/squeeze1x1_fire4/relu_squeeze1x1_0_split
I0424 23:38:32.198917 31330 net.cpp:406] fire4/squeeze1x1_fire4/relu_squeeze1x1_0_split <- fire4/squeeze1x1
I0424 23:38:32.198931 31330 net.cpp:380] fire4/squeeze1x1_fire4/relu_squeeze1x1_0_split -> fire4/squeeze1x1_fire4/relu_squeeze1x1_0_split_0
I0424 23:38:32.198961 31330 net.cpp:380] fire4/squeeze1x1_fire4/relu_squeeze1x1_0_split -> fire4/squeeze1x1_fire4/relu_squeeze1x1_0_split_1
I0424 23:38:32.199074 31330 net.cpp:122] Setting up fire4/squeeze1x1_fire4/relu_squeeze1x1_0_split
I0424 23:38:32.199092 31330 net.cpp:129] Top shape: 40 32 37 37 (1752320)
I0424 23:38:32.199102 31330 net.cpp:129] Top shape: 40 32 37 37 (1752320)
I0424 23:38:32.199111 31330 net.cpp:137] Memory required for data: 1395064480
I0424 23:38:32.199121 31330 layer_factory.hpp:77] Creating layer fire4/expand1x1
I0424 23:38:32.199175 31330 net.cpp:84] Creating Layer fire4/expand1x1
I0424 23:38:32.199185 31330 net.cpp:406] fire4/expand1x1 <- fire4/squeeze1x1_fire4/relu_squeeze1x1_0_split_0
I0424 23:38:32.199206 31330 net.cpp:380] fire4/expand1x1 -> fire4/expand1x1
I0424 23:38:32.203707 31330 net.cpp:122] Setting up fire4/expand1x1
I0424 23:38:32.204005 31330 net.cpp:129] Top shape: 40 128 37 37 (7009280)
I0424 23:38:32.204022 31330 net.cpp:137] Memory required for data: 1423101600
I0424 23:38:32.204147 31330 layer_factory.hpp:77] Creating layer fire4/relu_expand1x1
I0424 23:38:32.204198 31330 net.cpp:84] Creating Layer fire4/relu_expand1x1
I0424 23:38:32.204217 31330 net.cpp:406] fire4/relu_expand1x1 <- fire4/expand1x1
I0424 23:38:32.204246 31330 net.cpp:367] fire4/relu_expand1x1 -> fire4/expand1x1 (in-place)
I0424 23:38:32.204793 31330 net.cpp:122] Setting up fire4/relu_expand1x1
I0424 23:38:32.204826 31330 net.cpp:129] Top shape: 40 128 37 37 (7009280)
I0424 23:38:32.204838 31330 net.cpp:137] Memory required for data: 1451138720
I0424 23:38:32.204849 31330 layer_factory.hpp:77] Creating layer fire4/expand3x3
I0424 23:38:32.204911 31330 net.cpp:84] Creating Layer fire4/expand3x3
I0424 23:38:32.204927 31330 net.cpp:406] fire4/expand3x3 <- fire4/squeeze1x1_fire4/relu_squeeze1x1_0_split_1
I0424 23:38:32.204957 31330 net.cpp:380] fire4/expand3x3 -> fire4/expand3x3
I0424 23:38:32.211128 31330 net.cpp:122] Setting up fire4/expand3x3
I0424 23:38:32.211521 31330 net.cpp:129] Top shape: 40 128 37 37 (7009280)
I0424 23:38:32.211545 31330 net.cpp:137] Memory required for data: 1479175840
I0424 23:38:32.211602 31330 layer_factory.hpp:77] Creating layer fire4/relu_expand3x3
I0424 23:38:32.211685 31330 net.cpp:84] Creating Layer fire4/relu_expand3x3
I0424 23:38:32.211720 31330 net.cpp:406] fire4/relu_expand3x3 <- fire4/expand3x3
I0424 23:38:32.211772 31330 net.cpp:367] fire4/relu_expand3x3 -> fire4/expand3x3 (in-place)
I0424 23:38:32.212220 31330 net.cpp:122] Setting up fire4/relu_expand3x3
I0424 23:38:32.212245 31330 net.cpp:129] Top shape: 40 128 37 37 (7009280)
I0424 23:38:32.212388 31330 net.cpp:137] Memory required for data: 1507212960
I0424 23:38:32.212400 31330 layer_factory.hpp:77] Creating layer fire4/concat
I0424 23:38:32.212426 31330 net.cpp:84] Creating Layer fire4/concat
I0424 23:38:32.212518 31330 net.cpp:406] fire4/concat <- fire4/expand1x1
I0424 23:38:32.212533 31330 net.cpp:406] fire4/concat <- fire4/expand3x3
I0424 23:38:32.212553 31330 net.cpp:380] fire4/concat -> fire4/concat
I0424 23:38:32.212684 31330 net.cpp:122] Setting up fire4/concat
I0424 23:38:32.212704 31330 net.cpp:129] Top shape: 40 256 37 37 (14018560)
I0424 23:38:32.212713 31330 net.cpp:137] Memory required for data: 1563287200
I0424 23:38:32.212721 31330 layer_factory.hpp:77] Creating layer fire5/squeeze1x1
I0424 23:38:32.212780 31330 net.cpp:84] Creating Layer fire5/squeeze1x1
I0424 23:38:32.212790 31330 net.cpp:406] fire5/squeeze1x1 <- fire4/concat
I0424 23:38:32.212805 31330 net.cpp:380] fire5/squeeze1x1 -> fire5/squeeze1x1
I0424 23:38:32.218319 31330 net.cpp:122] Setting up fire5/squeeze1x1
I0424 23:38:32.218487 31330 net.cpp:129] Top shape: 40 32 37 37 (1752320)
I0424 23:38:32.218499 31330 net.cpp:137] Memory required for data: 1570296480
I0424 23:38:32.218559 31330 layer_factory.hpp:77] Creating layer fire5/relu_squeeze1x1
I0424 23:38:32.218624 31330 net.cpp:84] Creating Layer fire5/relu_squeeze1x1
I0424 23:38:32.218654 31330 net.cpp:406] fire5/relu_squeeze1x1 <- fire5/squeeze1x1
I0424 23:38:32.218700 31330 net.cpp:367] fire5/relu_squeeze1x1 -> fire5/squeeze1x1 (in-place)
I0424 23:38:32.220562 31330 net.cpp:122] Setting up fire5/relu_squeeze1x1
I0424 23:38:32.220634 31330 net.cpp:129] Top shape: 40 32 37 37 (1752320)
I0424 23:38:32.220643 31330 net.cpp:137] Memory required for data: 1577305760
I0424 23:38:32.220659 31330 layer_factory.hpp:77] Creating layer fire5/squeeze1x1_fire5/relu_squeeze1x1_0_split
I0424 23:38:32.220681 31330 net.cpp:84] Creating Layer fire5/squeeze1x1_fire5/relu_squeeze1x1_0_split
I0424 23:38:32.220690 31330 net.cpp:406] fire5/squeeze1x1_fire5/relu_squeeze1x1_0_split <- fire5/squeeze1x1
I0424 23:38:32.220713 31330 net.cpp:380] fire5/squeeze1x1_fire5/relu_squeeze1x1_0_split -> fire5/squeeze1x1_fire5/relu_squeeze1x1_0_split_0
I0424 23:38:32.220736 31330 net.cpp:380] fire5/squeeze1x1_fire5/relu_squeeze1x1_0_split -> fire5/squeeze1x1_fire5/relu_squeeze1x1_0_split_1
I0424 23:38:32.220979 31330 net.cpp:122] Setting up fire5/squeeze1x1_fire5/relu_squeeze1x1_0_split
I0424 23:38:32.221006 31330 net.cpp:129] Top shape: 40 32 37 37 (1752320)
I0424 23:38:32.221017 31330 net.cpp:129] Top shape: 40 32 37 37 (1752320)
I0424 23:38:32.221027 31330 net.cpp:137] Memory required for data: 1591324320
I0424 23:38:32.221035 31330 layer_factory.hpp:77] Creating layer fire5/expand1x1
I0424 23:38:32.221107 31330 net.cpp:84] Creating Layer fire5/expand1x1
I0424 23:38:32.221117 31330 net.cpp:406] fire5/expand1x1 <- fire5/squeeze1x1_fire5/relu_squeeze1x1_0_split_0
I0424 23:38:32.221134 31330 net.cpp:380] fire5/expand1x1 -> fire5/expand1x1
I0424 23:38:32.222801 31330 net.cpp:122] Setting up fire5/expand1x1
I0424 23:38:32.222844 31330 net.cpp:129] Top shape: 40 128 37 37 (7009280)
I0424 23:38:32.222853 31330 net.cpp:137] Memory required for data: 1619361440
I0424 23:38:32.222883 31330 layer_factory.hpp:77] Creating layer fire5/relu_expand1x1
I0424 23:38:32.222908 31330 net.cpp:84] Creating Layer fire5/relu_expand1x1
I0424 23:38:32.222921 31330 net.cpp:406] fire5/relu_expand1x1 <- fire5/expand1x1
I0424 23:38:32.222941 31330 net.cpp:367] fire5/relu_expand1x1 -> fire5/expand1x1 (in-place)
I0424 23:38:32.224993 31330 net.cpp:122] Setting up fire5/relu_expand1x1
I0424 23:38:32.225066 31330 net.cpp:129] Top shape: 40 128 37 37 (7009280)
I0424 23:38:32.225075 31330 net.cpp:137] Memory required for data: 1647398560
I0424 23:38:32.225088 31330 layer_factory.hpp:77] Creating layer fire5/expand3x3
I0424 23:38:32.225147 31330 net.cpp:84] Creating Layer fire5/expand3x3
I0424 23:38:32.225159 31330 net.cpp:406] fire5/expand3x3 <- fire5/squeeze1x1_fire5/relu_squeeze1x1_0_split_1
I0424 23:38:32.225180 31330 net.cpp:380] fire5/expand3x3 -> fire5/expand3x3
I0424 23:38:32.237848 31330 net.cpp:122] Setting up fire5/expand3x3
I0424 23:38:32.238179 31330 net.cpp:129] Top shape: 40 128 37 37 (7009280)
I0424 23:38:32.238293 31330 net.cpp:137] Memory required for data: 1675435680
I0424 23:38:32.238350 31330 layer_factory.hpp:77] Creating layer fire5/relu_expand3x3
I0424 23:38:32.238402 31330 net.cpp:84] Creating Layer fire5/relu_expand3x3
I0424 23:38:32.238422 31330 net.cpp:406] fire5/relu_expand3x3 <- fire5/expand3x3
I0424 23:38:32.238449 31330 net.cpp:367] fire5/relu_expand3x3 -> fire5/expand3x3 (in-place)
I0424 23:38:32.238920 31330 net.cpp:122] Setting up fire5/relu_expand3x3
I0424 23:38:32.238955 31330 net.cpp:129] Top shape: 40 128 37 37 (7009280)
I0424 23:38:32.238967 31330 net.cpp:137] Memory required for data: 1703472800
I0424 23:38:32.238977 31330 layer_factory.hpp:77] Creating layer fire5/concat
I0424 23:38:32.238997 31330 net.cpp:84] Creating Layer fire5/concat
I0424 23:38:32.239009 31330 net.cpp:406] fire5/concat <- fire5/expand1x1
I0424 23:38:32.239022 31330 net.cpp:406] fire5/concat <- fire5/expand3x3
I0424 23:38:32.239037 31330 net.cpp:380] fire5/concat -> fire5/concat
I0424 23:38:32.239112 31330 net.cpp:122] Setting up fire5/concat
I0424 23:38:32.239131 31330 net.cpp:129] Top shape: 40 256 37 37 (14018560)
I0424 23:38:32.239140 31330 net.cpp:137] Memory required for data: 1759547040
I0424 23:38:32.239150 31330 layer_factory.hpp:77] Creating layer pool5
I0424 23:38:32.239176 31330 net.cpp:84] Creating Layer pool5
I0424 23:38:32.239189 31330 net.cpp:406] pool5 <- fire5/concat
I0424 23:38:32.239204 31330 net.cpp:380] pool5 -> pool5
I0424 23:38:32.239306 31330 net.cpp:122] Setting up pool5
I0424 23:38:32.239337 31330 net.cpp:129] Top shape: 40 256 18 18 (3317760)
I0424 23:38:32.239346 31330 net.cpp:137] Memory required for data: 1772818080
I0424 23:38:32.239357 31330 layer_factory.hpp:77] Creating layer fire6/squeeze1x1
I0424 23:38:32.239415 31330 net.cpp:84] Creating Layer fire6/squeeze1x1
I0424 23:38:32.239435 31330 net.cpp:406] fire6/squeeze1x1 <- pool5
I0424 23:38:32.239452 31330 net.cpp:380] fire6/squeeze1x1 -> fire6/squeeze1x1
I0424 23:38:32.244900 31330 net.cpp:122] Setting up fire6/squeeze1x1
I0424 23:38:32.245107 31330 net.cpp:129] Top shape: 40 48 18 18 (622080)
I0424 23:38:32.245124 31330 net.cpp:137] Memory required for data: 1775306400
I0424 23:38:32.245187 31330 layer_factory.hpp:77] Creating layer fire6/relu_squeeze1x1
I0424 23:38:32.245261 31330 net.cpp:84] Creating Layer fire6/relu_squeeze1x1
I0424 23:38:32.245281 31330 net.cpp:406] fire6/relu_squeeze1x1 <- fire6/squeeze1x1
I0424 23:38:32.245311 31330 net.cpp:367] fire6/relu_squeeze1x1 -> fire6/squeeze1x1 (in-place)
I0424 23:38:32.245847 31330 net.cpp:122] Setting up fire6/relu_squeeze1x1
I0424 23:38:32.245873 31330 net.cpp:129] Top shape: 40 48 18 18 (622080)
I0424 23:38:32.245884 31330 net.cpp:137] Memory required for data: 1777794720
I0424 23:38:32.245896 31330 layer_factory.hpp:77] Creating layer fire6/squeeze1x1_fire6/relu_squeeze1x1_0_split
I0424 23:38:32.245925 31330 net.cpp:84] Creating Layer fire6/squeeze1x1_fire6/relu_squeeze1x1_0_split
I0424 23:38:32.245934 31330 net.cpp:406] fire6/squeeze1x1_fire6/relu_squeeze1x1_0_split <- fire6/squeeze1x1
I0424 23:38:32.245950 31330 net.cpp:380] fire6/squeeze1x1_fire6/relu_squeeze1x1_0_split -> fire6/squeeze1x1_fire6/relu_squeeze1x1_0_split_0
I0424 23:38:32.245976 31330 net.cpp:380] fire6/squeeze1x1_fire6/relu_squeeze1x1_0_split -> fire6/squeeze1x1_fire6/relu_squeeze1x1_0_split_1
I0424 23:38:32.246167 31330 net.cpp:122] Setting up fire6/squeeze1x1_fire6/relu_squeeze1x1_0_split
I0424 23:38:32.246186 31330 net.cpp:129] Top shape: 40 48 18 18 (622080)
I0424 23:38:32.246202 31330 net.cpp:129] Top shape: 40 48 18 18 (622080)
I0424 23:38:32.246214 31330 net.cpp:137] Memory required for data: 1782771360
I0424 23:38:32.246223 31330 layer_factory.hpp:77] Creating layer fire6/expand1x1
I0424 23:38:32.246264 31330 net.cpp:84] Creating Layer fire6/expand1x1
I0424 23:38:32.246279 31330 net.cpp:406] fire6/expand1x1 <- fire6/squeeze1x1_fire6/relu_squeeze1x1_0_split_0
I0424 23:38:32.246404 31330 net.cpp:380] fire6/expand1x1 -> fire6/expand1x1
I0424 23:38:32.251523 31330 net.cpp:122] Setting up fire6/expand1x1
I0424 23:38:32.251796 31330 net.cpp:129] Top shape: 40 192 18 18 (2488320)
I0424 23:38:32.251816 31330 net.cpp:137] Memory required for data: 1792724640
I0424 23:38:32.251890 31330 layer_factory.hpp:77] Creating layer fire6/relu_expand1x1
I0424 23:38:32.251973 31330 net.cpp:84] Creating Layer fire6/relu_expand1x1
I0424 23:38:32.252004 31330 net.cpp:406] fire6/relu_expand1x1 <- fire6/expand1x1
I0424 23:38:32.252055 31330 net.cpp:367] fire6/relu_expand1x1 -> fire6/expand1x1 (in-place)
I0424 23:38:32.252463 31330 net.cpp:122] Setting up fire6/relu_expand1x1
I0424 23:38:32.252482 31330 net.cpp:129] Top shape: 40 192 18 18 (2488320)
I0424 23:38:32.252491 31330 net.cpp:137] Memory required for data: 1802677920
I0424 23:38:32.252498 31330 layer_factory.hpp:77] Creating layer fire6/expand3x3
I0424 23:38:32.252527 31330 net.cpp:84] Creating Layer fire6/expand3x3
I0424 23:38:32.252538 31330 net.cpp:406] fire6/expand3x3 <- fire6/squeeze1x1_fire6/relu_squeeze1x1_0_split_1
I0424 23:38:32.252557 31330 net.cpp:380] fire6/expand3x3 -> fire6/expand3x3
I0424 23:38:32.261714 31330 net.cpp:122] Setting up fire6/expand3x3
I0424 23:38:32.261925 31330 net.cpp:129] Top shape: 40 192 18 18 (2488320)
I0424 23:38:32.261940 31330 net.cpp:137] Memory required for data: 1812631200
I0424 23:38:32.261978 31330 layer_factory.hpp:77] Creating layer fire6/relu_expand3x3
I0424 23:38:32.262035 31330 net.cpp:84] Creating Layer fire6/relu_expand3x3
I0424 23:38:32.262058 31330 net.cpp:406] fire6/relu_expand3x3 <- fire6/expand3x3
I0424 23:38:32.262109 31330 net.cpp:367] fire6/relu_expand3x3 -> fire6/expand3x3 (in-place)
I0424 23:38:32.262528 31330 net.cpp:122] Setting up fire6/relu_expand3x3
I0424 23:38:32.262550 31330 net.cpp:129] Top shape: 40 192 18 18 (2488320)
I0424 23:38:32.262562 31330 net.cpp:137] Memory required for data: 1822584480
I0424 23:38:32.262569 31330 layer_factory.hpp:77] Creating layer fire6/concat
I0424 23:38:32.262588 31330 net.cpp:84] Creating Layer fire6/concat
I0424 23:38:32.262599 31330 net.cpp:406] fire6/concat <- fire6/expand1x1
I0424 23:38:32.262610 31330 net.cpp:406] fire6/concat <- fire6/expand3x3
I0424 23:38:32.262627 31330 net.cpp:380] fire6/concat -> fire6/concat
I0424 23:38:32.262728 31330 net.cpp:122] Setting up fire6/concat
I0424 23:38:32.262747 31330 net.cpp:129] Top shape: 40 384 18 18 (4976640)
I0424 23:38:32.262758 31330 net.cpp:137] Memory required for data: 1842491040
I0424 23:38:32.262765 31330 layer_factory.hpp:77] Creating layer fire7/squeeze1x1
I0424 23:38:32.262817 31330 net.cpp:84] Creating Layer fire7/squeeze1x1
I0424 23:38:32.262830 31330 net.cpp:406] fire7/squeeze1x1 <- fire6/concat
I0424 23:38:32.262847 31330 net.cpp:380] fire7/squeeze1x1 -> fire7/squeeze1x1
I0424 23:38:32.266340 31330 net.cpp:122] Setting up fire7/squeeze1x1
I0424 23:38:32.266508 31330 net.cpp:129] Top shape: 40 48 18 18 (622080)
I0424 23:38:32.266525 31330 net.cpp:137] Memory required for data: 1844979360
I0424 23:38:32.266618 31330 layer_factory.hpp:77] Creating layer fire7/relu_squeeze1x1
I0424 23:38:32.266659 31330 net.cpp:84] Creating Layer fire7/relu_squeeze1x1
I0424 23:38:32.266680 31330 net.cpp:406] fire7/relu_squeeze1x1 <- fire7/squeeze1x1
I0424 23:38:32.266710 31330 net.cpp:367] fire7/relu_squeeze1x1 -> fire7/squeeze1x1 (in-place)
I0424 23:38:32.269008 31330 net.cpp:122] Setting up fire7/relu_squeeze1x1
I0424 23:38:32.269086 31330 net.cpp:129] Top shape: 40 48 18 18 (622080)
I0424 23:38:32.269104 31330 net.cpp:137] Memory required for data: 1847467680
I0424 23:38:32.269124 31330 layer_factory.hpp:77] Creating layer fire7/squeeze1x1_fire7/relu_squeeze1x1_0_split
I0424 23:38:32.269155 31330 net.cpp:84] Creating Layer fire7/squeeze1x1_fire7/relu_squeeze1x1_0_split
I0424 23:38:32.269170 31330 net.cpp:406] fire7/squeeze1x1_fire7/relu_squeeze1x1_0_split <- fire7/squeeze1x1
I0424 23:38:32.269194 31330 net.cpp:380] fire7/squeeze1x1_fire7/relu_squeeze1x1_0_split -> fire7/squeeze1x1_fire7/relu_squeeze1x1_0_split_0
I0424 23:38:32.269289 31330 net.cpp:380] fire7/squeeze1x1_fire7/relu_squeeze1x1_0_split -> fire7/squeeze1x1_fire7/relu_squeeze1x1_0_split_1
I0424 23:38:32.269512 31330 net.cpp:122] Setting up fire7/squeeze1x1_fire7/relu_squeeze1x1_0_split
I0424 23:38:32.269532 31330 net.cpp:129] Top shape: 40 48 18 18 (622080)
I0424 23:38:32.269546 31330 net.cpp:129] Top shape: 40 48 18 18 (622080)
I0424 23:38:32.269554 31330 net.cpp:137] Memory required for data: 1852444320
I0424 23:38:32.269563 31330 layer_factory.hpp:77] Creating layer fire7/expand1x1
I0424 23:38:32.269595 31330 net.cpp:84] Creating Layer fire7/expand1x1
I0424 23:38:32.269605 31330 net.cpp:406] fire7/expand1x1 <- fire7/squeeze1x1_fire7/relu_squeeze1x1_0_split_0
I0424 23:38:32.269619 31330 net.cpp:380] fire7/expand1x1 -> fire7/expand1x1
I0424 23:38:32.271291 31330 net.cpp:122] Setting up fire7/expand1x1
I0424 23:38:32.271332 31330 net.cpp:129] Top shape: 40 192 18 18 (2488320)
I0424 23:38:32.271342 31330 net.cpp:137] Memory required for data: 1862397600
I0424 23:38:32.271371 31330 layer_factory.hpp:77] Creating layer fire7/relu_expand1x1
I0424 23:38:32.271395 31330 net.cpp:84] Creating Layer fire7/relu_expand1x1
I0424 23:38:32.271405 31330 net.cpp:406] fire7/relu_expand1x1 <- fire7/expand1x1
I0424 23:38:32.271422 31330 net.cpp:367] fire7/relu_expand1x1 -> fire7/expand1x1 (in-place)
I0424 23:38:32.272902 31330 net.cpp:122] Setting up fire7/relu_expand1x1
I0424 23:38:32.272940 31330 net.cpp:129] Top shape: 40 192 18 18 (2488320)
I0424 23:38:32.272951 31330 net.cpp:137] Memory required for data: 1872350880
I0424 23:38:32.272964 31330 layer_factory.hpp:77] Creating layer fire7/expand3x3
I0424 23:38:32.272991 31330 net.cpp:84] Creating Layer fire7/expand3x3
I0424 23:38:32.273005 31330 net.cpp:406] fire7/expand3x3 <- fire7/squeeze1x1_fire7/relu_squeeze1x1_0_split_1
I0424 23:38:32.273020 31330 net.cpp:380] fire7/expand3x3 -> fire7/expand3x3
I0424 23:38:32.277220 31330 net.cpp:122] Setting up fire7/expand3x3
I0424 23:38:32.277369 31330 net.cpp:129] Top shape: 40 192 18 18 (2488320)
I0424 23:38:32.277384 31330 net.cpp:137] Memory required for data: 1882304160
I0424 23:38:32.277424 31330 layer_factory.hpp:77] Creating layer fire7/relu_expand3x3
I0424 23:38:32.277460 31330 net.cpp:84] Creating Layer fire7/relu_expand3x3
I0424 23:38:32.277475 31330 net.cpp:406] fire7/relu_expand3x3 <- fire7/expand3x3
I0424 23:38:32.277496 31330 net.cpp:367] fire7/relu_expand3x3 -> fire7/expand3x3 (in-place)
I0424 23:38:32.277845 31330 net.cpp:122] Setting up fire7/relu_expand3x3
I0424 23:38:32.277864 31330 net.cpp:129] Top shape: 40 192 18 18 (2488320)
I0424 23:38:32.277873 31330 net.cpp:137] Memory required for data: 1892257440
I0424 23:38:32.277884 31330 layer_factory.hpp:77] Creating layer fire7/concat
I0424 23:38:32.277904 31330 net.cpp:84] Creating Layer fire7/concat
I0424 23:38:32.277916 31330 net.cpp:406] fire7/concat <- fire7/expand1x1
I0424 23:38:32.277930 31330 net.cpp:406] fire7/concat <- fire7/expand3x3
I0424 23:38:32.277943 31330 net.cpp:380] fire7/concat -> fire7/concat
I0424 23:38:32.278029 31330 net.cpp:122] Setting up fire7/concat
I0424 23:38:32.278048 31330 net.cpp:129] Top shape: 40 384 18 18 (4976640)
I0424 23:38:32.278059 31330 net.cpp:137] Memory required for data: 1912164000
I0424 23:38:32.278067 31330 layer_factory.hpp:77] Creating layer fire8/squeeze1x1
I0424 23:38:32.278105 31330 net.cpp:84] Creating Layer fire8/squeeze1x1
I0424 23:38:32.278115 31330 net.cpp:406] fire8/squeeze1x1 <- fire7/concat
I0424 23:38:32.278133 31330 net.cpp:380] fire8/squeeze1x1 -> fire8/squeeze1x1
I0424 23:38:32.281790 31330 net.cpp:122] Setting up fire8/squeeze1x1
I0424 23:38:32.281989 31330 net.cpp:129] Top shape: 40 64 18 18 (829440)
I0424 23:38:32.282001 31330 net.cpp:137] Memory required for data: 1915481760
I0424 23:38:32.282045 31330 layer_factory.hpp:77] Creating layer fire8/relu_squeeze1x1
I0424 23:38:32.282085 31330 net.cpp:84] Creating Layer fire8/relu_squeeze1x1
I0424 23:38:32.282101 31330 net.cpp:406] fire8/relu_squeeze1x1 <- fire8/squeeze1x1
I0424 23:38:32.282203 31330 net.cpp:367] fire8/relu_squeeze1x1 -> fire8/squeeze1x1 (in-place)
I0424 23:38:32.282534 31330 net.cpp:122] Setting up fire8/relu_squeeze1x1
I0424 23:38:32.282608 31330 net.cpp:129] Top shape: 40 64 18 18 (829440)
I0424 23:38:32.282618 31330 net.cpp:137] Memory required for data: 1918799520
I0424 23:38:32.282626 31330 layer_factory.hpp:77] Creating layer fire8/squeeze1x1_fire8/relu_squeeze1x1_0_split
I0424 23:38:32.282663 31330 net.cpp:84] Creating Layer fire8/squeeze1x1_fire8/relu_squeeze1x1_0_split
I0424 23:38:32.282676 31330 net.cpp:406] fire8/squeeze1x1_fire8/relu_squeeze1x1_0_split <- fire8/squeeze1x1
I0424 23:38:32.282694 31330 net.cpp:380] fire8/squeeze1x1_fire8/relu_squeeze1x1_0_split -> fire8/squeeze1x1_fire8/relu_squeeze1x1_0_split_0
I0424 23:38:32.282717 31330 net.cpp:380] fire8/squeeze1x1_fire8/relu_squeeze1x1_0_split -> fire8/squeeze1x1_fire8/relu_squeeze1x1_0_split_1
I0424 23:38:32.282796 31330 net.cpp:122] Setting up fire8/squeeze1x1_fire8/relu_squeeze1x1_0_split
I0424 23:38:32.282814 31330 net.cpp:129] Top shape: 40 64 18 18 (829440)
I0424 23:38:32.282824 31330 net.cpp:129] Top shape: 40 64 18 18 (829440)
I0424 23:38:32.282832 31330 net.cpp:137] Memory required for data: 1925435040
I0424 23:38:32.282840 31330 layer_factory.hpp:77] Creating layer fire8/expand1x1
I0424 23:38:32.282873 31330 net.cpp:84] Creating Layer fire8/expand1x1
I0424 23:38:32.282884 31330 net.cpp:406] fire8/expand1x1 <- fire8/squeeze1x1_fire8/relu_squeeze1x1_0_split_0
I0424 23:38:32.282899 31330 net.cpp:380] fire8/expand1x1 -> fire8/expand1x1
I0424 23:38:32.285818 31330 net.cpp:122] Setting up fire8/expand1x1
I0424 23:38:32.285874 31330 net.cpp:129] Top shape: 40 256 18 18 (3317760)
I0424 23:38:32.285886 31330 net.cpp:137] Memory required for data: 1938706080
I0424 23:38:32.285905 31330 layer_factory.hpp:77] Creating layer fire8/relu_expand1x1
I0424 23:38:32.285926 31330 net.cpp:84] Creating Layer fire8/relu_expand1x1
I0424 23:38:32.285938 31330 net.cpp:406] fire8/relu_expand1x1 <- fire8/expand1x1
I0424 23:38:32.285953 31330 net.cpp:367] fire8/relu_expand1x1 -> fire8/expand1x1 (in-place)
I0424 23:38:32.286216 31330 net.cpp:122] Setting up fire8/relu_expand1x1
I0424 23:38:32.286234 31330 net.cpp:129] Top shape: 40 256 18 18 (3317760)
I0424 23:38:32.286242 31330 net.cpp:137] Memory required for data: 1951977120
I0424 23:38:32.286250 31330 layer_factory.hpp:77] Creating layer fire8/expand3x3
I0424 23:38:32.286273 31330 net.cpp:84] Creating Layer fire8/expand3x3
I0424 23:38:32.286284 31330 net.cpp:406] fire8/expand3x3 <- fire8/squeeze1x1_fire8/relu_squeeze1x1_0_split_1
I0424 23:38:32.286309 31330 net.cpp:380] fire8/expand3x3 -> fire8/expand3x3
I0424 23:38:32.291049 31330 net.cpp:122] Setting up fire8/expand3x3
I0424 23:38:32.291157 31330 net.cpp:129] Top shape: 40 256 18 18 (3317760)
I0424 23:38:32.291167 31330 net.cpp:137] Memory required for data: 1965248160
I0424 23:38:32.291203 31330 layer_factory.hpp:77] Creating layer fire8/relu_expand3x3
I0424 23:38:32.291244 31330 net.cpp:84] Creating Layer fire8/relu_expand3x3
I0424 23:38:32.291258 31330 net.cpp:406] fire8/relu_expand3x3 <- fire8/expand3x3
I0424 23:38:32.291285 31330 net.cpp:367] fire8/relu_expand3x3 -> fire8/expand3x3 (in-place)
I0424 23:38:32.291683 31330 net.cpp:122] Setting up fire8/relu_expand3x3
I0424 23:38:32.291702 31330 net.cpp:129] Top shape: 40 256 18 18 (3317760)
I0424 23:38:32.291710 31330 net.cpp:137] Memory required for data: 1978519200
I0424 23:38:32.291719 31330 layer_factory.hpp:77] Creating layer fire8/concat
I0424 23:38:32.291731 31330 net.cpp:84] Creating Layer fire8/concat
I0424 23:38:32.291741 31330 net.cpp:406] fire8/concat <- fire8/expand1x1
I0424 23:38:32.291751 31330 net.cpp:406] fire8/concat <- fire8/expand3x3
I0424 23:38:32.291766 31330 net.cpp:380] fire8/concat -> fire8/concat
I0424 23:38:32.291848 31330 net.cpp:122] Setting up fire8/concat
I0424 23:38:32.291864 31330 net.cpp:129] Top shape: 40 512 18 18 (6635520)
I0424 23:38:32.291874 31330 net.cpp:137] Memory required for data: 2005061280
I0424 23:38:32.291959 31330 layer_factory.hpp:77] Creating layer fire9/squeeze1x1
I0424 23:38:32.291990 31330 net.cpp:84] Creating Layer fire9/squeeze1x1
I0424 23:38:32.292003 31330 net.cpp:406] fire9/squeeze1x1 <- fire8/concat
I0424 23:38:32.292042 31330 net.cpp:380] fire9/squeeze1x1 -> fire9/squeeze1x1
I0424 23:38:32.295027 31330 net.cpp:122] Setting up fire9/squeeze1x1
I0424 23:38:32.295071 31330 net.cpp:129] Top shape: 40 64 18 18 (829440)
I0424 23:38:32.295081 31330 net.cpp:137] Memory required for data: 2008379040
I0424 23:38:32.295100 31330 layer_factory.hpp:77] Creating layer fire9/relu_squeeze1x1
I0424 23:38:32.295120 31330 net.cpp:84] Creating Layer fire9/relu_squeeze1x1
I0424 23:38:32.295130 31330 net.cpp:406] fire9/relu_squeeze1x1 <- fire9/squeeze1x1
I0424 23:38:32.295142 31330 net.cpp:367] fire9/relu_squeeze1x1 -> fire9/squeeze1x1 (in-place)
I0424 23:38:32.296128 31330 net.cpp:122] Setting up fire9/relu_squeeze1x1
I0424 23:38:32.296149 31330 net.cpp:129] Top shape: 40 64 18 18 (829440)
I0424 23:38:32.296162 31330 net.cpp:137] Memory required for data: 2011696800
I0424 23:38:32.296171 31330 layer_factory.hpp:77] Creating layer fire9/squeeze1x1_fire9/relu_squeeze1x1_0_split
I0424 23:38:32.296207 31330 net.cpp:84] Creating Layer fire9/squeeze1x1_fire9/relu_squeeze1x1_0_split
I0424 23:38:32.296217 31330 net.cpp:406] fire9/squeeze1x1_fire9/relu_squeeze1x1_0_split <- fire9/squeeze1x1
I0424 23:38:32.296231 31330 net.cpp:380] fire9/squeeze1x1_fire9/relu_squeeze1x1_0_split -> fire9/squeeze1x1_fire9/relu_squeeze1x1_0_split_0
I0424 23:38:32.296252 31330 net.cpp:380] fire9/squeeze1x1_fire9/relu_squeeze1x1_0_split -> fire9/squeeze1x1_fire9/relu_squeeze1x1_0_split_1
I0424 23:38:32.296334 31330 net.cpp:122] Setting up fire9/squeeze1x1_fire9/relu_squeeze1x1_0_split
I0424 23:38:32.296349 31330 net.cpp:129] Top shape: 40 64 18 18 (829440)
I0424 23:38:32.296361 31330 net.cpp:129] Top shape: 40 64 18 18 (829440)
I0424 23:38:32.296368 31330 net.cpp:137] Memory required for data: 2018332320
I0424 23:38:32.296380 31330 layer_factory.hpp:77] Creating layer fire9/expand1x1
I0424 23:38:32.296408 31330 net.cpp:84] Creating Layer fire9/expand1x1
I0424 23:38:32.296420 31330 net.cpp:406] fire9/expand1x1 <- fire9/squeeze1x1_fire9/relu_squeeze1x1_0_split_0
I0424 23:38:32.296432 31330 net.cpp:380] fire9/expand1x1 -> fire9/expand1x1
I0424 23:38:32.301116 31330 net.cpp:122] Setting up fire9/expand1x1
I0424 23:38:32.301180 31330 net.cpp:129] Top shape: 40 256 18 18 (3317760)
I0424 23:38:32.301192 31330 net.cpp:137] Memory required for data: 2031603360
I0424 23:38:32.301215 31330 layer_factory.hpp:77] Creating layer fire9/relu_expand1x1
I0424 23:38:32.301236 31330 net.cpp:84] Creating Layer fire9/relu_expand1x1
I0424 23:38:32.301249 31330 net.cpp:406] fire9/relu_expand1x1 <- fire9/expand1x1
I0424 23:38:32.301265 31330 net.cpp:367] fire9/relu_expand1x1 -> fire9/expand1x1 (in-place)
I0424 23:38:32.303072 31330 net.cpp:122] Setting up fire9/relu_expand1x1
I0424 23:38:32.303097 31330 net.cpp:129] Top shape: 40 256 18 18 (3317760)
I0424 23:38:32.303105 31330 net.cpp:137] Memory required for data: 2044874400
I0424 23:38:32.303114 31330 layer_factory.hpp:77] Creating layer fire9/expand3x3
I0424 23:38:32.303133 31330 net.cpp:84] Creating Layer fire9/expand3x3
I0424 23:38:32.303143 31330 net.cpp:406] fire9/expand3x3 <- fire9/squeeze1x1_fire9/relu_squeeze1x1_0_split_1
I0424 23:38:32.303158 31330 net.cpp:380] fire9/expand3x3 -> fire9/expand3x3
I0424 23:38:32.307828 31330 net.cpp:122] Setting up fire9/expand3x3
I0424 23:38:32.307869 31330 net.cpp:129] Top shape: 40 256 18 18 (3317760)
I0424 23:38:32.307880 31330 net.cpp:137] Memory required for data: 2058145440
I0424 23:38:32.307898 31330 layer_factory.hpp:77] Creating layer fire9/relu_expand3x3
I0424 23:38:32.307914 31330 net.cpp:84] Creating Layer fire9/relu_expand3x3
I0424 23:38:32.307925 31330 net.cpp:406] fire9/relu_expand3x3 <- fire9/expand3x3
I0424 23:38:32.307941 31330 net.cpp:367] fire9/relu_expand3x3 -> fire9/expand3x3 (in-place)
I0424 23:38:32.308212 31330 net.cpp:122] Setting up fire9/relu_expand3x3
I0424 23:38:32.308270 31330 net.cpp:129] Top shape: 40 256 18 18 (3317760)
I0424 23:38:32.308280 31330 net.cpp:137] Memory required for data: 2071416480
I0424 23:38:32.308288 31330 layer_factory.hpp:77] Creating layer fire9/concat
I0424 23:38:32.308321 31330 net.cpp:84] Creating Layer fire9/concat
I0424 23:38:32.308331 31330 net.cpp:406] fire9/concat <- fire9/expand1x1
I0424 23:38:32.308341 31330 net.cpp:406] fire9/concat <- fire9/expand3x3
I0424 23:38:32.308354 31330 net.cpp:380] fire9/concat -> fire9/concat
I0424 23:38:32.308404 31330 net.cpp:122] Setting up fire9/concat
I0424 23:38:32.308423 31330 net.cpp:129] Top shape: 40 512 18 18 (6635520)
I0424 23:38:32.308431 31330 net.cpp:137] Memory required for data: 2097958560
I0424 23:38:32.308439 31330 layer_factory.hpp:77] Creating layer drop9
I0424 23:38:32.308450 31330 net.cpp:84] Creating Layer drop9
I0424 23:38:32.308460 31330 net.cpp:406] drop9 <- fire9/concat
I0424 23:38:32.308470 31330 net.cpp:367] drop9 -> fire9/concat (in-place)
I0424 23:38:32.308521 31330 net.cpp:122] Setting up drop9
I0424 23:38:32.308534 31330 net.cpp:129] Top shape: 40 512 18 18 (6635520)
I0424 23:38:32.308543 31330 net.cpp:137] Memory required for data: 2124500640
I0424 23:38:32.308549 31330 layer_factory.hpp:77] Creating layer conv10_new
I0424 23:38:32.308573 31330 net.cpp:84] Creating Layer conv10_new
I0424 23:38:32.308581 31330 net.cpp:406] conv10_new <- fire9/concat
I0424 23:38:32.308593 31330 net.cpp:380] conv10_new -> conv10_new
I0424 23:38:32.317349 31330 net.cpp:122] Setting up conv10_new
I0424 23:38:32.317651 31330 net.cpp:129] Top shape: 40 196 18 18 (2540160)
I0424 23:38:32.317673 31330 net.cpp:137] Memory required for data: 2134661280
I0424 23:38:32.317734 31330 layer_factory.hpp:77] Creating layer relu_conv10
I0424 23:38:32.317796 31330 net.cpp:84] Creating Layer relu_conv10
I0424 23:38:32.317823 31330 net.cpp:406] relu_conv10 <- conv10_new
I0424 23:38:32.317858 31330 net.cpp:367] relu_conv10 -> conv10_new (in-place)
I0424 23:38:32.318249 31330 net.cpp:122] Setting up relu_conv10
I0424 23:38:32.318271 31330 net.cpp:129] Top shape: 40 196 18 18 (2540160)
I0424 23:38:32.318279 31330 net.cpp:137] Memory required for data: 2144821920
I0424 23:38:32.318287 31330 layer_factory.hpp:77] Creating layer pool10
I0424 23:38:32.318317 31330 net.cpp:84] Creating Layer pool10
I0424 23:38:32.318327 31330 net.cpp:406] pool10 <- conv10_new
I0424 23:38:32.318352 31330 net.cpp:380] pool10 -> pool10
I0424 23:38:32.318881 31330 net.cpp:122] Setting up pool10
I0424 23:38:32.318907 31330 net.cpp:129] Top shape: 40 196 1 1 (7840)
I0424 23:38:32.318917 31330 net.cpp:137] Memory required for data: 2144853280
I0424 23:38:32.318928 31330 layer_factory.hpp:77] Creating layer loss
I0424 23:38:32.318949 31330 net.cpp:84] Creating Layer loss
I0424 23:38:32.318958 31330 net.cpp:406] loss <- pool10
I0424 23:38:32.318974 31330 net.cpp:406] loss <- label
I0424 23:38:32.319002 31330 net.cpp:380] loss -> loss
I0424 23:38:32.319036 31330 layer_factory.hpp:77] Creating layer loss
…
I0424 23:38:32.324746 31330 solver.cpp:172] Creating test net (#0) specified by net file: finetune.prototxt
I0424 23:38:32.324928 31330 net.cpp:294] The NetState phase (1) differed from the phase (0) specified by a rule in layer data
I0424 23:38:32.325570 31330 net.cpp:51] Initializing net from parameters: 
state {
  phase: TEST
}
layer {
  name: "data"
  type: "ImageData"
  top: "data"
  top: "label"
  include {
    phase: TEST
  }
  transform_param {
    mean_value: 104
    mean_value: 117
    mean_value: 123
  }
  image_data_param {
    source: "./val2.txt"
    batch_size: 40
    crop_size: 227
    mirror: false
    shuffle: true
  }
}
layer {
  name: "conv1"
  type: "Convolution"
  bottom: "data"
  top: "conv1"
  convolution_param {
    num_output: 64
    kernel_size: 3
    stride: 2
    weight_filler {
      type: "xavier"
    }
  }
}
layer {
  name: "relu_conv1"
  type: "ReLU"
  bottom: "conv1"
  top: "conv1"
}
layer {
  name: "pool1"
  type: "Pooling"
  bottom: "conv1"
  top: "pool1"
  pooling_param {
    pool: MAX
    kernel_size: 3
    stride: 2
  }
}
layer {
  name: "fire2/squeeze1x1"
  type: "Convolution"
  bottom: "pool1"
  top: "fire2/squeeze1x1"
  convolution_param {
    num_output: 16
    kernel_size: 1
    weight_filler {
      type: "xavier"
    }
  }
}
layer {
  name: "fire2/relu_squeeze1x1"
  type: "ReLU"
  bottom: "fire2/squeeze1x1"
  top: "fire2/squeeze1x1"
}
layer {
  name: "fire2/expand1x1"
  type: "Convolution"
  bottom: "fire2/squeeze1x1"
  top: "fire2/expand1x1"
  convolution_param {
    num_output: 64
    kernel_size: 1
    weight_filler {
      type: "xavier"
    }
  }
}
layer {
  name: "fire2/relu_expand1x1"
  type: "ReLU"
  bottom: "fire2/expand1x1"
  top: "fire2/expand1x1"
}
layer {
  name: "fire2/expand3x3"
  type: "Convolution"
  bottom: "fire2/squeeze1x1"
  top: "fire2/expand3x3"
  convolution_param {
    num_output: 64
    pad: 1
    kernel_size: 3
    weight_filler {
      type: "xavier"
    }
  }
}
layer {
  name: "fire2/relu_expand3x3"
  type: "ReLU"
  bottom: "fire2/expand3x3"
  top: "fire2/expand3x3"
}
layer {
  name: "fire2/concat"
  type: "Concat"
  bottom: "fire2/expand1x1"
  bottom: "fire2/expand3x3"
  top: "fire2/concat"
}
layer {
  name: "fire3/squeeze1x1"
  type: "Convolution"
  bottom: "fire2/concat"
  top: "fire3/squeeze1x1"
  convolution_param {
    num_output: 16
    kernel_size: 1
    weight_filler {
      type: "xavier"
    }
  }
}
layer {
  name: "fire3/relu_squeeze1x1"
  type: "ReLU"
  bottom: "fire3/squeeze1x1"
  top: "fire3/squeeze1x1"
}
layer {
  name: "fire3/expand1x1"
  type: "Convolution"
  bottom: "fire3/squeeze1x1"
  top: "fire3/expand1x1"
  convolution_param {
    num_output: 64
    kernel_size: 1
    weight_filler {
      type: "xavier"
    }
  }
}
layer {
  name: "fire3/relu_expand1x1"
  type: "ReLU"
  bottom: "fire3/expand1x1"
  top: "fire3/expand1x1"
}
layer {
  name: "fire3/expand3x3"
  type: "Convolution"
  bottom: "fire3/squeeze1x1"
  top: "fire3/expand3x3"
  convolution_param {
    num_output: 64
    pad: 1
    kernel_size: 3
    weight_filler {
      type: "xavier"
    }
  }
}
layer {
  name: "fire3/relu_expand3x3"
  type: "ReLU"
  bottom: "fire3/expand3x3"
  top: "fire3/expand3x3"
}
layer {
  name: "fire3/concat"
  type: "Concat"
  bottom: "fire3/expand1x1"
  bottom: "fire3/expand3x3"
  top: "fire3/concat"
}
layer {
  name: "pool3"
  type: "Pooling"
  bottom: "fire3/concat"
  top: "pool3"
  pooling_param {
    pool: MAX
    kernel_size: 3
    stride: 2
  }
}
layer {
  name: "fire4/squeeze1x1"
  type: "Convolution"
  bottom: "pool3"
  top: "fire4/squeeze1x1"
  convolution_param {
    num_output: 32
    kernel_size: 1
    weight_filler {
      type: "xavier"
    }
  }
}
layer {
  name: "fire4/relu_squeeze1x1"
  type: "ReLU"
  bottom: "fire4/squeeze1x1"
  top: "fire4/squeeze1x1"
}
layer {
  name: "fire4/expand1x1"
  type: "Convolution"
  bottom: "fire4/squeeze1x1"
  top: "fire4/expand1x1"
  convolution_param {
    num_output: 128
    kernel_size: 1
    weight_filler {
      type: "xavier"
    }
  }
}
layer {
  name: "fire4/relu_expand1x1"
  type: "ReLU"
  bottom: "fire4/expand1x1"
  top: "fire4/expand1x1"
}
layer {
  name: "fire4/expand3x3"
  type: "Convolution"
  bottom: "fire4/squeeze1x1"
  top: "fire4/expand3x3"
  convolution_param {
    num_output: 128
    pad: 1
    kernel_size: 3
    weight_filler {
      type: "xavier"
    }
  }
}
layer {
  name: "fire4/relu_expand3x3"
  type: "ReLU"
  bottom: "fire4/expand3x3"
  top: "fire4/expand3x3"
}
layer {
  name: "fire4/concat"
  type: "Concat"
  bottom: "fire4/expand1x1"
  bottom: "fire4/expand3x3"
  top: "fire4/concat"
}
layer {
  name: "fire5/squeeze1x1"
  type: "Convolution"
  bottom: "fire4/concat"
  top: "fire5/squeeze1x1"
  convolution_param {
    num_output: 32
    kernel_size: 1
    weight_filler {
      type: "xavier"
    }
  }
}
layer {
  name: "fire5/relu_squeeze1x1"
  type: "ReLU"
  bottom: "fire5/squeeze1x1"
  top: "fire5/squeeze1x1"
}
layer {
  name: "fire5/expand1x1"
  type: "Convolution"
  bottom: "fire5/squeeze1x1"
  top: "fire5/expand1x1"
  convolution_param {
    num_output: 128
    kernel_size: 1
    weight_filler {
      type: "xavier"
    }
  }
}
layer {
  name: "fire5/relu_expand1x1"
  type: "ReLU"
  bottom: "fire5/expand1x1"
  top: "fire5/expand1x1"
}
layer {
  name: "fire5/expand3x3"
  type: "Convolution"
  bottom: "fire5/squeeze1x1"
  top: "fire5/expand3x3"
  convolution_param {
    num_output: 128
    pad: 1
    kernel_size: 3
    weight_filler {
      type: "xavier"
    }
  }
}
layer {
  name: "fire5/relu_expand3x3"
  type: "ReLU"
  bottom: "fire5/expand3x3"
  top: "fire5/expand3x3"
}
layer {
  name: "fire5/concat"
  type: "Concat"
  bottom: "fire5/expand1x1"
  bottom: "fire5/expand3x3"
  top: "fire5/concat"
}
layer {
  name: "pool5"
  type: "Pooling"
  bottom: "fire5/concat"
  top: "pool5"
  pooling_param {
    pool: MAX
    kernel_size: 3
    stride: 2
  }
}
layer {
  name: "fire6/squeeze1x1"
  type: "Convolution"
  bottom: "pool5"
  top: "fire6/squeeze1x1"
  convolution_param {
    num_output: 48
    kernel_size: 1
    weight_filler {
      type: "xavier"
    }
  }
}
layer {
  name: "fire6/relu_squeeze1x1"
  type: "ReLU"
  bottom: "fire6/squeeze1x1"
  top: "fire6/squeeze1x1"
}
layer {
  name: "fire6/expand1x1"
  type: "Convolution"
  bottom: "fire6/squeeze1x1"
  top: "fire6/expand1x1"
  convolution_param {
    num_output: 192
    kernel_size: 1
    weight_filler {
      type: "xavier"
    }
  }
}
layer {
  name: "fire6/relu_expand1x1"
  type: "ReLU"
  bottom: "fire6/expand1x1"
  top: "fire6/expand1x1"
}
layer {
  name: "fire6/expand3x3"
  type: "Convolution"
  bottom: "fire6/squeeze1x1"
  top: "fire6/expand3x3"
  convolution_param {
    num_output: 192
    pad: 1
    kernel_size: 3
    weight_filler {
      type: "xavier"
    }
  }
}
layer {
  name: "fire6/relu_expand3x3"
  type: "ReLU"
  bottom: "fire6/expand3x3"
  top: "fire6/expand3x3"
}
layer {
  name: "fire6/concat"
  type: "Concat"
  bottom: "fire6/expand1x1"
  bottom: "fire6/expand3x3"
  top: "fire6/concat"
}
layer {
  name: "fire7/squeeze1x1"
  type: "Convolution"
  bottom: "fire6/concat"
  top: "fire7/squeeze1x1"
  convolution_param {
    num_output: 48
    kernel_size: 1
    weight_filler {
      type: "xavier"
    }
  }
}
layer {
  name: "fire7/relu_squeeze1x1"
  type: "ReLU"
  bottom: "fire7/squeeze1x1"
  top: "fire7/squeeze1x1"
}
layer {
  name: "fire7/expand1x1"
  type: "Convolution"
  bottom: "fire7/squeeze1x1"
  top: "fire7/expand1x1"
  convolution_param {
    num_output: 192
    kernel_size: 1
    weight_filler {
      type: "xavier"
    }
  }
}
layer {
  name: "fire7/relu_expand1x1"
  type: "ReLU"
  bottom: "fire7/expand1x1"
  top: "fire7/expand1x1"
}
layer {
  name: "fire7/expand3x3"
  type: "Convolution"
  bottom: "fire7/squeeze1x1"
  top: "fire7/expand3x3"
  convolution_param {
    num_output: 192
    pad: 1
    kernel_size: 3
    weight_filler {
      type: "xavier"
    }
  }
}
layer {
  name: "fire7/relu_expand3x3"
  type: "ReLU"
  bottom: "fire7/expand3x3"
  top: "fire7/expand3x3"
}
layer {
  name: "fire7/concat"
  type: "Concat"
  bottom: "fire7/expand1x1"
  bottom: "fire7/expand3x3"
  top: "fire7/concat"
}
layer {
  name: "fire8/squeeze1x1"
  type: "Convolution"
  bottom: "fire7/concat"
  top: "fire8/squeeze1x1"
  convolution_param {
    num_output: 64
    kernel_size: 1
    weight_filler {
      type: "xavier"
    }
  }
}
layer {
  name: "fire8/relu_squeeze1x1"
  type: "ReLU"
  bottom: "fire8/squeeze1x1"
  top: "fire8/squeeze1x1"
}
layer {
  name: "fire8/expand1x1"
  type: "Convolution"
  bottom: "fire8/squeeze1x1"
  top: "fire8/expand1x1"
  convolution_param {
    num_output: 256
    kernel_size: 1
    weight_filler {
      type: "xavier"
    }
  }
}
layer {
  name: "fire8/relu_expand1x1"
  type: "ReLU"
  bottom: "fire8/expand1x1"
  top: "fire8/expand1x1"
}
layer {
  name: "fire8/expand3x3"
  type: "Convolution"
  bottom: "fire8/squeeze1x1"
  top: "fire8/expand3x3"
  convolution_param {
    num_output: 256
    pad: 1
    kernel_size: 3
    weight_filler {
      type: "xavier"
    }
  }
}
layer {
  name: "fire8/relu_expand3x3"
  type: "ReLU"
  bottom: "fire8/expand3x3"
  top: "fire8/expand3x3"
}
layer {
  name: "fire8/concat"
  type: "Concat"
  bottom: "fire8/expand1x1"
  bottom: "fire8/expand3x3"
  top: "fire8/concat"
}
layer {
  name: "fire9/squeeze1x1"
  type: "Convolution"
  bottom: "fire8/concat"
  top: "fire9/squeeze1x1"
  convolution_param {
    num_output: 64
    kernel_size: 1
    weight_filler {
      type: "xavier"
    }
  }
}
layer {
  name: "fire9/relu_squeeze1x1"
  type: "ReLU"
  bottom: "fire9/squeeze1x1"
  top: "fire9/squeeze1x1"
}
layer {
  name: "fire9/expand1x1"
  type: "Convolution"
  bottom: "fire9/squeeze1x1"
  top: "fire9/expand1x1"
  convolution_param {
    num_output: 256
    kernel_size: 1
    weight_filler {
      type: "xavier"
    }
  }
}
layer {
  name: "fire9/relu_expand1x1"
  type: "ReLU"
  bottom: "fire9/expand1x1"
  top: "fire9/expand1x1"
}
layer {
  name: "fire9/expand3x3"
  type: "Convolution"
  bottom: "fire9/squeeze1x1"
  top: "fire9/expand3x3"
  convolution_param {
    num_output: 256
    pad: 1
    kernel_size: 3
    weight_filler {
      type: "xavier"
    }
  }
}
layer {
  name: "fire9/relu_expand3x3"
  type: "ReLU"
  bottom: "fire9/expand3x3"
  top: "fire9/expand3x3"
}
layer {
  name: "fire9/concat"
  type: "Concat"
  bottom: "fire9/expand1x1"
  bottom: "fire9/expand3x3"
  top: "fire9/concat"
}
layer {
  name: "drop9"
  type: "Dropout"
  bottom: "fire9/concat"
  top: "fire9/concat"
  dropout_param {
    dropout_ratio: 0.5
  }
}
layer {
  name: "conv10_new"
  type: "Convolution"
  bottom: "fire9/concat"
  top: "conv10_new"
  convolution_param {
    num_output: 196
    kernel_size: 1
    weight_filler {
      type: "gaussian"
      mean: 0
      std: 0.01
    }
  }
}
layer {
  name: "relu_conv10"
  type: "ReLU"
  bottom: "conv10_new"
  top: "conv10_new"
}
layer {
  name: "pool10"
  type: "Pooling"
  bottom: "conv10_new"
  top: "pool10"
  pooling_param {
    pool: AVE
    global_pooling: true
  }
}
layer {
  name: "loss"
  type: "SoftmaxWithLoss"
  bottom: "pool10"
  bottom: "label"
  top: "loss"
}
layer {
  name: "accuracy"
  type: "Accuracy"
  bottom: "pool10"
  bottom: "label"
  top: "accuracy"
  include {
    phase: TEST
  }
}
layer {
  name: "accuracy_top5"
  type: "Accuracy"
  bottom: "pool10"
  bottom: "label"
  top: "accuracy_top5"
  include {
    phase: TEST
  }
  accuracy_param {
    top_k: 5
  }
}
I0424 23:38:32.326316 31330 layer_factory.hpp:77] Creating layer data
I0424 23:38:32.326380 31330 net.cpp:84] Creating Layer data
I0424 23:38:32.326395 31330 net.cpp:380] data -> data
I0424 23:38:32.326441 31330 net.cpp:380] data -> label
I0424 23:38:32.326483 31330 image_data_layer.cpp:38] Opening file ./val2.txt
I0424 23:38:32.332722 31330 image_data_layer.cpp:53] Shuffling data
I0424 23:38:32.334404 31330 image_data_layer.cpp:63] A total of 4101 images.
I0424 23:38:32.336263 31330 image_data_layer.cpp:90] output data size: 40,3,300,300
I0424 23:38:32.517860 31330 net.cpp:122] Setting up data
I0424 23:38:32.517956 31330 net.cpp:129] Top shape: 40 3 300 300 (10800000)
I0424 23:38:32.517971 31330 net.cpp:129] Top shape: 40 (40)
I0424 23:38:32.517978 31330 net.cpp:137] Memory required for data: 43200160
I0424 23:38:32.517990 31330 layer_factory.hpp:77] Creating layer label_data_1_split
I0424 23:38:32.518015 31330 net.cpp:84] Creating Layer label_data_1_split
I0424 23:38:32.518025 31330 net.cpp:406] label_data_1_split <- label
I0424 23:38:32.518040 31330 net.cpp:380] label_data_1_split -> label_data_1_split_0
I0424 23:38:32.518064 31330 net.cpp:380] label_data_1_split -> label_data_1_split_1
I0424 23:38:32.518077 31330 net.cpp:380] label_data_1_split -> label_data_1_split_2
I0424 23:38:32.518204 31330 net.cpp:122] Setting up label_data_1_split
I0424 23:38:32.518216 31330 net.cpp:129] Top shape: 40 (40)
I0424 23:38:32.518227 31330 net.cpp:129] Top shape: 40 (40)
I0424 23:38:32.518234 31330 net.cpp:129] Top shape: 40 (40)
I0424 23:38:32.518240 31330 net.cpp:137] Memory required for data: 43200640
I0424 23:38:32.518249 31330 layer_factory.hpp:77] Creating layer conv1
I0424 23:38:32.518265 31330 net.cpp:84] Creating Layer conv1
I0424 23:38:32.518275 31330 net.cpp:406] conv1 <- data
I0424 23:38:32.518286 31330 net.cpp:380] conv1 -> conv1
I0424 23:38:32.525204 31330 net.cpp:122] Setting up conv1
I0424 23:38:32.525457 31330 net.cpp:129] Top shape: 40 64 149 149 (56834560)
I0424 23:38:32.525475 31330 net.cpp:137] Memory required for data: 270538880
I0424 23:38:32.525552 31330 layer_factory.hpp:77] Creating layer relu_conv1
I0424 23:38:32.525612 31330 net.cpp:84] Creating Layer relu_conv1
I0424 23:38:32.525632 31330 net.cpp:406] relu_conv1 <- conv1
I0424 23:38:32.525658 31330 net.cpp:367] relu_conv1 -> conv1 (in-place)
I0424 23:38:32.526819 31330 net.cpp:122] Setting up relu_conv1
I0424 23:38:32.526885 31330 net.cpp:129] Top shape: 40 64 149 149 (56834560)
I0424 23:38:32.526901 31330 net.cpp:137] Memory required for data: 497877120
I0424 23:38:32.526914 31330 layer_factory.hpp:77] Creating layer pool1
I0424 23:38:32.526962 31330 net.cpp:84] Creating Layer pool1
I0424 23:38:32.526973 31330 net.cpp:406] pool1 <- conv1
I0424 23:38:32.526993 31330 net.cpp:380] pool1 -> pool1
I0424 23:38:32.527209 31330 net.cpp:122] Setting up pool1
I0424 23:38:32.527232 31330 net.cpp:129] Top shape: 40 64 74 74 (14018560)
I0424 23:38:32.527241 31330 net.cpp:137] Memory required for data: 553951360
I0424 23:38:32.527391 31330 layer_factory.hpp:77] Creating layer fire2/squeeze1x1
I0424 23:38:32.527437 31330 net.cpp:84] Creating Layer fire2/squeeze1x1
I0424 23:38:32.527451 31330 net.cpp:406] fire2/squeeze1x1 <- pool1
I0424 23:38:32.527534 31330 net.cpp:380] fire2/squeeze1x1 -> fire2/squeeze1x1
I0424 23:38:32.534104 31330 net.cpp:122] Setting up fire2/squeeze1x1
I0424 23:38:32.534263 31330 net.cpp:129] Top shape: 40 16 74 74 (3504640)
I0424 23:38:32.534278 31330 net.cpp:137] Memory required for data: 567969920
I0424 23:38:32.534340 31330 layer_factory.hpp:77] Creating layer fire2/relu_squeeze1x1
I0424 23:38:32.534382 31330 net.cpp:84] Creating Layer fire2/relu_squeeze1x1
I0424 23:38:32.534399 31330 net.cpp:406] fire2/relu_squeeze1x1 <- fire2/squeeze1x1
I0424 23:38:32.534425 31330 net.cpp:367] fire2/relu_squeeze1x1 -> fire2/squeeze1x1 (in-place)
I0424 23:38:32.547415 31330 net.cpp:122] Setting up fire2/relu_squeeze1x1
I0424 23:38:32.547505 31330 net.cpp:129] Top shape: 40 16 74 74 (3504640)
I0424 23:38:32.547511 31330 net.cpp:137] Memory required for data: 581988480
I0424 23:38:32.547523 31330 layer_factory.hpp:77] Creating layer fire2/squeeze1x1_fire2/relu_squeeze1x1_0_split
I0424 23:38:32.547546 31330 net.cpp:84] Creating Layer fire2/squeeze1x1_fire2/relu_squeeze1x1_0_split
I0424 23:38:32.547554 31330 net.cpp:406] fire2/squeeze1x1_fire2/relu_squeeze1x1_0_split <- fire2/squeeze1x1
I0424 23:38:32.547569 31330 net.cpp:380] fire2/squeeze1x1_fire2/relu_squeeze1x1_0_split -> fire2/squeeze1x1_fire2/relu_squeeze1x1_0_split_0
I0424 23:38:32.547591 31330 net.cpp:380] fire2/squeeze1x1_fire2/relu_squeeze1x1_0_split -> fire2/squeeze1x1_fire2/relu_squeeze1x1_0_split_1
I0424 23:38:32.547706 31330 net.cpp:122] Setting up fire2/squeeze1x1_fire2/relu_squeeze1x1_0_split
I0424 23:38:32.547715 31330 net.cpp:129] Top shape: 40 16 74 74 (3504640)
I0424 23:38:32.547720 31330 net.cpp:129] Top shape: 40 16 74 74 (3504640)
I0424 23:38:32.547724 31330 net.cpp:137] Memory required for data: 610025600
I0424 23:38:32.547729 31330 layer_factory.hpp:77] Creating layer fire2/expand1x1
I0424 23:38:32.547751 31330 net.cpp:84] Creating Layer fire2/expand1x1
I0424 23:38:32.547755 31330 net.cpp:406] fire2/expand1x1 <- fire2/squeeze1x1_fire2/relu_squeeze1x1_0_split_0
I0424 23:38:32.547761 31330 net.cpp:380] fire2/expand1x1 -> fire2/expand1x1
I0424 23:38:32.552131 31330 net.cpp:122] Setting up fire2/expand1x1
I0424 23:38:32.552222 31330 net.cpp:129] Top shape: 40 64 74 74 (14018560)
I0424 23:38:32.552227 31330 net.cpp:137] Memory required for data: 666099840
I0424 23:38:32.552260 31330 layer_factory.hpp:77] Creating layer fire2/relu_expand1x1
I0424 23:38:32.552287 31330 net.cpp:84] Creating Layer fire2/relu_expand1x1
I0424 23:38:32.552296 31330 net.cpp:406] fire2/relu_expand1x1 <- fire2/expand1x1
I0424 23:38:32.552310 31330 net.cpp:367] fire2/relu_expand1x1 -> fire2/expand1x1 (in-place)
I0424 23:38:32.552529 31330 net.cpp:122] Setting up fire2/relu_expand1x1
I0424 23:38:32.552541 31330 net.cpp:129] Top shape: 40 64 74 74 (14018560)
I0424 23:38:32.552546 31330 net.cpp:137] Memory required for data: 722174080
I0424 23:38:32.552551 31330 layer_factory.hpp:77] Creating layer fire2/expand3x3
I0424 23:38:32.552567 31330 net.cpp:84] Creating Layer fire2/expand3x3
I0424 23:38:32.552574 31330 net.cpp:406] fire2/expand3x3 <- fire2/squeeze1x1_fire2/relu_squeeze1x1_0_split_1
I0424 23:38:32.552584 31330 net.cpp:380] fire2/expand3x3 -> fire2/expand3x3
I0424 23:38:32.555181 31330 net.cpp:122] Setting up fire2/expand3x3
I0424 23:38:32.555325 31330 net.cpp:129] Top shape: 40 64 74 74 (14018560)
I0424 23:38:32.555335 31330 net.cpp:137] Memory required for data: 778248320
I0424 23:38:32.555368 31330 layer_factory.hpp:77] Creating layer fire2/relu_expand3x3
I0424 23:38:32.555398 31330 net.cpp:84] Creating Layer fire2/relu_expand3x3
I0424 23:38:32.555408 31330 net.cpp:406] fire2/relu_expand3x3 <- fire2/expand3x3
I0424 23:38:32.555428 31330 net.cpp:367] fire2/relu_expand3x3 -> fire2/expand3x3 (in-place)
I0424 23:38:32.556479 31330 net.cpp:122] Setting up fire2/relu_expand3x3
I0424 23:38:32.556602 31330 net.cpp:129] Top shape: 40 64 74 74 (14018560)
I0424 23:38:32.556613 31330 net.cpp:137] Memory required for data: 834322560
I0424 23:38:32.556618 31330 layer_factory.hpp:77] Creating layer fire2/concat
I0424 23:38:32.556670 31330 net.cpp:84] Creating Layer fire2/concat
I0424 23:38:32.556675 31330 net.cpp:406] fire2/concat <- fire2/expand1x1
I0424 23:38:32.556682 31330 net.cpp:406] fire2/concat <- fire2/expand3x3
I0424 23:38:32.556691 31330 net.cpp:380] fire2/concat -> fire2/concat
I0424 23:38:32.556742 31330 net.cpp:122] Setting up fire2/concat
I0424 23:38:32.556752 31330 net.cpp:129] Top shape: 40 128 74 74 (28037120)
I0424 23:38:32.556756 31330 net.cpp:137] Memory required for data: 946471040
I0424 23:38:32.556761 31330 layer_factory.hpp:77] Creating layer fire3/squeeze1x1
I0424 23:38:32.556776 31330 net.cpp:84] Creating Layer fire3/squeeze1x1
I0424 23:38:32.556779 31330 net.cpp:406] fire3/squeeze1x1 <- fire2/concat
I0424 23:38:32.556787 31330 net.cpp:380] fire3/squeeze1x1 -> fire3/squeeze1x1
I0424 23:38:32.560070 31330 net.cpp:122] Setting up fire3/squeeze1x1
I0424 23:38:32.560155 31330 net.cpp:129] Top shape: 40 16 74 74 (3504640)
I0424 23:38:32.560163 31330 net.cpp:137] Memory required for data: 960489600
I0424 23:38:32.560201 31330 layer_factory.hpp:77] Creating layer fire3/relu_squeeze1x1
I0424 23:38:32.560225 31330 net.cpp:84] Creating Layer fire3/relu_squeeze1x1
I0424 23:38:32.560232 31330 net.cpp:406] fire3/relu_squeeze1x1 <- fire3/squeeze1x1
I0424 23:38:32.560241 31330 net.cpp:367] fire3/relu_squeeze1x1 -> fire3/squeeze1x1 (in-place)
I0424 23:38:32.560480 31330 net.cpp:122] Setting up fire3/relu_squeeze1x1
I0424 23:38:32.560495 31330 net.cpp:129] Top shape: 40 16 74 74 (3504640)
I0424 23:38:32.560500 31330 net.cpp:137] Memory required for data: 974508160
I0424 23:38:32.560505 31330 layer_factory.hpp:77] Creating layer fire3/squeeze1x1_fire3/relu_squeeze1x1_0_split
I0424 23:38:32.560521 31330 net.cpp:84] Creating Layer fire3/squeeze1x1_fire3/relu_squeeze1x1_0_split
I0424 23:38:32.560526 31330 net.cpp:406] fire3/squeeze1x1_fire3/relu_squeeze1x1_0_split <- fire3/squeeze1x1
I0424 23:38:32.560537 31330 net.cpp:380] fire3/squeeze1x1_fire3/relu_squeeze1x1_0_split -> fire3/squeeze1x1_fire3/relu_squeeze1x1_0_split_0
I0424 23:38:32.560549 31330 net.cpp:380] fire3/squeeze1x1_fire3/relu_squeeze1x1_0_split -> fire3/squeeze1x1_fire3/relu_squeeze1x1_0_split_1
I0424 23:38:32.560601 31330 net.cpp:122] Setting up fire3/squeeze1x1_fire3/relu_squeeze1x1_0_split
I0424 23:38:32.560609 31330 net.cpp:129] Top shape: 40 16 74 74 (3504640)
I0424 23:38:32.560616 31330 net.cpp:129] Top shape: 40 16 74 74 (3504640)
I0424 23:38:32.560621 31330 net.cpp:137] Memory required for data: 1002545280
I0424 23:38:32.560626 31330 layer_factory.hpp:77] Creating layer fire3/expand1x1
I0424 23:38:32.560659 31330 net.cpp:84] Creating Layer fire3/expand1x1
I0424 23:38:32.560667 31330 net.cpp:406] fire3/expand1x1 <- fire3/squeeze1x1_fire3/relu_squeeze1x1_0_split_0
I0424 23:38:32.560674 31330 net.cpp:380] fire3/expand1x1 -> fire3/expand1x1
I0424 23:38:32.566992 31330 net.cpp:122] Setting up fire3/expand1x1
I0424 23:38:32.567171 31330 net.cpp:129] Top shape: 40 64 74 74 (14018560)
I0424 23:38:32.567183 31330 net.cpp:137] Memory required for data: 1058619520
I0424 23:38:32.567227 31330 layer_factory.hpp:77] Creating layer fire3/relu_expand1x1
I0424 23:38:32.567266 31330 net.cpp:84] Creating Layer fire3/relu_expand1x1
I0424 23:38:32.567281 31330 net.cpp:406] fire3/relu_expand1x1 <- fire3/expand1x1
I0424 23:38:32.567307 31330 net.cpp:367] fire3/relu_expand1x1 -> fire3/expand1x1 (in-place)
I0424 23:38:32.573822 31330 net.cpp:122] Setting up fire3/relu_expand1x1
I0424 23:38:32.573957 31330 net.cpp:129] Top shape: 40 64 74 74 (14018560)
I0424 23:38:32.573967 31330 net.cpp:137] Memory required for data: 1114693760
I0424 23:38:32.573989 31330 layer_factory.hpp:77] Creating layer fire3/expand3x3
I0424 23:38:32.574040 31330 net.cpp:84] Creating Layer fire3/expand3x3
I0424 23:38:32.574051 31330 net.cpp:406] fire3/expand3x3 <- fire3/squeeze1x1_fire3/relu_squeeze1x1_0_split_1
I0424 23:38:32.574141 31330 net.cpp:380] fire3/expand3x3 -> fire3/expand3x3
I0424 23:38:32.581238 31330 net.cpp:122] Setting up fire3/expand3x3
I0424 23:38:32.581439 31330 net.cpp:129] Top shape: 40 64 74 74 (14018560)
I0424 23:38:32.581446 31330 net.cpp:137] Memory required for data: 1170768000
I0424 23:38:32.581481 31330 layer_factory.hpp:77] Creating layer fire3/relu_expand3x3
I0424 23:38:32.581523 31330 net.cpp:84] Creating Layer fire3/relu_expand3x3
I0424 23:38:32.581537 31330 net.cpp:406] fire3/relu_expand3x3 <- fire3/expand3x3
I0424 23:38:32.581569 31330 net.cpp:367] fire3/relu_expand3x3 -> fire3/expand3x3 (in-place)
I0424 23:38:32.581936 31330 net.cpp:122] Setting up fire3/relu_expand3x3
I0424 23:38:32.581955 31330 net.cpp:129] Top shape: 40 64 74 74 (14018560)
I0424 23:38:32.581960 31330 net.cpp:137] Memory required for data: 1226842240
I0424 23:38:32.581967 31330 layer_factory.hpp:77] Creating layer fire3/concat
I0424 23:38:32.581981 31330 net.cpp:84] Creating Layer fire3/concat
I0424 23:38:32.581989 31330 net.cpp:406] fire3/concat <- fire3/expand1x1
I0424 23:38:32.582002 31330 net.cpp:406] fire3/concat <- fire3/expand3x3
I0424 23:38:32.582012 31330 net.cpp:380] fire3/concat -> fire3/concat
I0424 23:38:32.582078 31330 net.cpp:122] Setting up fire3/concat
I0424 23:38:32.582092 31330 net.cpp:129] Top shape: 40 128 74 74 (28037120)
I0424 23:38:32.582098 31330 net.cpp:137] Memory required for data: 1338990720
I0424 23:38:32.582103 31330 layer_factory.hpp:77] Creating layer pool3
I0424 23:38:32.582126 31330 net.cpp:84] Creating Layer pool3
I0424 23:38:32.582134 31330 net.cpp:406] pool3 <- fire3/concat
I0424 23:38:32.582147 31330 net.cpp:380] pool3 -> pool3
I0424 23:38:32.582231 31330 net.cpp:122] Setting up pool3
I0424 23:38:32.582242 31330 net.cpp:129] Top shape: 40 128 37 37 (7009280)
I0424 23:38:32.582247 31330 net.cpp:137] Memory required for data: 1367027840
I0424 23:38:32.582253 31330 layer_factory.hpp:77] Creating layer fire4/squeeze1x1
I0424 23:38:32.582283 31330 net.cpp:84] Creating Layer fire4/squeeze1x1
I0424 23:38:32.582289 31330 net.cpp:406] fire4/squeeze1x1 <- pool3
I0424 23:38:32.582300 31330 net.cpp:380] fire4/squeeze1x1 -> fire4/squeeze1x1
I0424 23:38:32.597307 31330 net.cpp:122] Setting up fire4/squeeze1x1
I0424 23:38:32.597443 31330 net.cpp:129] Top shape: 40 32 37 37 (1752320)
I0424 23:38:32.597455 31330 net.cpp:137] Memory required for data: 1374037120
I0424 23:38:32.597479 31330 layer_factory.hpp:77] Creating layer fire4/relu_squeeze1x1
I0424 23:38:32.597502 31330 net.cpp:84] Creating Layer fire4/relu_squeeze1x1
I0424 23:38:32.597515 31330 net.cpp:406] fire4/relu_squeeze1x1 <- fire4/squeeze1x1
I0424 23:38:32.597539 31330 net.cpp:367] fire4/relu_squeeze1x1 -> fire4/squeeze1x1 (in-place)
I0424 23:38:32.597856 31330 net.cpp:122] Setting up fire4/relu_squeeze1x1
I0424 23:38:32.597877 31330 net.cpp:129] Top shape: 40 32 37 37 (1752320)
I0424 23:38:32.597884 31330 net.cpp:137] Memory required for data: 1381046400
I0424 23:38:32.597892 31330 layer_factory.hpp:77] Creating layer fire4/squeeze1x1_fire4/relu_squeeze1x1_0_split
I0424 23:38:32.597910 31330 net.cpp:84] Creating Layer fire4/squeeze1x1_fire4/relu_squeeze1x1_0_split
I0424 23:38:32.597919 31330 net.cpp:406] fire4/squeeze1x1_fire4/relu_squeeze1x1_0_split <- fire4/squeeze1x1
I0424 23:38:32.597931 31330 net.cpp:380] fire4/squeeze1x1_fire4/relu_squeeze1x1_0_split -> fire4/squeeze1x1_fire4/relu_squeeze1x1_0_split_0
I0424 23:38:32.597949 31330 net.cpp:380] fire4/squeeze1x1_fire4/relu_squeeze1x1_0_split -> fire4/squeeze1x1_fire4/relu_squeeze1x1_0_split_1
I0424 23:38:32.598018 31330 net.cpp:122] Setting up fire4/squeeze1x1_fire4/relu_squeeze1x1_0_split
I0424 23:38:32.598031 31330 net.cpp:129] Top shape: 40 32 37 37 (1752320)
I0424 23:38:32.598042 31330 net.cpp:129] Top shape: 40 32 37 37 (1752320)
I0424 23:38:32.598048 31330 net.cpp:137] Memory required for data: 1395064960
I0424 23:38:32.598057 31330 layer_factory.hpp:77] Creating layer fire4/expand1x1
I0424 23:38:32.598088 31330 net.cpp:84] Creating Layer fire4/expand1x1
I0424 23:38:32.598179 31330 net.cpp:406] fire4/expand1x1 <- fire4/squeeze1x1_fire4/relu_squeeze1x1_0_split_0
I0424 23:38:32.598198 31330 net.cpp:380] fire4/expand1x1 -> fire4/expand1x1
I0424 23:38:32.609908 31330 net.cpp:122] Setting up fire4/expand1x1
I0424 23:38:32.610007 31330 net.cpp:129] Top shape: 40 128 37 37 (7009280)
I0424 23:38:32.610015 31330 net.cpp:137] Memory required for data: 1423102080
I0424 23:38:32.610057 31330 layer_factory.hpp:77] Creating layer fire4/relu_expand1x1
I0424 23:38:32.610100 31330 net.cpp:84] Creating Layer fire4/relu_expand1x1
I0424 23:38:32.610116 31330 net.cpp:406] fire4/relu_expand1x1 <- fire4/expand1x1
I0424 23:38:32.610144 31330 net.cpp:367] fire4/relu_expand1x1 -> fire4/expand1x1 (in-place)
I0424 23:38:32.610529 31330 net.cpp:122] Setting up fire4/relu_expand1x1
I0424 23:38:32.610550 31330 net.cpp:129] Top shape: 40 128 37 37 (7009280)
I0424 23:38:32.610558 31330 net.cpp:137] Memory required for data: 1451139200
I0424 23:38:32.610566 31330 layer_factory.hpp:77] Creating layer fire4/expand3x3
I0424 23:38:32.610586 31330 net.cpp:84] Creating Layer fire4/expand3x3
I0424 23:38:32.610595 31330 net.cpp:406] fire4/expand3x3 <- fire4/squeeze1x1_fire4/relu_squeeze1x1_0_split_1
I0424 23:38:32.610610 31330 net.cpp:380] fire4/expand3x3 -> fire4/expand3x3
I0424 23:38:32.613040 31330 net.cpp:122] Setting up fire4/expand3x3
I0424 23:38:32.613065 31330 net.cpp:129] Top shape: 40 128 37 37 (7009280)
I0424 23:38:32.613072 31330 net.cpp:137] Memory required for data: 1479176320
I0424 23:38:32.613085 31330 layer_factory.hpp:77] Creating layer fire4/relu_expand3x3
I0424 23:38:32.613095 31330 net.cpp:84] Creating Layer fire4/relu_expand3x3
I0424 23:38:32.613101 31330 net.cpp:406] fire4/relu_expand3x3 <- fire4/expand3x3
I0424 23:38:32.613113 31330 net.cpp:367] fire4/relu_expand3x3 -> fire4/expand3x3 (in-place)
I0424 23:38:32.613335 31330 net.cpp:122] Setting up fire4/relu_expand3x3
I0424 23:38:32.613349 31330 net.cpp:129] Top shape: 40 128 37 37 (7009280)
I0424 23:38:32.613355 31330 net.cpp:137] Memory required for data: 1507213440
I0424 23:38:32.613363 31330 layer_factory.hpp:77] Creating layer fire4/concat
I0424 23:38:32.613371 31330 net.cpp:84] Creating Layer fire4/concat
I0424 23:38:32.613378 31330 net.cpp:406] fire4/concat <- fire4/expand1x1
I0424 23:38:32.613385 31330 net.cpp:406] fire4/concat <- fire4/expand3x3
I0424 23:38:32.613397 31330 net.cpp:380] fire4/concat -> fire4/concat
I0424 23:38:32.613435 31330 net.cpp:122] Setting up fire4/concat
I0424 23:38:32.613445 31330 net.cpp:129] Top shape: 40 256 37 37 (14018560)
I0424 23:38:32.613451 31330 net.cpp:137] Memory required for data: 1563287680
I0424 23:38:32.613457 31330 layer_factory.hpp:77] Creating layer fire5/squeeze1x1
I0424 23:38:32.613471 31330 net.cpp:84] Creating Layer fire5/squeeze1x1
I0424 23:38:32.613479 31330 net.cpp:406] fire5/squeeze1x1 <- fire4/concat
I0424 23:38:32.613489 31330 net.cpp:380] fire5/squeeze1x1 -> fire5/squeeze1x1
I0424 23:38:32.617988 31330 net.cpp:122] Setting up fire5/squeeze1x1
I0424 23:38:32.618021 31330 net.cpp:129] Top shape: 40 32 37 37 (1752320)
I0424 23:38:32.618028 31330 net.cpp:137] Memory required for data: 1570296960
I0424 23:38:32.618042 31330 layer_factory.hpp:77] Creating layer fire5/relu_squeeze1x1
I0424 23:38:32.618055 31330 net.cpp:84] Creating Layer fire5/relu_squeeze1x1
I0424 23:38:32.618063 31330 net.cpp:406] fire5/relu_squeeze1x1 <- fire5/squeeze1x1
I0424 23:38:32.618073 31330 net.cpp:367] fire5/relu_squeeze1x1 -> fire5/squeeze1x1 (in-place)
I0424 23:38:32.618306 31330 net.cpp:122] Setting up fire5/relu_squeeze1x1
I0424 23:38:32.618320 31330 net.cpp:129] Top shape: 40 32 37 37 (1752320)
I0424 23:38:32.618325 31330 net.cpp:137] Memory required for data: 1577306240
I0424 23:38:32.618331 31330 layer_factory.hpp:77] Creating layer fire5/squeeze1x1_fire5/relu_squeeze1x1_0_split
I0424 23:38:32.618355 31330 net.cpp:84] Creating Layer fire5/squeeze1x1_fire5/relu_squeeze1x1_0_split
I0424 23:38:32.618362 31330 net.cpp:406] fire5/squeeze1x1_fire5/relu_squeeze1x1_0_split <- fire5/squeeze1x1
I0424 23:38:32.618400 31330 net.cpp:380] fire5/squeeze1x1_fire5/relu_squeeze1x1_0_split -> fire5/squeeze1x1_fire5/relu_squeeze1x1_0_split_0
I0424 23:38:32.618413 31330 net.cpp:380] fire5/squeeze1x1_fire5/relu_squeeze1x1_0_split -> fire5/squeeze1x1_fire5/relu_squeeze1x1_0_split_1
I0424 23:38:32.618484 31330 net.cpp:122] Setting up fire5/squeeze1x1_fire5/relu_squeeze1x1_0_split
I0424 23:38:32.618496 31330 net.cpp:129] Top shape: 40 32 37 37 (1752320)
I0424 23:38:32.618505 31330 net.cpp:129] Top shape: 40 32 37 37 (1752320)
I0424 23:38:32.618510 31330 net.cpp:137] Memory required for data: 1591324800
I0424 23:38:32.618515 31330 layer_factory.hpp:77] Creating layer fire5/expand1x1
I0424 23:38:32.618531 31330 net.cpp:84] Creating Layer fire5/expand1x1
I0424 23:38:32.618540 31330 net.cpp:406] fire5/expand1x1 <- fire5/squeeze1x1_fire5/relu_squeeze1x1_0_split_0
I0424 23:38:32.618548 31330 net.cpp:380] fire5/expand1x1 -> fire5/expand1x1
I0424 23:38:32.621564 31330 net.cpp:122] Setting up fire5/expand1x1
I0424 23:38:32.621592 31330 net.cpp:129] Top shape: 40 128 37 37 (7009280)
I0424 23:38:32.621599 31330 net.cpp:137] Memory required for data: 1619361920
I0424 23:38:32.621611 31330 layer_factory.hpp:77] Creating layer fire5/relu_expand1x1
I0424 23:38:32.621624 31330 net.cpp:84] Creating Layer fire5/relu_expand1x1
I0424 23:38:32.621632 31330 net.cpp:406] fire5/relu_expand1x1 <- fire5/expand1x1
I0424 23:38:32.621644 31330 net.cpp:367] fire5/relu_expand1x1 -> fire5/expand1x1 (in-place)
I0424 23:38:32.622992 31330 net.cpp:122] Setting up fire5/relu_expand1x1
I0424 23:38:32.623025 31330 net.cpp:129] Top shape: 40 128 37 37 (7009280)
I0424 23:38:32.623033 31330 net.cpp:137] Memory required for data: 1647399040
I0424 23:38:32.623040 31330 layer_factory.hpp:77] Creating layer fire5/expand3x3
I0424 23:38:32.623070 31330 net.cpp:84] Creating Layer fire5/expand3x3
I0424 23:38:32.623080 31330 net.cpp:406] fire5/expand3x3 <- fire5/squeeze1x1_fire5/relu_squeeze1x1_0_split_1
I0424 23:38:32.623095 31330 net.cpp:380] fire5/expand3x3 -> fire5/expand3x3
I0424 23:38:32.629190 31330 net.cpp:122] Setting up fire5/expand3x3
I0424 23:38:32.629240 31330 net.cpp:129] Top shape: 40 128 37 37 (7009280)
I0424 23:38:32.629247 31330 net.cpp:137] Memory required for data: 1675436160
I0424 23:38:32.629266 31330 layer_factory.hpp:77] Creating layer fire5/relu_expand3x3
I0424 23:38:32.629287 31330 net.cpp:84] Creating Layer fire5/relu_expand3x3
I0424 23:38:32.629297 31330 net.cpp:406] fire5/relu_expand3x3 <- fire5/expand3x3
I0424 23:38:32.629313 31330 net.cpp:367] fire5/relu_expand3x3 -> fire5/expand3x3 (in-place)
I0424 23:38:32.629578 31330 net.cpp:122] Setting up fire5/relu_expand3x3
I0424 23:38:32.629596 31330 net.cpp:129] Top shape: 40 128 37 37 (7009280)
I0424 23:38:32.629604 31330 net.cpp:137] Memory required for data: 1703473280
I0424 23:38:32.629611 31330 layer_factory.hpp:77] Creating layer fire5/concat
I0424 23:38:32.629622 31330 net.cpp:84] Creating Layer fire5/concat
I0424 23:38:32.629628 31330 net.cpp:406] fire5/concat <- fire5/expand1x1
I0424 23:38:32.629637 31330 net.cpp:406] fire5/concat <- fire5/expand3x3
I0424 23:38:32.629649 31330 net.cpp:380] fire5/concat -> fire5/concat
I0424 23:38:32.629696 31330 net.cpp:122] Setting up fire5/concat
I0424 23:38:32.629710 31330 net.cpp:129] Top shape: 40 256 37 37 (14018560)
I0424 23:38:32.629719 31330 net.cpp:137] Memory required for data: 1759547520
I0424 23:38:32.629725 31330 layer_factory.hpp:77] Creating layer pool5
I0424 23:38:32.629739 31330 net.cpp:84] Creating Layer pool5
I0424 23:38:32.629746 31330 net.cpp:406] pool5 <- fire5/concat
I0424 23:38:32.629760 31330 net.cpp:380] pool5 -> pool5
I0424 23:38:32.629843 31330 net.cpp:122] Setting up pool5
I0424 23:38:32.629863 31330 net.cpp:129] Top shape: 40 256 18 18 (3317760)
I0424 23:38:32.629870 31330 net.cpp:137] Memory required for data: 1772818560
I0424 23:38:32.629878 31330 layer_factory.hpp:77] Creating layer fire6/squeeze1x1
I0424 23:38:32.629896 31330 net.cpp:84] Creating Layer fire6/squeeze1x1
I0424 23:38:32.629905 31330 net.cpp:406] fire6/squeeze1x1 <- pool5
I0424 23:38:32.629961 31330 net.cpp:380] fire6/squeeze1x1 -> fire6/squeeze1x1
I0424 23:38:32.636150 31330 net.cpp:122] Setting up fire6/squeeze1x1
I0424 23:38:32.636294 31330 net.cpp:129] Top shape: 40 48 18 18 (622080)
I0424 23:38:32.636386 31330 net.cpp:137] Memory required for data: 1775306880
I0424 23:38:32.636437 31330 layer_factory.hpp:77] Creating layer fire6/relu_squeeze1x1
I0424 23:38:32.636474 31330 net.cpp:84] Creating Layer fire6/relu_squeeze1x1
I0424 23:38:32.636494 31330 net.cpp:406] fire6/relu_squeeze1x1 <- fire6/squeeze1x1
I0424 23:38:32.636520 31330 net.cpp:367] fire6/relu_squeeze1x1 -> fire6/squeeze1x1 (in-place)
I0424 23:38:32.636909 31330 net.cpp:122] Setting up fire6/relu_squeeze1x1
I0424 23:38:32.636931 31330 net.cpp:129] Top shape: 40 48 18 18 (622080)
I0424 23:38:32.636941 31330 net.cpp:137] Memory required for data: 1777795200
I0424 23:38:32.636951 31330 layer_factory.hpp:77] Creating layer fire6/squeeze1x1_fire6/relu_squeeze1x1_0_split
I0424 23:38:32.636972 31330 net.cpp:84] Creating Layer fire6/squeeze1x1_fire6/relu_squeeze1x1_0_split
I0424 23:38:32.636982 31330 net.cpp:406] fire6/squeeze1x1_fire6/relu_squeeze1x1_0_split <- fire6/squeeze1x1
I0424 23:38:32.637006 31330 net.cpp:380] fire6/squeeze1x1_fire6/relu_squeeze1x1_0_split -> fire6/squeeze1x1_fire6/relu_squeeze1x1_0_split_0
I0424 23:38:32.637029 31330 net.cpp:380] fire6/squeeze1x1_fire6/relu_squeeze1x1_0_split -> fire6/squeeze1x1_fire6/relu_squeeze1x1_0_split_1
I0424 23:38:32.637246 31330 net.cpp:122] Setting up fire6/squeeze1x1_fire6/relu_squeeze1x1_0_split
I0424 23:38:32.637271 31330 net.cpp:129] Top shape: 40 48 18 18 (622080)
I0424 23:38:32.637284 31330 net.cpp:129] Top shape: 40 48 18 18 (622080)
I0424 23:38:32.637293 31330 net.cpp:137] Memory required for data: 1782771840
I0424 23:38:32.637303 31330 layer_factory.hpp:77] Creating layer fire6/expand1x1
I0424 23:38:32.637346 31330 net.cpp:84] Creating Layer fire6/expand1x1
I0424 23:38:32.637358 31330 net.cpp:406] fire6/expand1x1 <- fire6/squeeze1x1_fire6/relu_squeeze1x1_0_split_0
I0424 23:38:32.637378 31330 net.cpp:380] fire6/expand1x1 -> fire6/expand1x1
I0424 23:38:32.648883 31330 net.cpp:122] Setting up fire6/expand1x1
I0424 23:38:32.649081 31330 net.cpp:129] Top shape: 40 192 18 18 (2488320)
I0424 23:38:32.649091 31330 net.cpp:137] Memory required for data: 1792725120
I0424 23:38:32.649132 31330 layer_factory.hpp:77] Creating layer fire6/relu_expand1x1
I0424 23:38:32.649176 31330 net.cpp:84] Creating Layer fire6/relu_expand1x1
I0424 23:38:32.649193 31330 net.cpp:406] fire6/relu_expand1x1 <- fire6/expand1x1
I0424 23:38:32.649219 31330 net.cpp:367] fire6/relu_expand1x1 -> fire6/expand1x1 (in-place)
I0424 23:38:32.649538 31330 net.cpp:122] Setting up fire6/relu_expand1x1
I0424 23:38:32.649552 31330 net.cpp:129] Top shape: 40 192 18 18 (2488320)
I0424 23:38:32.649559 31330 net.cpp:137] Memory required for data: 1802678400
I0424 23:38:32.649564 31330 layer_factory.hpp:77] Creating layer fire6/expand3x3
I0424 23:38:32.649592 31330 net.cpp:84] Creating Layer fire6/expand3x3
I0424 23:38:32.649600 31330 net.cpp:406] fire6/expand3x3 <- fire6/squeeze1x1_fire6/relu_squeeze1x1_0_split_1
I0424 23:38:32.649611 31330 net.cpp:380] fire6/expand3x3 -> fire6/expand3x3
I0424 23:38:32.656534 31330 net.cpp:122] Setting up fire6/expand3x3
I0424 23:38:32.656741 31330 net.cpp:129] Top shape: 40 192 18 18 (2488320)
I0424 23:38:32.656759 31330 net.cpp:137] Memory required for data: 1812631680
I0424 23:38:32.656818 31330 layer_factory.hpp:77] Creating layer fire6/relu_expand3x3
I0424 23:38:32.656873 31330 net.cpp:84] Creating Layer fire6/relu_expand3x3
I0424 23:38:32.656898 31330 net.cpp:406] fire6/relu_expand3x3 <- fire6/expand3x3
I0424 23:38:32.656937 31330 net.cpp:367] fire6/relu_expand3x3 -> fire6/expand3x3 (in-place)
I0424 23:38:32.657647 31330 net.cpp:122] Setting up fire6/relu_expand3x3
I0424 23:38:32.657683 31330 net.cpp:129] Top shape: 40 192 18 18 (2488320)
I0424 23:38:32.657696 31330 net.cpp:137] Memory required for data: 1822584960
I0424 23:38:32.657707 31330 layer_factory.hpp:77] Creating layer fire6/concat
I0424 23:38:32.657858 31330 net.cpp:84] Creating Layer fire6/concat
I0424 23:38:32.657876 31330 net.cpp:406] fire6/concat <- fire6/expand1x1
I0424 23:38:32.657896 31330 net.cpp:406] fire6/concat <- fire6/expand3x3
I0424 23:38:32.657965 31330 net.cpp:380] fire6/concat -> fire6/concat
I0424 23:38:32.658071 31330 net.cpp:122] Setting up fire6/concat
I0424 23:38:32.658083 31330 net.cpp:129] Top shape: 40 384 18 18 (4976640)
I0424 23:38:32.658089 31330 net.cpp:137] Memory required for data: 1842491520
I0424 23:38:32.658095 31330 layer_factory.hpp:77] Creating layer fire7/squeeze1x1
I0424 23:38:32.658118 31330 net.cpp:84] Creating Layer fire7/squeeze1x1
I0424 23:38:32.658125 31330 net.cpp:406] fire7/squeeze1x1 <- fire6/concat
I0424 23:38:32.658138 31330 net.cpp:380] fire7/squeeze1x1 -> fire7/squeeze1x1
I0424 23:38:32.668115 31330 net.cpp:122] Setting up fire7/squeeze1x1
I0424 23:38:32.668221 31330 net.cpp:129] Top shape: 40 48 18 18 (622080)
I0424 23:38:32.668238 31330 net.cpp:137] Memory required for data: 1844979840
I0424 23:38:32.668300 31330 layer_factory.hpp:77] Creating layer fire7/relu_squeeze1x1
I0424 23:38:32.668334 31330 net.cpp:84] Creating Layer fire7/relu_squeeze1x1
I0424 23:38:32.668349 31330 net.cpp:406] fire7/relu_squeeze1x1 <- fire7/squeeze1x1
I0424 23:38:32.668368 31330 net.cpp:367] fire7/relu_squeeze1x1 -> fire7/squeeze1x1 (in-place)
I0424 23:38:32.668691 31330 net.cpp:122] Setting up fire7/relu_squeeze1x1
I0424 23:38:32.668714 31330 net.cpp:129] Top shape: 40 48 18 18 (622080)
I0424 23:38:32.668722 31330 net.cpp:137] Memory required for data: 1847468160
I0424 23:38:32.668731 31330 layer_factory.hpp:77] Creating layer fire7/squeeze1x1_fire7/relu_squeeze1x1_0_split
I0424 23:38:32.668753 31330 net.cpp:84] Creating Layer fire7/squeeze1x1_fire7/relu_squeeze1x1_0_split
I0424 23:38:32.668762 31330 net.cpp:406] fire7/squeeze1x1_fire7/relu_squeeze1x1_0_split <- fire7/squeeze1x1
I0424 23:38:32.668776 31330 net.cpp:380] fire7/squeeze1x1_fire7/relu_squeeze1x1_0_split -> fire7/squeeze1x1_fire7/relu_squeeze1x1_0_split_0
I0424 23:38:32.668792 31330 net.cpp:380] fire7/squeeze1x1_fire7/relu_squeeze1x1_0_split -> fire7/squeeze1x1_fire7/relu_squeeze1x1_0_split_1
I0424 23:38:32.668879 31330 net.cpp:122] Setting up fire7/squeeze1x1_fire7/relu_squeeze1x1_0_split
I0424 23:38:32.668898 31330 net.cpp:129] Top shape: 40 48 18 18 (622080)
I0424 23:38:32.668911 31330 net.cpp:129] Top shape: 40 48 18 18 (622080)
I0424 23:38:32.668920 31330 net.cpp:137] Memory required for data: 1852444800
I0424 23:38:32.668928 31330 layer_factory.hpp:77] Creating layer fire7/expand1x1
I0424 23:38:32.668959 31330 net.cpp:84] Creating Layer fire7/expand1x1
I0424 23:38:32.668972 31330 net.cpp:406] fire7/expand1x1 <- fire7/squeeze1x1_fire7/relu_squeeze1x1_0_split_0
I0424 23:38:32.668988 31330 net.cpp:380] fire7/expand1x1 -> fire7/expand1x1
I0424 23:38:32.671965 31330 net.cpp:122] Setting up fire7/expand1x1
I0424 23:38:32.672019 31330 net.cpp:129] Top shape: 40 192 18 18 (2488320)
I0424 23:38:32.672029 31330 net.cpp:137] Memory required for data: 1862398080
I0424 23:38:32.672058 31330 layer_factory.hpp:77] Creating layer fire7/relu_expand1x1
I0424 23:38:32.672089 31330 net.cpp:84] Creating Layer fire7/relu_expand1x1
I0424 23:38:32.672108 31330 net.cpp:406] fire7/relu_expand1x1 <- fire7/expand1x1
I0424 23:38:32.672125 31330 net.cpp:367] fire7/relu_expand1x1 -> fire7/expand1x1 (in-place)
I0424 23:38:32.673396 31330 net.cpp:122] Setting up fire7/relu_expand1x1
I0424 23:38:32.673422 31330 net.cpp:129] Top shape: 40 192 18 18 (2488320)
I0424 23:38:32.673430 31330 net.cpp:137] Memory required for data: 1872351360
I0424 23:38:32.673437 31330 layer_factory.hpp:77] Creating layer fire7/expand3x3
I0424 23:38:32.673470 31330 net.cpp:84] Creating Layer fire7/expand3x3
I0424 23:38:32.673481 31330 net.cpp:406] fire7/expand3x3 <- fire7/squeeze1x1_fire7/relu_squeeze1x1_0_split_1
I0424 23:38:32.673497 31330 net.cpp:380] fire7/expand3x3 -> fire7/expand3x3
I0424 23:38:32.677945 31330 net.cpp:122] Setting up fire7/expand3x3
I0424 23:38:32.678019 31330 net.cpp:129] Top shape: 40 192 18 18 (2488320)
I0424 23:38:32.678078 31330 net.cpp:137] Memory required for data: 1882304640
I0424 23:38:32.678114 31330 layer_factory.hpp:77] Creating layer fire7/relu_expand3x3
I0424 23:38:32.678190 31330 net.cpp:84] Creating Layer fire7/relu_expand3x3
I0424 23:38:32.678203 31330 net.cpp:406] fire7/relu_expand3x3 <- fire7/expand3x3
I0424 23:38:32.678222 31330 net.cpp:367] fire7/relu_expand3x3 -> fire7/expand3x3 (in-place)
I0424 23:38:32.679215 31330 net.cpp:122] Setting up fire7/relu_expand3x3
I0424 23:38:32.679239 31330 net.cpp:129] Top shape: 40 192 18 18 (2488320)
I0424 23:38:32.679247 31330 net.cpp:137] Memory required for data: 1892257920
I0424 23:38:32.679255 31330 layer_factory.hpp:77] Creating layer fire7/concat
I0424 23:38:32.679270 31330 net.cpp:84] Creating Layer fire7/concat
I0424 23:38:32.679280 31330 net.cpp:406] fire7/concat <- fire7/expand1x1
I0424 23:38:32.679289 31330 net.cpp:406] fire7/concat <- fire7/expand3x3
I0424 23:38:32.679302 31330 net.cpp:380] fire7/concat -> fire7/concat
I0424 23:38:32.679384 31330 net.cpp:122] Setting up fire7/concat
I0424 23:38:32.679400 31330 net.cpp:129] Top shape: 40 384 18 18 (4976640)
I0424 23:38:32.679407 31330 net.cpp:137] Memory required for data: 1912164480
I0424 23:38:32.679415 31330 layer_factory.hpp:77] Creating layer fire8/squeeze1x1
I0424 23:38:32.679445 31330 net.cpp:84] Creating Layer fire8/squeeze1x1
I0424 23:38:32.679455 31330 net.cpp:406] fire8/squeeze1x1 <- fire7/concat
I0424 23:38:32.679468 31330 net.cpp:380] fire8/squeeze1x1 -> fire8/squeeze1x1
I0424 23:38:32.682070 31330 net.cpp:122] Setting up fire8/squeeze1x1
I0424 23:38:32.682107 31330 net.cpp:129] Top shape: 40 64 18 18 (829440)
I0424 23:38:32.682116 31330 net.cpp:137] Memory required for data: 1915482240
I0424 23:38:32.682137 31330 layer_factory.hpp:77] Creating layer fire8/relu_squeeze1x1
I0424 23:38:32.682159 31330 net.cpp:84] Creating Layer fire8/relu_squeeze1x1
I0424 23:38:32.682171 31330 net.cpp:406] fire8/relu_squeeze1x1 <- fire8/squeeze1x1
I0424 23:38:32.682190 31330 net.cpp:367] fire8/relu_squeeze1x1 -> fire8/squeeze1x1 (in-place)
I0424 23:38:32.682456 31330 net.cpp:122] Setting up fire8/relu_squeeze1x1
I0424 23:38:32.682476 31330 net.cpp:129] Top shape: 40 64 18 18 (829440)
I0424 23:38:32.682483 31330 net.cpp:137] Memory required for data: 1918800000
I0424 23:38:32.682490 31330 layer_factory.hpp:77] Creating layer fire8/squeeze1x1_fire8/relu_squeeze1x1_0_split
I0424 23:38:32.682504 31330 net.cpp:84] Creating Layer fire8/squeeze1x1_fire8/relu_squeeze1x1_0_split
I0424 23:38:32.682513 31330 net.cpp:406] fire8/squeeze1x1_fire8/relu_squeeze1x1_0_split <- fire8/squeeze1x1
I0424 23:38:32.682526 31330 net.cpp:380] fire8/squeeze1x1_fire8/relu_squeeze1x1_0_split -> fire8/squeeze1x1_fire8/relu_squeeze1x1_0_split_0
I0424 23:38:32.682541 31330 net.cpp:380] fire8/squeeze1x1_fire8/relu_squeeze1x1_0_split -> fire8/squeeze1x1_fire8/relu_squeeze1x1_0_split_1
I0424 23:38:32.682615 31330 net.cpp:122] Setting up fire8/squeeze1x1_fire8/relu_squeeze1x1_0_split
I0424 23:38:32.682633 31330 net.cpp:129] Top shape: 40 64 18 18 (829440)
I0424 23:38:32.682672 31330 net.cpp:129] Top shape: 40 64 18 18 (829440)
I0424 23:38:32.682680 31330 net.cpp:137] Memory required for data: 1925435520
I0424 23:38:32.682687 31330 layer_factory.hpp:77] Creating layer fire8/expand1x1
I0424 23:38:32.682705 31330 net.cpp:84] Creating Layer fire8/expand1x1
I0424 23:38:32.682714 31330 net.cpp:406] fire8/expand1x1 <- fire8/squeeze1x1_fire8/relu_squeeze1x1_0_split_0
I0424 23:38:32.682729 31330 net.cpp:380] fire8/expand1x1 -> fire8/expand1x1
I0424 23:38:32.685091 31330 net.cpp:122] Setting up fire8/expand1x1
I0424 23:38:32.685130 31330 net.cpp:129] Top shape: 40 256 18 18 (3317760)
I0424 23:38:32.685142 31330 net.cpp:137] Memory required for data: 1938706560
I0424 23:38:32.685163 31330 layer_factory.hpp:77] Creating layer fire8/relu_expand1x1
I0424 23:38:32.685178 31330 net.cpp:84] Creating Layer fire8/relu_expand1x1
I0424 23:38:32.685187 31330 net.cpp:406] fire8/relu_expand1x1 <- fire8/expand1x1
I0424 23:38:32.685247 31330 net.cpp:367] fire8/relu_expand1x1 -> fire8/expand1x1 (in-place)
I0424 23:38:32.685525 31330 net.cpp:122] Setting up fire8/relu_expand1x1
I0424 23:38:32.685544 31330 net.cpp:129] Top shape: 40 256 18 18 (3317760)
I0424 23:38:32.685595 31330 net.cpp:137] Memory required for data: 1951977600
I0424 23:38:32.685605 31330 layer_factory.hpp:77] Creating layer fire8/expand3x3
I0424 23:38:32.685627 31330 net.cpp:84] Creating Layer fire8/expand3x3
I0424 23:38:32.685637 31330 net.cpp:406] fire8/expand3x3 <- fire8/squeeze1x1_fire8/relu_squeeze1x1_0_split_1
I0424 23:38:32.685650 31330 net.cpp:380] fire8/expand3x3 -> fire8/expand3x3
I0424 23:38:32.691110 31330 net.cpp:122] Setting up fire8/expand3x3
I0424 23:38:32.691175 31330 net.cpp:129] Top shape: 40 256 18 18 (3317760)
I0424 23:38:32.691184 31330 net.cpp:137] Memory required for data: 1965248640
I0424 23:38:32.691212 31330 layer_factory.hpp:77] Creating layer fire8/relu_expand3x3
I0424 23:38:32.691249 31330 net.cpp:84] Creating Layer fire8/relu_expand3x3
I0424 23:38:32.691265 31330 net.cpp:406] fire8/relu_expand3x3 <- fire8/expand3x3
I0424 23:38:32.691287 31330 net.cpp:367] fire8/relu_expand3x3 -> fire8/expand3x3 (in-place)
I0424 23:38:32.691628 31330 net.cpp:122] Setting up fire8/relu_expand3x3
I0424 23:38:32.691648 31330 net.cpp:129] Top shape: 40 256 18 18 (3317760)
I0424 23:38:32.691656 31330 net.cpp:137] Memory required for data: 1978519680
I0424 23:38:32.691663 31330 layer_factory.hpp:77] Creating layer fire8/concat
I0424 23:38:32.691678 31330 net.cpp:84] Creating Layer fire8/concat
I0424 23:38:32.691684 31330 net.cpp:406] fire8/concat <- fire8/expand1x1
I0424 23:38:32.691694 31330 net.cpp:406] fire8/concat <- fire8/expand3x3
I0424 23:38:32.691704 31330 net.cpp:380] fire8/concat -> fire8/concat
I0424 23:38:32.691790 31330 net.cpp:122] Setting up fire8/concat
I0424 23:38:32.691803 31330 net.cpp:129] Top shape: 40 512 18 18 (6635520)
I0424 23:38:32.691809 31330 net.cpp:137] Memory required for data: 2005061760
I0424 23:38:32.691815 31330 layer_factory.hpp:77] Creating layer fire9/squeeze1x1
I0424 23:38:32.691835 31330 net.cpp:84] Creating Layer fire9/squeeze1x1
I0424 23:38:32.691843 31330 net.cpp:406] fire9/squeeze1x1 <- fire8/concat
I0424 23:38:32.691853 31330 net.cpp:380] fire9/squeeze1x1 -> fire9/squeeze1x1
I0424 23:38:32.694507 31330 net.cpp:122] Setting up fire9/squeeze1x1
I0424 23:38:32.694538 31330 net.cpp:129] Top shape: 40 64 18 18 (829440)
I0424 23:38:32.694547 31330 net.cpp:137] Memory required for data: 2008379520
I0424 23:38:32.694563 31330 layer_factory.hpp:77] Creating layer fire9/relu_squeeze1x1
I0424 23:38:32.694607 31330 net.cpp:84] Creating Layer fire9/relu_squeeze1x1
I0424 23:38:32.694619 31330 net.cpp:406] fire9/relu_squeeze1x1 <- fire9/squeeze1x1
I0424 23:38:32.694634 31330 net.cpp:367] fire9/relu_squeeze1x1 -> fire9/squeeze1x1 (in-place)
I0424 23:38:32.694936 31330 net.cpp:122] Setting up fire9/relu_squeeze1x1
I0424 23:38:32.694959 31330 net.cpp:129] Top shape: 40 64 18 18 (829440)
I0424 23:38:32.694969 31330 net.cpp:137] Memory required for data: 2011697280
I0424 23:38:32.694978 31330 layer_factory.hpp:77] Creating layer fire9/squeeze1x1_fire9/relu_squeeze1x1_0_split
I0424 23:38:32.694994 31330 net.cpp:84] Creating Layer fire9/squeeze1x1_fire9/relu_squeeze1x1_0_split
I0424 23:38:32.695003 31330 net.cpp:406] fire9/squeeze1x1_fire9/relu_squeeze1x1_0_split <- fire9/squeeze1x1
I0424 23:38:32.695016 31330 net.cpp:380] fire9/squeeze1x1_fire9/relu_squeeze1x1_0_split -> fire9/squeeze1x1_fire9/relu_squeeze1x1_0_split_0
I0424 23:38:32.695030 31330 net.cpp:380] fire9/squeeze1x1_fire9/relu_squeeze1x1_0_split -> fire9/squeeze1x1_fire9/relu_squeeze1x1_0_split_1
I0424 23:38:32.695098 31330 net.cpp:122] Setting up fire9/squeeze1x1_fire9/relu_squeeze1x1_0_split
I0424 23:38:32.695114 31330 net.cpp:129] Top shape: 40 64 18 18 (829440)
I0424 23:38:32.695127 31330 net.cpp:129] Top shape: 40 64 18 18 (829440)
I0424 23:38:32.695132 31330 net.cpp:137] Memory required for data: 2018332800
I0424 23:38:32.695140 31330 layer_factory.hpp:77] Creating layer fire9/expand1x1
I0424 23:38:32.695226 31330 net.cpp:84] Creating Layer fire9/expand1x1
I0424 23:38:32.695236 31330 net.cpp:406] fire9/expand1x1 <- fire9/squeeze1x1_fire9/relu_squeeze1x1_0_split_0
I0424 23:38:32.695277 31330 net.cpp:380] fire9/expand1x1 -> fire9/expand1x1
I0424 23:38:32.697568 31330 net.cpp:122] Setting up fire9/expand1x1
I0424 23:38:32.697685 31330 net.cpp:129] Top shape: 40 256 18 18 (3317760)
I0424 23:38:32.697695 31330 net.cpp:137] Memory required for data: 2031603840
I0424 23:38:32.697717 31330 layer_factory.hpp:77] Creating layer fire9/relu_expand1x1
I0424 23:38:32.697736 31330 net.cpp:84] Creating Layer fire9/relu_expand1x1
I0424 23:38:32.697744 31330 net.cpp:406] fire9/relu_expand1x1 <- fire9/expand1x1
I0424 23:38:32.697763 31330 net.cpp:367] fire9/relu_expand1x1 -> fire9/expand1x1 (in-place)
I0424 23:38:32.699610 31330 net.cpp:122] Setting up fire9/relu_expand1x1
I0424 23:38:32.699690 31330 net.cpp:129] Top shape: 40 256 18 18 (3317760)
I0424 23:38:32.699699 31330 net.cpp:137] Memory required for data: 2044874880
I0424 23:38:32.699713 31330 layer_factory.hpp:77] Creating layer fire9/expand3x3
I0424 23:38:32.699753 31330 net.cpp:84] Creating Layer fire9/expand3x3
I0424 23:38:32.699764 31330 net.cpp:406] fire9/expand3x3 <- fire9/squeeze1x1_fire9/relu_squeeze1x1_0_split_1
I0424 23:38:32.699782 31330 net.cpp:380] fire9/expand3x3 -> fire9/expand3x3
I0424 23:38:32.705199 31330 net.cpp:122] Setting up fire9/expand3x3
I0424 23:38:32.705334 31330 net.cpp:129] Top shape: 40 256 18 18 (3317760)
I0424 23:38:32.705346 31330 net.cpp:137] Memory required for data: 2058145920
I0424 23:38:32.705374 31330 layer_factory.hpp:77] Creating layer fire9/relu_expand3x3
I0424 23:38:32.705407 31330 net.cpp:84] Creating Layer fire9/relu_expand3x3
I0424 23:38:32.705425 31330 net.cpp:406] fire9/relu_expand3x3 <- fire9/expand3x3
I0424 23:38:32.705452 31330 net.cpp:367] fire9/relu_expand3x3 -> fire9/expand3x3 (in-place)
I0424 23:38:32.705767 31330 net.cpp:122] Setting up fire9/relu_expand3x3
I0424 23:38:32.705787 31330 net.cpp:129] Top shape: 40 256 18 18 (3317760)
I0424 23:38:32.705796 31330 net.cpp:137] Memory required for data: 2071416960
I0424 23:38:32.705804 31330 layer_factory.hpp:77] Creating layer fire9/concat
I0424 23:38:32.705819 31330 net.cpp:84] Creating Layer fire9/concat
I0424 23:38:32.705830 31330 net.cpp:406] fire9/concat <- fire9/expand1x1
I0424 23:38:32.705840 31330 net.cpp:406] fire9/concat <- fire9/expand3x3
I0424 23:38:32.705857 31330 net.cpp:380] fire9/concat -> fire9/concat
I0424 23:38:32.705919 31330 net.cpp:122] Setting up fire9/concat
I0424 23:38:32.705937 31330 net.cpp:129] Top shape: 40 512 18 18 (6635520)
I0424 23:38:32.705945 31330 net.cpp:137] Memory required for data: 2097959040
I0424 23:38:32.705955 31330 layer_factory.hpp:77] Creating layer drop9
I0424 23:38:32.705981 31330 net.cpp:84] Creating Layer drop9
I0424 23:38:32.705991 31330 net.cpp:406] drop9 <- fire9/concat
I0424 23:38:32.706002 31330 net.cpp:367] drop9 -> fire9/concat (in-place)
I0424 23:38:32.706058 31330 net.cpp:122] Setting up drop9
I0424 23:38:32.706073 31330 net.cpp:129] Top shape: 40 512 18 18 (6635520)
I0424 23:38:32.706080 31330 net.cpp:137] Memory required for data: 2124501120
I0424 23:38:32.706089 31330 layer_factory.hpp:77] Creating layer conv10_new
I0424 23:38:32.706112 31330 net.cpp:84] Creating Layer conv10_new
I0424 23:38:32.706121 31330 net.cpp:406] conv10_new <- fire9/concat
I0424 23:38:32.706132 31330 net.cpp:380] conv10_new -> conv10_new
I0424 23:38:32.710149 31330 net.cpp:122] Setting up conv10_new
I0424 23:38:32.710216 31330 net.cpp:129] Top shape: 40 196 18 18 (2540160)
I0424 23:38:32.710228 31330 net.cpp:137] Memory required for data: 2134661760
I0424 23:38:32.710258 31330 layer_factory.hpp:77] Creating layer relu_conv10
I0424 23:38:32.710294 31330 net.cpp:84] Creating Layer relu_conv10
I0424 23:38:32.710309 31330 net.cpp:406] relu_conv10 <- conv10_new
I0424 23:38:32.710330 31330 net.cpp:367] relu_conv10 -> conv10_new (in-place)
I0424 23:38:32.710650 31330 net.cpp:122] Setting up relu_conv10
I0424 23:38:32.710670 31330 net.cpp:129] Top shape: 40 196 18 18 (2540160)
I0424 23:38:32.710726 31330 net.cpp:137] Memory required for data: 2144822400
I0424 23:38:32.710736 31330 layer_factory.hpp:77] Creating layer pool10
I0424 23:38:32.710798 31330 net.cpp:84] Creating Layer pool10
I0424 23:38:32.710808 31330 net.cpp:406] pool10 <- conv10_new
I0424 23:38:32.710824 31330 net.cpp:380] pool10 -> pool10
I0424 23:38:32.711143 31330 net.cpp:122] Setting up pool10
I0424 23:38:32.711163 31330 net.cpp:129] Top shape: 40 196 1 1 (7840)
I0424 23:38:32.711170 31330 net.cpp:137] Memory required for data: 2144853760
I0424 23:38:32.711177 31330 layer_factory.hpp:77] Creating layer pool10_pool10_0_split
I0424 23:38:32.711196 31330 net.cpp:84] Creating Layer pool10_pool10_0_split
I0424 23:38:32.711205 31330 net.cpp:406] pool10_pool10_0_split <- pool10
I0424 23:38:32.711220 31330 net.cpp:380] pool10_pool10_0_split -> pool10_pool10_0_split_0
I0424 23:38:32.711236 31330 net.cpp:380] pool10_pool10_0_split -> pool10_pool10_0_split_1
I0424 23:38:32.711249 31330 net.cpp:380] pool10_pool10_0_split -> pool10_pool10_0_split_2
I0424 23:38:32.711346 31330 net.cpp:122] Setting up pool10_pool10_0_split
I0424 23:38:32.711362 31330 net.cpp:129] Top shape: 40 196 1 1 (7840)
I0424 23:38:32.711372 31330 net.cpp:129] Top shape: 40 196 1 1 (7840)
I0424 23:38:32.711381 31330 net.cpp:129] Top shape: 40 196 1 1 (7840)
I0424 23:38:32.711390 31330 net.cpp:137] Memory required for data: 2144947840
I0424 23:38:32.711398 31330 layer_factory.hpp:77] Creating layer loss
I0424 23:38:32.711413 31330 net.cpp:84] Creating Layer loss
I0424 23:38:32.711421 31330 net.cpp:406] loss <- pool10_pool10_0_split_0
I0424 23:38:32.711433 31330 net.cpp:406] loss <- label_data_1_split_0
I0424 23:38:32.711448 31330 net.cpp:380] loss -> loss
…
