…
I0424 21:32:25.304730 23283 net.cpp:294] The NetState phase (0) differed from the phase (1) specified by a rule in layer accuracy
I0424 21:32:25.304738 23283 net.cpp:294] The NetState phase (0) differed from the phase (1) specified by a rule in layer accuracy_top5
I0424 21:32:25.305016 23283 net.cpp:51] Initializing net from parameters: 
state {
  phase: TRAIN
  level: 0
  stage: ""
}
layer {
  name: "data"
  type: "ImageData"
  top: "data"
  top: "label"
  include {
    phase: TRAIN
  }
  transform_param {
    mean_value: 104
    mean_value: 117
    mean_value: 123
  }
  image_data_param {
    source: "./train.txt"
    batch_size: 40
    mirror: true
    shuffle: true
  }
}
layer {
  name: "conv1"
  type: "Convolution"
  bottom: "data"
  top: "conv1"
  convolution_param {
    num_output: 64
    kernel_size: 3
    stride: 2
    weight_filler {
      type: "xavier"
    }
  }
}
layer {
  name: "relu_conv1"
  type: "ReLU"
  bottom: "conv1"
  top: "conv1"
}
layer {
  name: "pool1"
  type: "Pooling"
  bottom: "conv1"
  top: "pool1"
  pooling_param {
    pool: MAX
    kernel_size: 3
    stride: 2
  }
}
layer {
  name: "fire2/squeeze1x1"
  type: "Convolution"
  bottom: "pool1"
  top: "fire2/squeeze1x1"
  convolution_param {
    num_output: 16
    kernel_size: 1
    weight_filler {
      type: "xavier"
    }
  }
}
layer {
  name: "fire2/relu_squeeze1x1"
  type: "ReLU"
  bottom: "fire2/squeeze1x1"
  top: "fire2/squeeze1x1"
}
layer {
  name: "fire2/expand1x1"
  type: "Convolution"
  bottom: "fire2/squeeze1x1"
  top: "fire2/expand1x1"
  convolution_param {
    num_output: 64
    kernel_size: 1
    weight_filler {
      type: "xavier"
    }
  }
}
layer {
  name: "fire2/relu_expand1x1"
  type: "ReLU"
  bottom: "fire2/expand1x1"
  top: "fire2/expand1x1"
}
layer {
  name: "fire2/expand3x3"
  type: "Convolution"
  bottom: "fire2/squeeze1x1"
  top: "fire2/expand3x3"
  convolution_param {
    num_output: 64
    pad: 1
    kernel_size: 3
    weight_filler {
      type: "xavier"
    }
  }
}
layer {
  name: "fire2/relu_expand3x3"
  type: "ReLU"
  bottom: "fire2/expand3x3"
  top: "fire2/expand3x3"
}
layer {
  name: "fire2/concat"
  type: "Concat"
  bottom: "fire2/expand1x1"
  bottom: "fire2/expand3x3"
  top: "fire2/concat"
}
layer {
  name: "fire3/squeeze1x1"
  type: "Convolution"
  bottom: "fire2/concat"
  top: "fire3/squeeze1x1"
  convolution_param {
    num_output: 16
    kernel_size: 1
    weight_filler {
      type: "xavier"
    }
  }
}
layer {
  name: "fire3/relu_squeeze1x1"
  type: "ReLU"
  bottom: "fire3/squeeze1x1"
  top: "fire3/squeeze1x1"
}
layer {
  name: "fire3/expand1x1"
  type: "Convolution"
  bottom: "fire3/squeeze1x1"
  top: "fire3/expand1x1"
  convolution_param {
    num_output: 64
    kernel_size: 1
    weight_filler {
      type: "xavier"
    }
  }
}
layer {
  name: "fire3/relu_expand1x1"
  type: "ReLU"
  bottom: "fire3/expand1x1"
  top: "fire3/expand1x1"
}
layer {
  name: "fire3/expand3x3"
  type: "Convolution"
  bottom: "fire3/squeeze1x1"
  top: "fire3/expand3x3"
  convolution_param {
    num_output: 64
    pad: 1
    kernel_size: 3
    weight_filler {
      type: "xavier"
    }
  }
}
layer {
  name: "fire3/relu_expand3x3"
  type: "ReLU"
  bottom: "fire3/expand3x3"
  top: "fire3/expand3x3"
}
layer {
  name: "fire3/concat"
  type: "Concat"
  bottom: "fire3/expand1x1"
  bottom: "fire3/expand3x3"
  top: "fire3/concat"
}
layer {
  name: "pool3"
  type: "Pooling"
  bottom: "fire3/concat"
  top: "pool3"
  pooling_param {
    pool: MAX
    kernel_size: 3
    stride: 2
  }
}
layer {
  name: "fire4/squeeze1x1"
  type: "Convolution"
  bottom: "pool3"
  top: "fire4/squeeze1x1"
  convolution_param {
    num_output: 32
    kernel_size: 1
    weight_filler {
      type: "xavier"
    }
  }
}
layer {
  name: "fire4/relu_squeeze1x1"
  type: "ReLU"
  bottom: "fire4/squeeze1x1"
  top: "fire4/squeeze1x1"
}
layer {
  name: "fire4/expand1x1"
  type: "Convolution"
  bottom: "fire4/squeeze1x1"
  top: "fire4/expand1x1"
  convolution_param {
    num_output: 128
    kernel_size: 1
    weight_filler {
      type: "xavier"
    }
  }
}
layer {
  name: "fire4/relu_expand1x1"
  type: "ReLU"
  bottom: "fire4/expand1x1"
  top: "fire4/expand1x1"
}
layer {
  name: "fire4/expand3x3"
  type: "Convolution"
  bottom: "fire4/squeeze1x1"
  top: "fire4/expand3x3"
  convolution_param {
    num_output: 128
    pad: 1
    kernel_size: 3
    weight_filler {
      type: "xavier"
    }
  }
}
layer {
  name: "fire4/relu_expand3x3"
  type: "ReLU"
  bottom: "fire4/expand3x3"
  top: "fire4/expand3x3"
}
layer {
  name: "fire4/concat"
  type: "Concat"
  bottom: "fire4/expand1x1"
  bottom: "fire4/expand3x3"
  top: "fire4/concat"
}
layer {
  name: "fire5/squeeze1x1"
  type: "Convolution"
  bottom: "fire4/concat"
  top: "fire5/squeeze1x1"
  convolution_param {
    num_output: 32
    kernel_size: 1
    weight_filler {
      type: "xavier"
    }
  }
}
layer {
  name: "fire5/relu_squeeze1x1"
  type: "ReLU"
  bottom: "fire5/squeeze1x1"
  top: "fire5/squeeze1x1"
}
layer {
  name: "fire5/expand1x1"
  type: "Convolution"
  bottom: "fire5/squeeze1x1"
  top: "fire5/expand1x1"
  convolution_param {
    num_output: 128
    kernel_size: 1
    weight_filler {
      type: "xavier"
    }
  }
}
layer {
  name: "fire5/relu_expand1x1"
  type: "ReLU"
  bottom: "fire5/expand1x1"
  top: "fire5/expand1x1"
}
layer {
  name: "fire5/expand3x3"
  type: "Convolution"
  bottom: "fire5/squeeze1x1"
  top: "fire5/expand3x3"
  convolution_param {
    num_output: 128
    pad: 1
    kernel_size: 3
    weight_filler {
      type: "xavier"
    }
  }
}
layer {
  name: "fire5/relu_expand3x3"
  type: "ReLU"
  bottom: "fire5/expand3x3"
  top: "fire5/expand3x3"
}
layer {
  name: "fire5/concat"
  type: "Concat"
  bottom: "fire5/expand1x1"
  bottom: "fire5/expand3x3"
  top: "fire5/concat"
}
layer {
  name: "pool5"
  type: "Pooling"
  bottom: "fire5/concat"
  top: "pool5"
  pooling_param {
    pool: MAX
    kernel_size: 3
    stride: 2
  }
}
layer {
  name: "fire6/squeeze1x1"
  type: "Convolution"
  bottom: "pool5"
  top: "fire6/squeeze1x1"
  convolution_param {
    num_output: 48
    kernel_size: 1
    weight_filler {
      type: "xavier"
    }
  }
}
layer {
  name: "fire6/relu_squeeze1x1"
  type: "ReLU"
  bottom: "fire6/squeeze1x1"
  top: "fire6/squeeze1x1"
}
layer {
  name: "fire6/expand1x1"
  type: "Convolution"
  bottom: "fire6/squeeze1x1"
  top: "fire6/expand1x1"
  convolution_param {
    num_output: 192
    kernel_size: 1
    weight_filler {
      type: "xavier"
    }
  }
}
layer {
  name: "fire6/relu_expand1x1"
  type: "ReLU"
  bottom: "fire6/expand1x1"
  top: "fire6/expand1x1"
}
layer {
  name: "fire6/expand3x3"
  type: "Convolution"
  bottom: "fire6/squeeze1x1"
  top: "fire6/expand3x3"
  convolution_param {
    num_output: 192
    pad: 1
    kernel_size: 3
    weight_filler {
      type: "xavier"
    }
  }
}
layer {
  name: "fire6/relu_expand3x3"
  type: "ReLU"
  bottom: "fire6/expand3x3"
  top: "fire6/expand3x3"
}
layer {
  name: "fire6/concat"
  type: "Concat"
  bottom: "fire6/expand1x1"
  bottom: "fire6/expand3x3"
  top: "fire6/concat"
}
layer {
  name: "fire7/squeeze1x1"
  type: "Convolution"
  bottom: "fire6/concat"
  top: "fire7/squeeze1x1"
  convolution_param {
    num_output: 48
    kernel_size: 1
    weight_filler {
      type: "xavier"
    }
  }
}
layer {
  name: "fire7/relu_squeeze1x1"
  type: "ReLU"
  bottom: "fire7/squeeze1x1"
  top: "fire7/squeeze1x1"
}
layer {
  name: "fire7/expand1x1"
  type: "Convolution"
  bottom: "fire7/squeeze1x1"
  top: "fire7/expand1x1"
  convolution_param {
    num_output: 192
    kernel_size: 1
    weight_filler {
      type: "xavier"
    }
  }
}
layer {
  name: "fire7/relu_expand1x1"
  type: "ReLU"
  bottom: "fire7/expand1x1"
  top: "fire7/expand1x1"
}
layer {
  name: "fire7/expand3x3"
  type: "Convolution"
  bottom: "fire7/squeeze1x1"
  top: "fire7/expand3x3"
  convolution_param {
    num_output: 192
    pad: 1
    kernel_size: 3
    weight_filler {
      type: "xavier"
    }
  }
}
layer {
  name: "fire7/relu_expand3x3"
  type: "ReLU"
  bottom: "fire7/expand3x3"
  top: "fire7/expand3x3"
}
layer {
  name: "fire7/concat"
  type: "Concat"
  bottom: "fire7/expand1x1"
  bottom: "fire7/expand3x3"
  top: "fire7/concat"
}
layer {
  name: "fire8/squeeze1x1"
  type: "Convolution"
  bottom: "fire7/concat"
  top: "fire8/squeeze1x1"
  convolution_param {
    num_output: 64
    kernel_size: 1
    weight_filler {
      type: "xavier"
    }
  }
}
layer {
  name: "fire8/relu_squeeze1x1"
  type: "ReLU"
  bottom: "fire8/squeeze1x1"
  top: "fire8/squeeze1x1"
}
layer {
  name: "fire8/expand1x1"
  type: "Convolution"
  bottom: "fire8/squeeze1x1"
  top: "fire8/expand1x1"
  convolution_param {
    num_output: 256
    kernel_size: 1
    weight_filler {
      type: "xavier"
    }
  }
}
layer {
  name: "fire8/relu_expand1x1"
  type: "ReLU"
  bottom: "fire8/expand1x1"
  top: "fire8/expand1x1"
}
layer {
  name: "fire8/expand3x3"
  type: "Convolution"
  bottom: "fire8/squeeze1x1"
  top: "fire8/expand3x3"
  convolution_param {
    num_output: 256
    pad: 1
    kernel_size: 3
    weight_filler {
      type: "xavier"
    }
  }
}
layer {
  name: "fire8/relu_expand3x3"
  type: "ReLU"
  bottom: "fire8/expand3x3"
  top: "fire8/expand3x3"
}
layer {
  name: "fire8/concat"
  type: "Concat"
  bottom: "fire8/expand1x1"
  bottom: "fire8/expand3x3"
  top: "fire8/concat"
}
layer {
  name: "fire9/squeeze1x1"
  type: "Convolution"
  bottom: "fire8/concat"
  top: "fire9/squeeze1x1"
  convolution_param {
    num_output: 64
    kernel_size: 1
    weight_filler {
      type: "xavier"
    }
  }
}
layer {
  name: "fire9/relu_squeeze1x1"
  type: "ReLU"
  bottom: "fire9/squeeze1x1"
  top: "fire9/squeeze1x1"
}
layer {
  name: "fire9/expand1x1"
  type: "Convolution"
  bottom: "fire9/squeeze1x1"
  top: "fire9/expand1x1"
  convolution_param {
    num_output: 256
    kernel_size: 1
    weight_filler {
      type: "xavier"
    }
  }
}
layer {
  name: "fire9/relu_expand1x1"
  type: "ReLU"
  bottom: "fire9/expand1x1"
  top: "fire9/expand1x1"
}
layer {
  name: "fire9/expand3x3"
  type: "Convolution"
  bottom: "fire9/squeeze1x1"
  top: "fire9/expand3x3"
  convolution_param {
    num_output: 256
    pad: 1
    kernel_size: 3
    weight_filler {
      type: "xavier"
    }
  }
}
layer {
  name: "fire9/relu_expand3x3"
  type: "ReLU"
  bottom: "fire9/expand3x3"
  top: "fire9/expand3x3"
}
layer {
  name: "fire9/concat"
  type: "Concat"
  bottom: "fire9/expand1x1"
  bottom: "fire9/expand3x3"
  top: "fire9/concat"
}
layer {
  name: "drop9"
  type: "Dropout"
  bottom: "fire9/concat"
  top: "fire9/concat"
  dropout_param {
    dropout_ratio: 0.5
  }
}
layer {
  name: "conv10_new"
  type: "Convolution"
  bottom: "fire9/concat"
  top: "conv10_new"
  convolution_param {
    num_output: 196
    kernel_size: 1
    weight_filler {
      type: "gaussian"
      mean: 0
      std: 0.01
    }
  }
}
layer {
  name: "relu_conv10"
  type: "ReLU"
  bottom: "conv10_new"
  top: "conv10_new"
}
layer {
  name: "pool10"
  type: "Pooling"
  bottom: "conv10_new"
  top: "pool10"
  pooling_param {
    pool: AVE
    global_pooling: true
  }
}
layer {
  name: "loss"
  type: "SoftmaxWithLoss"
  bottom: "pool10"
  bottom: "label"
  top: "loss"
}
I0424 21:32:25.305410 23283 layer_factory.hpp:77] Creating layer data
I0424 21:32:25.305449 23283 net.cpp:84] Creating Layer data
I0424 21:32:25.305459 23283 net.cpp:380] data -> data
I0424 21:32:25.305518 23283 net.cpp:380] data -> label
I0424 21:32:25.305538 23283 image_data_layer.cpp:38] Opening file ./train.txt
I0424 21:32:25.310775 23283 image_data_layer.cpp:53] Shuffling data
I0424 21:32:25.312659 23283 image_data_layer.cpp:63] A total of 8144 images.
I0424 21:32:25.316159 23283 image_data_layer.cpp:90] output data size: 40,3,227,227
I0424 21:32:25.436113 23283 net.cpp:122] Setting up data
I0424 21:32:25.436167 23283 net.cpp:129] Top shape: 40 3 227 227 (6183480)
I0424 21:32:25.436173 23283 net.cpp:129] Top shape: 40 (40)
I0424 21:32:25.436177 23283 net.cpp:137] Memory required for data: 24734080
I0424 21:32:25.436187 23283 layer_factory.hpp:77] Creating layer conv1
I0424 21:32:25.436215 23283 net.cpp:84] Creating Layer conv1
I0424 21:32:25.436223 23283 net.cpp:406] conv1 <- data
I0424 21:32:25.436235 23283 net.cpp:380] conv1 -> conv1
I0424 21:32:26.019105 23283 net.cpp:122] Setting up conv1
I0424 21:32:26.019172 23283 net.cpp:129] Top shape: 40 64 113 113 (32688640)
I0424 21:32:26.019183 23283 net.cpp:137] Memory required for data: 155488640
I0424 21:32:26.019225 23283 layer_factory.hpp:77] Creating layer relu_conv1
I0424 21:32:26.019249 23283 net.cpp:84] Creating Layer relu_conv1
I0424 21:32:26.019260 23283 net.cpp:406] relu_conv1 <- conv1
I0424 21:32:26.019273 23283 net.cpp:367] relu_conv1 -> conv1 (in-place)
I0424 21:32:26.019557 23283 net.cpp:122] Setting up relu_conv1
I0424 21:32:26.019578 23283 net.cpp:129] Top shape: 40 64 113 113 (32688640)
I0424 21:32:26.019587 23283 net.cpp:137] Memory required for data: 286243200
I0424 21:32:26.019594 23283 layer_factory.hpp:77] Creating layer pool1
I0424 21:32:26.019608 23283 net.cpp:84] Creating Layer pool1
I0424 21:32:26.019614 23283 net.cpp:406] pool1 <- conv1
I0424 21:32:26.019626 23283 net.cpp:380] pool1 -> pool1
I0424 21:32:26.019708 23283 net.cpp:122] Setting up pool1
I0424 21:32:26.019726 23283 net.cpp:129] Top shape: 40 64 56 56 (8028160)
I0424 21:32:26.019732 23283 net.cpp:137] Memory required for data: 318355840
I0424 21:32:26.019740 23283 layer_factory.hpp:77] Creating layer fire2/squeeze1x1
I0424 21:32:26.019758 23283 net.cpp:84] Creating Layer fire2/squeeze1x1
I0424 21:32:26.019767 23283 net.cpp:406] fire2/squeeze1x1 <- pool1
I0424 21:32:26.019779 23283 net.cpp:380] fire2/squeeze1x1 -> fire2/squeeze1x1
I0424 21:32:26.023962 23283 net.cpp:122] Setting up fire2/squeeze1x1
I0424 21:32:26.024112 23283 net.cpp:129] Top shape: 40 16 56 56 (2007040)
I0424 21:32:26.024127 23283 net.cpp:137] Memory required for data: 326384000
I0424 21:32:26.024165 23283 layer_factory.hpp:77] Creating layer fire2/relu_squeeze1x1
I0424 21:32:26.024200 23283 net.cpp:84] Creating Layer fire2/relu_squeeze1x1
I0424 21:32:26.024212 23283 net.cpp:406] fire2/relu_squeeze1x1 <- fire2/squeeze1x1
I0424 21:32:26.024230 23283 net.cpp:367] fire2/relu_squeeze1x1 -> fire2/squeeze1x1 (in-place)
I0424 21:32:26.024533 23283 net.cpp:122] Setting up fire2/relu_squeeze1x1
I0424 21:32:26.024555 23283 net.cpp:129] Top shape: 40 16 56 56 (2007040)
I0424 21:32:26.024564 23283 net.cpp:137] Memory required for data: 334412160
I0424 21:32:26.024572 23283 layer_factory.hpp:77] Creating layer fire2/squeeze1x1_fire2/relu_squeeze1x1_0_split
I0424 21:32:26.024590 23283 net.cpp:84] Creating Layer fire2/squeeze1x1_fire2/relu_squeeze1x1_0_split
I0424 21:32:26.024598 23283 net.cpp:406] fire2/squeeze1x1_fire2/relu_squeeze1x1_0_split <- fire2/squeeze1x1
I0424 21:32:26.024612 23283 net.cpp:380] fire2/squeeze1x1_fire2/relu_squeeze1x1_0_split -> fire2/squeeze1x1_fire2/relu_squeeze1x1_0_split_0
I0424 21:32:26.024631 23283 net.cpp:380] fire2/squeeze1x1_fire2/relu_squeeze1x1_0_split -> fire2/squeeze1x1_fire2/relu_squeeze1x1_0_split_1
I0424 21:32:26.024713 23283 net.cpp:122] Setting up fire2/squeeze1x1_fire2/relu_squeeze1x1_0_split
I0424 21:32:26.024732 23283 net.cpp:129] Top shape: 40 16 56 56 (2007040)
I0424 21:32:26.024744 23283 net.cpp:129] Top shape: 40 16 56 56 (2007040)
I0424 21:32:26.024749 23283 net.cpp:137] Memory required for data: 350468480
I0424 21:32:26.024757 23283 layer_factory.hpp:77] Creating layer fire2/expand1x1
I0424 21:32:26.025053 23283 net.cpp:84] Creating Layer fire2/expand1x1
I0424 21:32:26.025068 23283 net.cpp:406] fire2/expand1x1 <- fire2/squeeze1x1_fire2/relu_squeeze1x1_0_split_0
I0424 21:32:26.025128 23283 net.cpp:380] fire2/expand1x1 -> fire2/expand1x1
I0424 21:32:26.028419 23283 net.cpp:122] Setting up fire2/expand1x1
I0424 21:32:26.028581 23283 net.cpp:129] Top shape: 40 64 56 56 (8028160)
I0424 21:32:26.028595 23283 net.cpp:137] Memory required for data: 382581120
I0424 21:32:26.028650 23283 layer_factory.hpp:77] Creating layer fire2/relu_expand1x1
I0424 21:32:26.028698 23283 net.cpp:84] Creating Layer fire2/relu_expand1x1
I0424 21:32:26.028714 23283 net.cpp:406] fire2/relu_expand1x1 <- fire2/expand1x1
I0424 21:32:26.028734 23283 net.cpp:367] fire2/relu_expand1x1 -> fire2/expand1x1 (in-place)
I0424 21:32:26.029057 23283 net.cpp:122] Setting up fire2/relu_expand1x1
I0424 21:32:26.029079 23283 net.cpp:129] Top shape: 40 64 56 56 (8028160)
I0424 21:32:26.029091 23283 net.cpp:137] Memory required for data: 414693760
I0424 21:32:26.029099 23283 layer_factory.hpp:77] Creating layer fire2/expand3x3
I0424 21:32:26.029127 23283 net.cpp:84] Creating Layer fire2/expand3x3
I0424 21:32:26.029140 23283 net.cpp:406] fire2/expand3x3 <- fire2/squeeze1x1_fire2/relu_squeeze1x1_0_split_1
I0424 21:32:26.029160 23283 net.cpp:380] fire2/expand3x3 -> fire2/expand3x3
I0424 21:32:26.032627 23283 net.cpp:122] Setting up fire2/expand3x3
I0424 21:32:26.032711 23283 net.cpp:129] Top shape: 40 64 56 56 (8028160)
I0424 21:32:26.032722 23283 net.cpp:137] Memory required for data: 446806400
I0424 21:32:26.032747 23283 layer_factory.hpp:77] Creating layer fire2/relu_expand3x3
I0424 21:32:26.032768 23283 net.cpp:84] Creating Layer fire2/relu_expand3x3
I0424 21:32:26.032780 23283 net.cpp:406] fire2/relu_expand3x3 <- fire2/expand3x3
I0424 21:32:26.032797 23283 net.cpp:367] fire2/relu_expand3x3 -> fire2/expand3x3 (in-place)
I0424 21:32:26.033059 23283 net.cpp:122] Setting up fire2/relu_expand3x3
I0424 21:32:26.033078 23283 net.cpp:129] Top shape: 40 64 56 56 (8028160)
I0424 21:32:26.033087 23283 net.cpp:137] Memory required for data: 478919040
I0424 21:32:26.033094 23283 layer_factory.hpp:77] Creating layer fire2/concat
I0424 21:32:26.033108 23283 net.cpp:84] Creating Layer fire2/concat
I0424 21:32:26.033118 23283 net.cpp:406] fire2/concat <- fire2/expand1x1
I0424 21:32:26.033128 23283 net.cpp:406] fire2/concat <- fire2/expand3x3
I0424 21:32:26.033138 23283 net.cpp:380] fire2/concat -> fire2/concat
I0424 21:32:26.033202 23283 net.cpp:122] Setting up fire2/concat
I0424 21:32:26.033218 23283 net.cpp:129] Top shape: 40 128 56 56 (16056320)
I0424 21:32:26.033226 23283 net.cpp:137] Memory required for data: 543144320
I0424 21:32:26.033232 23283 layer_factory.hpp:77] Creating layer fire3/squeeze1x1
I0424 21:32:26.033255 23283 net.cpp:84] Creating Layer fire3/squeeze1x1
I0424 21:32:26.033263 23283 net.cpp:406] fire3/squeeze1x1 <- fire2/concat
I0424 21:32:26.033275 23283 net.cpp:380] fire3/squeeze1x1 -> fire3/squeeze1x1
I0424 21:32:26.036006 23283 net.cpp:122] Setting up fire3/squeeze1x1
I0424 21:32:26.036082 23283 net.cpp:129] Top shape: 40 16 56 56 (2007040)
I0424 21:32:26.036095 23283 net.cpp:137] Memory required for data: 551172480
I0424 21:32:26.036140 23283 layer_factory.hpp:77] Creating layer fire3/relu_squeeze1x1
I0424 21:32:26.036167 23283 net.cpp:84] Creating Layer fire3/relu_squeeze1x1
I0424 21:32:26.036180 23283 net.cpp:406] fire3/relu_squeeze1x1 <- fire3/squeeze1x1
I0424 21:32:26.036196 23283 net.cpp:367] fire3/relu_squeeze1x1 -> fire3/squeeze1x1 (in-place)
I0424 21:32:26.037508 23283 net.cpp:122] Setting up fire3/relu_squeeze1x1
I0424 21:32:26.037544 23283 net.cpp:129] Top shape: 40 16 56 56 (2007040)
I0424 21:32:26.037554 23283 net.cpp:137] Memory required for data: 559200640
I0424 21:32:26.037564 23283 layer_factory.hpp:77] Creating layer fire3/squeeze1x1_fire3/relu_squeeze1x1_0_split
I0424 21:32:26.037581 23283 net.cpp:84] Creating Layer fire3/squeeze1x1_fire3/relu_squeeze1x1_0_split
I0424 21:32:26.037865 23283 net.cpp:406] fire3/squeeze1x1_fire3/relu_squeeze1x1_0_split <- fire3/squeeze1x1
I0424 21:32:26.037891 23283 net.cpp:380] fire3/squeeze1x1_fire3/relu_squeeze1x1_0_split -> fire3/squeeze1x1_fire3/relu_squeeze1x1_0_split_0
I0424 21:32:26.037948 23283 net.cpp:380] fire3/squeeze1x1_fire3/relu_squeeze1x1_0_split -> fire3/squeeze1x1_fire3/relu_squeeze1x1_0_split_1
I0424 21:32:26.038043 23283 net.cpp:122] Setting up fire3/squeeze1x1_fire3/relu_squeeze1x1_0_split
I0424 21:32:26.038061 23283 net.cpp:129] Top shape: 40 16 56 56 (2007040)
I0424 21:32:26.038074 23283 net.cpp:129] Top shape: 40 16 56 56 (2007040)
I0424 21:32:26.038081 23283 net.cpp:137] Memory required for data: 575256960
I0424 21:32:26.038089 23283 layer_factory.hpp:77] Creating layer fire3/expand1x1
I0424 21:32:26.038115 23283 net.cpp:84] Creating Layer fire3/expand1x1
I0424 21:32:26.038125 23283 net.cpp:406] fire3/expand1x1 <- fire3/squeeze1x1_fire3/relu_squeeze1x1_0_split_0
I0424 21:32:26.038136 23283 net.cpp:380] fire3/expand1x1 -> fire3/expand1x1
I0424 21:32:26.039235 23283 net.cpp:122] Setting up fire3/expand1x1
I0424 21:32:26.039258 23283 net.cpp:129] Top shape: 40 64 56 56 (8028160)
I0424 21:32:26.039268 23283 net.cpp:137] Memory required for data: 607369600
I0424 21:32:26.039283 23283 layer_factory.hpp:77] Creating layer fire3/relu_expand1x1
I0424 21:32:26.039305 23283 net.cpp:84] Creating Layer fire3/relu_expand1x1
I0424 21:32:26.039314 23283 net.cpp:406] fire3/relu_expand1x1 <- fire3/expand1x1
I0424 21:32:26.039324 23283 net.cpp:367] fire3/relu_expand1x1 -> fire3/expand1x1 (in-place)
I0424 21:32:26.040266 23283 net.cpp:122] Setting up fire3/relu_expand1x1
I0424 21:32:26.040287 23283 net.cpp:129] Top shape: 40 64 56 56 (8028160)
I0424 21:32:26.040297 23283 net.cpp:137] Memory required for data: 639482240
I0424 21:32:26.040305 23283 layer_factory.hpp:77] Creating layer fire3/expand3x3
I0424 21:32:26.040323 23283 net.cpp:84] Creating Layer fire3/expand3x3
I0424 21:32:26.040333 23283 net.cpp:406] fire3/expand3x3 <- fire3/squeeze1x1_fire3/relu_squeeze1x1_0_split_1
I0424 21:32:26.040343 23283 net.cpp:380] fire3/expand3x3 -> fire3/expand3x3
I0424 21:32:26.042129 23283 net.cpp:122] Setting up fire3/expand3x3
I0424 21:32:26.042155 23283 net.cpp:129] Top shape: 40 64 56 56 (8028160)
I0424 21:32:26.042165 23283 net.cpp:137] Memory required for data: 671594880
I0424 21:32:26.042179 23283 layer_factory.hpp:77] Creating layer fire3/relu_expand3x3
I0424 21:32:26.042193 23283 net.cpp:84] Creating Layer fire3/relu_expand3x3
I0424 21:32:26.042202 23283 net.cpp:406] fire3/relu_expand3x3 <- fire3/expand3x3
I0424 21:32:26.042212 23283 net.cpp:367] fire3/relu_expand3x3 -> fire3/expand3x3 (in-place)
I0424 21:32:26.042433 23283 net.cpp:122] Setting up fire3/relu_expand3x3
I0424 21:32:26.042454 23283 net.cpp:129] Top shape: 40 64 56 56 (8028160)
I0424 21:32:26.042462 23283 net.cpp:137] Memory required for data: 703707520
I0424 21:32:26.042469 23283 layer_factory.hpp:77] Creating layer fire3/concat
I0424 21:32:26.042479 23283 net.cpp:84] Creating Layer fire3/concat
I0424 21:32:26.042488 23283 net.cpp:406] fire3/concat <- fire3/expand1x1
I0424 21:32:26.042496 23283 net.cpp:406] fire3/concat <- fire3/expand3x3
I0424 21:32:26.042506 23283 net.cpp:380] fire3/concat -> fire3/concat
I0424 21:32:26.042546 23283 net.cpp:122] Setting up fire3/concat
I0424 21:32:26.042562 23283 net.cpp:129] Top shape: 40 128 56 56 (16056320)
I0424 21:32:26.042569 23283 net.cpp:137] Memory required for data: 767932800
I0424 21:32:26.042577 23283 layer_factory.hpp:77] Creating layer pool3
I0424 21:32:26.042589 23283 net.cpp:84] Creating Layer pool3
I0424 21:32:26.042598 23283 net.cpp:406] pool3 <- fire3/concat
I0424 21:32:26.042609 23283 net.cpp:380] pool3 -> pool3
I0424 21:32:26.042683 23283 net.cpp:122] Setting up pool3
I0424 21:32:26.042702 23283 net.cpp:129] Top shape: 40 128 28 28 (4014080)
I0424 21:32:26.042711 23283 net.cpp:137] Memory required for data: 783989120
I0424 21:32:26.042718 23283 layer_factory.hpp:77] Creating layer fire4/squeeze1x1
I0424 21:32:26.042733 23283 net.cpp:84] Creating Layer fire4/squeeze1x1
I0424 21:32:26.042868 23283 net.cpp:406] fire4/squeeze1x1 <- pool3
I0424 21:32:26.042887 23283 net.cpp:380] fire4/squeeze1x1 -> fire4/squeeze1x1
I0424 21:32:26.044626 23283 net.cpp:122] Setting up fire4/squeeze1x1
I0424 21:32:26.044651 23283 net.cpp:129] Top shape: 40 32 28 28 (1003520)
I0424 21:32:26.044659 23283 net.cpp:137] Memory required for data: 788003200
I0424 21:32:26.044674 23283 layer_factory.hpp:77] Creating layer fire4/relu_squeeze1x1
I0424 21:32:26.044687 23283 net.cpp:84] Creating Layer fire4/relu_squeeze1x1
I0424 21:32:26.044693 23283 net.cpp:406] fire4/relu_squeeze1x1 <- fire4/squeeze1x1
I0424 21:32:26.044704 23283 net.cpp:367] fire4/relu_squeeze1x1 -> fire4/squeeze1x1 (in-place)
I0424 21:32:26.044924 23283 net.cpp:122] Setting up fire4/relu_squeeze1x1
I0424 21:32:26.044941 23283 net.cpp:129] Top shape: 40 32 28 28 (1003520)
I0424 21:32:26.044950 23283 net.cpp:137] Memory required for data: 792017280
I0424 21:32:26.044956 23283 layer_factory.hpp:77] Creating layer fire4/squeeze1x1_fire4/relu_squeeze1x1_0_split
I0424 21:32:26.044970 23283 net.cpp:84] Creating Layer fire4/squeeze1x1_fire4/relu_squeeze1x1_0_split
I0424 21:32:26.044976 23283 net.cpp:406] fire4/squeeze1x1_fire4/relu_squeeze1x1_0_split <- fire4/squeeze1x1
I0424 21:32:26.044989 23283 net.cpp:380] fire4/squeeze1x1_fire4/relu_squeeze1x1_0_split -> fire4/squeeze1x1_fire4/relu_squeeze1x1_0_split_0
I0424 21:32:26.045002 23283 net.cpp:380] fire4/squeeze1x1_fire4/relu_squeeze1x1_0_split -> fire4/squeeze1x1_fire4/relu_squeeze1x1_0_split_1
I0424 21:32:26.045056 23283 net.cpp:122] Setting up fire4/squeeze1x1_fire4/relu_squeeze1x1_0_split
I0424 21:32:26.045069 23283 net.cpp:129] Top shape: 40 32 28 28 (1003520)
I0424 21:32:26.045079 23283 net.cpp:129] Top shape: 40 32 28 28 (1003520)
I0424 21:32:26.045085 23283 net.cpp:137] Memory required for data: 800045440
I0424 21:32:26.045094 23283 layer_factory.hpp:77] Creating layer fire4/expand1x1
I0424 21:32:26.045110 23283 net.cpp:84] Creating Layer fire4/expand1x1
I0424 21:32:26.045120 23283 net.cpp:406] fire4/expand1x1 <- fire4/squeeze1x1_fire4/relu_squeeze1x1_0_split_0
I0424 21:32:26.045131 23283 net.cpp:380] fire4/expand1x1 -> fire4/expand1x1
I0424 21:32:26.046836 23283 net.cpp:122] Setting up fire4/expand1x1
I0424 21:32:26.046862 23283 net.cpp:129] Top shape: 40 128 28 28 (4014080)
I0424 21:32:26.046870 23283 net.cpp:137] Memory required for data: 816101760
I0424 21:32:26.046897 23283 layer_factory.hpp:77] Creating layer fire4/relu_expand1x1
I0424 21:32:26.046912 23283 net.cpp:84] Creating Layer fire4/relu_expand1x1
I0424 21:32:26.046921 23283 net.cpp:406] fire4/relu_expand1x1 <- fire4/expand1x1
I0424 21:32:26.046931 23283 net.cpp:367] fire4/relu_expand1x1 -> fire4/expand1x1 (in-place)
I0424 21:32:26.047163 23283 net.cpp:122] Setting up fire4/relu_expand1x1
I0424 21:32:26.047179 23283 net.cpp:129] Top shape: 40 128 28 28 (4014080)
I0424 21:32:26.047185 23283 net.cpp:137] Memory required for data: 832158080
I0424 21:32:26.047191 23283 layer_factory.hpp:77] Creating layer fire4/expand3x3
I0424 21:32:26.047207 23283 net.cpp:84] Creating Layer fire4/expand3x3
I0424 21:32:26.047216 23283 net.cpp:406] fire4/expand3x3 <- fire4/squeeze1x1_fire4/relu_squeeze1x1_0_split_1
I0424 21:32:26.047228 23283 net.cpp:380] fire4/expand3x3 -> fire4/expand3x3
I0424 21:32:26.052561 23283 net.cpp:122] Setting up fire4/expand3x3
I0424 21:32:26.052633 23283 net.cpp:129] Top shape: 40 128 28 28 (4014080)
I0424 21:32:26.052640 23283 net.cpp:137] Memory required for data: 848214400
I0424 21:32:26.052664 23283 layer_factory.hpp:77] Creating layer fire4/relu_expand3x3
I0424 21:32:26.052682 23283 net.cpp:84] Creating Layer fire4/relu_expand3x3
I0424 21:32:26.052692 23283 net.cpp:406] fire4/relu_expand3x3 <- fire4/expand3x3
I0424 21:32:26.052706 23283 net.cpp:367] fire4/relu_expand3x3 -> fire4/expand3x3 (in-place)
I0424 21:32:26.053023 23283 net.cpp:122] Setting up fire4/relu_expand3x3
I0424 21:32:26.053045 23283 net.cpp:129] Top shape: 40 128 28 28 (4014080)
I0424 21:32:26.053051 23283 net.cpp:137] Memory required for data: 864270720
I0424 21:32:26.053232 23283 layer_factory.hpp:77] Creating layer fire4/concat
I0424 21:32:26.053251 23283 net.cpp:84] Creating Layer fire4/concat
I0424 21:32:26.053261 23283 net.cpp:406] fire4/concat <- fire4/expand1x1
I0424 21:32:26.053299 23283 net.cpp:406] fire4/concat <- fire4/expand3x3
I0424 21:32:26.053313 23283 net.cpp:380] fire4/concat -> fire4/concat
I0424 21:32:26.053422 23283 net.cpp:122] Setting up fire4/concat
I0424 21:32:26.053436 23283 net.cpp:129] Top shape: 40 256 28 28 (8028160)
I0424 21:32:26.053442 23283 net.cpp:137] Memory required for data: 896383360
I0424 21:32:26.053449 23283 layer_factory.hpp:77] Creating layer fire5/squeeze1x1
I0424 21:32:26.053475 23283 net.cpp:84] Creating Layer fire5/squeeze1x1
I0424 21:32:26.053484 23283 net.cpp:406] fire5/squeeze1x1 <- fire4/concat
I0424 21:32:26.053498 23283 net.cpp:380] fire5/squeeze1x1 -> fire5/squeeze1x1
I0424 21:32:26.056422 23283 net.cpp:122] Setting up fire5/squeeze1x1
I0424 21:32:26.056565 23283 net.cpp:129] Top shape: 40 32 28 28 (1003520)
I0424 21:32:26.056572 23283 net.cpp:137] Memory required for data: 900397440
I0424 21:32:26.056602 23283 layer_factory.hpp:77] Creating layer fire5/relu_squeeze1x1
I0424 21:32:26.056632 23283 net.cpp:84] Creating Layer fire5/relu_squeeze1x1
I0424 21:32:26.056640 23283 net.cpp:406] fire5/relu_squeeze1x1 <- fire5/squeeze1x1
I0424 21:32:26.056659 23283 net.cpp:367] fire5/relu_squeeze1x1 -> fire5/squeeze1x1 (in-place)
I0424 21:32:26.057900 23283 net.cpp:122] Setting up fire5/relu_squeeze1x1
I0424 21:32:26.057946 23283 net.cpp:129] Top shape: 40 32 28 28 (1003520)
I0424 21:32:26.057953 23283 net.cpp:137] Memory required for data: 904411520
I0424 21:32:26.057962 23283 layer_factory.hpp:77] Creating layer fire5/squeeze1x1_fire5/relu_squeeze1x1_0_split
I0424 21:32:26.057982 23283 net.cpp:84] Creating Layer fire5/squeeze1x1_fire5/relu_squeeze1x1_0_split
I0424 21:32:26.057996 23283 net.cpp:406] fire5/squeeze1x1_fire5/relu_squeeze1x1_0_split <- fire5/squeeze1x1
I0424 21:32:26.058015 23283 net.cpp:380] fire5/squeeze1x1_fire5/relu_squeeze1x1_0_split -> fire5/squeeze1x1_fire5/relu_squeeze1x1_0_split_0
I0424 21:32:26.058044 23283 net.cpp:380] fire5/squeeze1x1_fire5/relu_squeeze1x1_0_split -> fire5/squeeze1x1_fire5/relu_squeeze1x1_0_split_1
I0424 21:32:26.058151 23283 net.cpp:122] Setting up fire5/squeeze1x1_fire5/relu_squeeze1x1_0_split
I0424 21:32:26.058167 23283 net.cpp:129] Top shape: 40 32 28 28 (1003520)
I0424 21:32:26.058182 23283 net.cpp:129] Top shape: 40 32 28 28 (1003520)
I0424 21:32:26.058188 23283 net.cpp:137] Memory required for data: 912439680
I0424 21:32:26.058197 23283 layer_factory.hpp:77] Creating layer fire5/expand1x1
I0424 21:32:26.058244 23283 net.cpp:84] Creating Layer fire5/expand1x1
I0424 21:32:26.058254 23283 net.cpp:406] fire5/expand1x1 <- fire5/squeeze1x1_fire5/relu_squeeze1x1_0_split_0
I0424 21:32:26.058265 23283 net.cpp:380] fire5/expand1x1 -> fire5/expand1x1
I0424 21:32:26.059249 23283 net.cpp:122] Setting up fire5/expand1x1
I0424 21:32:26.059286 23283 net.cpp:129] Top shape: 40 128 28 28 (4014080)
I0424 21:32:26.059293 23283 net.cpp:137] Memory required for data: 928496000
I0424 21:32:26.059311 23283 layer_factory.hpp:77] Creating layer fire5/relu_expand1x1
I0424 21:32:26.059327 23283 net.cpp:84] Creating Layer fire5/relu_expand1x1
I0424 21:32:26.059334 23283 net.cpp:406] fire5/relu_expand1x1 <- fire5/expand1x1
I0424 21:32:26.059345 23283 net.cpp:367] fire5/relu_expand1x1 -> fire5/expand1x1 (in-place)
I0424 21:32:26.060755 23283 net.cpp:122] Setting up fire5/relu_expand1x1
I0424 21:32:26.060782 23283 net.cpp:129] Top shape: 40 128 28 28 (4014080)
I0424 21:32:26.060791 23283 net.cpp:137] Memory required for data: 944552320
I0424 21:32:26.060796 23283 layer_factory.hpp:77] Creating layer fire5/expand3x3
I0424 21:32:26.060822 23283 net.cpp:84] Creating Layer fire5/expand3x3
I0424 21:32:26.060832 23283 net.cpp:406] fire5/expand3x3 <- fire5/squeeze1x1_fire5/relu_squeeze1x1_0_split_1
I0424 21:32:26.060848 23283 net.cpp:380] fire5/expand3x3 -> fire5/expand3x3
I0424 21:32:26.063479 23283 net.cpp:122] Setting up fire5/expand3x3
I0424 21:32:26.063526 23283 net.cpp:129] Top shape: 40 128 28 28 (4014080)
I0424 21:32:26.063531 23283 net.cpp:137] Memory required for data: 960608640
I0424 21:32:26.063587 23283 layer_factory.hpp:77] Creating layer fire5/relu_expand3x3
I0424 21:32:26.063601 23283 net.cpp:84] Creating Layer fire5/relu_expand3x3
I0424 21:32:26.063606 23283 net.cpp:406] fire5/relu_expand3x3 <- fire5/expand3x3
I0424 21:32:26.063618 23283 net.cpp:367] fire5/relu_expand3x3 -> fire5/expand3x3 (in-place)
I0424 21:32:26.064450 23283 net.cpp:122] Setting up fire5/relu_expand3x3
I0424 21:32:26.064472 23283 net.cpp:129] Top shape: 40 128 28 28 (4014080)
I0424 21:32:26.064476 23283 net.cpp:137] Memory required for data: 976664960
I0424 21:32:26.064481 23283 layer_factory.hpp:77] Creating layer fire5/concat
I0424 21:32:26.064493 23283 net.cpp:84] Creating Layer fire5/concat
I0424 21:32:26.064498 23283 net.cpp:406] fire5/concat <- fire5/expand1x1
I0424 21:32:26.064504 23283 net.cpp:406] fire5/concat <- fire5/expand3x3
I0424 21:32:26.064510 23283 net.cpp:380] fire5/concat -> fire5/concat
I0424 21:32:26.064548 23283 net.cpp:122] Setting up fire5/concat
I0424 21:32:26.064556 23283 net.cpp:129] Top shape: 40 256 28 28 (8028160)
I0424 21:32:26.064560 23283 net.cpp:137] Memory required for data: 1008777600
I0424 21:32:26.064564 23283 layer_factory.hpp:77] Creating layer pool5
I0424 21:32:26.064579 23283 net.cpp:84] Creating Layer pool5
I0424 21:32:26.064582 23283 net.cpp:406] pool5 <- fire5/concat
I0424 21:32:26.064590 23283 net.cpp:380] pool5 -> pool5
I0424 21:32:26.064638 23283 net.cpp:122] Setting up pool5
I0424 21:32:26.064647 23283 net.cpp:129] Top shape: 40 256 14 14 (2007040)
I0424 21:32:26.064651 23283 net.cpp:137] Memory required for data: 1016805760
I0424 21:32:26.064656 23283 layer_factory.hpp:77] Creating layer fire6/squeeze1x1
I0424 21:32:26.064676 23283 net.cpp:84] Creating Layer fire6/squeeze1x1
I0424 21:32:26.064680 23283 net.cpp:406] fire6/squeeze1x1 <- pool5
I0424 21:32:26.064688 23283 net.cpp:380] fire6/squeeze1x1 -> fire6/squeeze1x1
I0424 21:32:26.067988 23283 net.cpp:122] Setting up fire6/squeeze1x1
I0424 21:32:26.068086 23283 net.cpp:129] Top shape: 40 48 14 14 (376320)
I0424 21:32:26.068104 23283 net.cpp:137] Memory required for data: 1018311040
I0424 21:32:26.068152 23283 layer_factory.hpp:77] Creating layer fire6/relu_squeeze1x1
I0424 21:32:26.068199 23283 net.cpp:84] Creating Layer fire6/relu_squeeze1x1
I0424 21:32:26.068219 23283 net.cpp:406] fire6/relu_squeeze1x1 <- fire6/squeeze1x1
I0424 21:32:26.068245 23283 net.cpp:367] fire6/relu_squeeze1x1 -> fire6/squeeze1x1 (in-place)
I0424 21:32:26.068554 23283 net.cpp:122] Setting up fire6/relu_squeeze1x1
I0424 21:32:26.068574 23283 net.cpp:129] Top shape: 40 48 14 14 (376320)
I0424 21:32:26.068583 23283 net.cpp:137] Memory required for data: 1019816320
I0424 21:32:26.068593 23283 layer_factory.hpp:77] Creating layer fire6/squeeze1x1_fire6/relu_squeeze1x1_0_split
I0424 21:32:26.068608 23283 net.cpp:84] Creating Layer fire6/squeeze1x1_fire6/relu_squeeze1x1_0_split
I0424 21:32:26.068617 23283 net.cpp:406] fire6/squeeze1x1_fire6/relu_squeeze1x1_0_split <- fire6/squeeze1x1
I0424 21:32:26.068634 23283 net.cpp:380] fire6/squeeze1x1_fire6/relu_squeeze1x1_0_split -> fire6/squeeze1x1_fire6/relu_squeeze1x1_0_split_0
I0424 21:32:26.068655 23283 net.cpp:380] fire6/squeeze1x1_fire6/relu_squeeze1x1_0_split -> fire6/squeeze1x1_fire6/relu_squeeze1x1_0_split_1
I0424 21:32:26.068775 23283 net.cpp:122] Setting up fire6/squeeze1x1_fire6/relu_squeeze1x1_0_split
I0424 21:32:26.068796 23283 net.cpp:129] Top shape: 40 48 14 14 (376320)
I0424 21:32:26.068812 23283 net.cpp:129] Top shape: 40 48 14 14 (376320)
I0424 21:32:26.068820 23283 net.cpp:137] Memory required for data: 1022826880
I0424 21:32:26.068831 23283 layer_factory.hpp:77] Creating layer fire6/expand1x1
I0424 21:32:26.068868 23283 net.cpp:84] Creating Layer fire6/expand1x1
I0424 21:32:26.068879 23283 net.cpp:406] fire6/expand1x1 <- fire6/squeeze1x1_fire6/relu_squeeze1x1_0_split_0
I0424 21:32:26.069123 23283 net.cpp:380] fire6/expand1x1 -> fire6/expand1x1
I0424 21:32:26.071553 23283 net.cpp:122] Setting up fire6/expand1x1
I0424 21:32:26.071605 23283 net.cpp:129] Top shape: 40 192 14 14 (1505280)
I0424 21:32:26.071692 23283 net.cpp:137] Memory required for data: 1028848000
I0424 21:32:26.071734 23283 layer_factory.hpp:77] Creating layer fire6/relu_expand1x1
I0424 21:32:26.071755 23283 net.cpp:84] Creating Layer fire6/relu_expand1x1
I0424 21:32:26.071766 23283 net.cpp:406] fire6/relu_expand1x1 <- fire6/expand1x1
I0424 21:32:26.071784 23283 net.cpp:367] fire6/relu_expand1x1 -> fire6/expand1x1 (in-place)
I0424 21:32:26.072026 23283 net.cpp:122] Setting up fire6/relu_expand1x1
I0424 21:32:26.072041 23283 net.cpp:129] Top shape: 40 192 14 14 (1505280)
I0424 21:32:26.072047 23283 net.cpp:137] Memory required for data: 1034869120
I0424 21:32:26.072053 23283 layer_factory.hpp:77] Creating layer fire6/expand3x3
I0424 21:32:26.072069 23283 net.cpp:84] Creating Layer fire6/expand3x3
I0424 21:32:26.072077 23283 net.cpp:406] fire6/expand3x3 <- fire6/squeeze1x1_fire6/relu_squeeze1x1_0_split_1
I0424 21:32:26.072087 23283 net.cpp:380] fire6/expand3x3 -> fire6/expand3x3
I0424 21:32:26.077452 23283 net.cpp:122] Setting up fire6/expand3x3
I0424 21:32:26.077581 23283 net.cpp:129] Top shape: 40 192 14 14 (1505280)
I0424 21:32:26.077591 23283 net.cpp:137] Memory required for data: 1040890240
I0424 21:32:26.077625 23283 layer_factory.hpp:77] Creating layer fire6/relu_expand3x3
I0424 21:32:26.077656 23283 net.cpp:84] Creating Layer fire6/relu_expand3x3
I0424 21:32:26.077669 23283 net.cpp:406] fire6/relu_expand3x3 <- fire6/expand3x3
I0424 21:32:26.077692 23283 net.cpp:367] fire6/relu_expand3x3 -> fire6/expand3x3 (in-place)
I0424 21:32:26.077975 23283 net.cpp:122] Setting up fire6/relu_expand3x3
I0424 21:32:26.077996 23283 net.cpp:129] Top shape: 40 192 14 14 (1505280)
I0424 21:32:26.078004 23283 net.cpp:137] Memory required for data: 1046911360
I0424 21:32:26.078011 23283 layer_factory.hpp:77] Creating layer fire6/concat
I0424 21:32:26.078027 23283 net.cpp:84] Creating Layer fire6/concat
I0424 21:32:26.078034 23283 net.cpp:406] fire6/concat <- fire6/expand1x1
I0424 21:32:26.078044 23283 net.cpp:406] fire6/concat <- fire6/expand3x3
I0424 21:32:26.078053 23283 net.cpp:380] fire6/concat -> fire6/concat
I0424 21:32:26.078140 23283 net.cpp:122] Setting up fire6/concat
I0424 21:32:26.078155 23283 net.cpp:129] Top shape: 40 384 14 14 (3010560)
I0424 21:32:26.078162 23283 net.cpp:137] Memory required for data: 1058953600
I0424 21:32:26.078168 23283 layer_factory.hpp:77] Creating layer fire7/squeeze1x1
I0424 21:32:26.078193 23283 net.cpp:84] Creating Layer fire7/squeeze1x1
I0424 21:32:26.078202 23283 net.cpp:406] fire7/squeeze1x1 <- fire6/concat
I0424 21:32:26.078212 23283 net.cpp:380] fire7/squeeze1x1 -> fire7/squeeze1x1
I0424 21:32:26.081271 23283 net.cpp:122] Setting up fire7/squeeze1x1
I0424 21:32:26.081315 23283 net.cpp:129] Top shape: 40 48 14 14 (376320)
I0424 21:32:26.081321 23283 net.cpp:137] Memory required for data: 1060458880
I0424 21:32:26.081349 23283 layer_factory.hpp:77] Creating layer fire7/relu_squeeze1x1
I0424 21:32:26.081367 23283 net.cpp:84] Creating Layer fire7/relu_squeeze1x1
I0424 21:32:26.081374 23283 net.cpp:406] fire7/relu_squeeze1x1 <- fire7/squeeze1x1
I0424 21:32:26.081385 23283 net.cpp:367] fire7/relu_squeeze1x1 -> fire7/squeeze1x1 (in-place)
I0424 21:32:26.082330 23283 net.cpp:122] Setting up fire7/relu_squeeze1x1
I0424 21:32:26.082352 23283 net.cpp:129] Top shape: 40 48 14 14 (376320)
I0424 21:32:26.082361 23283 net.cpp:137] Memory required for data: 1061964160
I0424 21:32:26.082368 23283 layer_factory.hpp:77] Creating layer fire7/squeeze1x1_fire7/relu_squeeze1x1_0_split
I0424 21:32:26.082381 23283 net.cpp:84] Creating Layer fire7/squeeze1x1_fire7/relu_squeeze1x1_0_split
I0424 21:32:26.082389 23283 net.cpp:406] fire7/squeeze1x1_fire7/relu_squeeze1x1_0_split <- fire7/squeeze1x1
I0424 21:32:26.082401 23283 net.cpp:380] fire7/squeeze1x1_fire7/relu_squeeze1x1_0_split -> fire7/squeeze1x1_fire7/relu_squeeze1x1_0_split_0
I0424 21:32:26.082520 23283 net.cpp:380] fire7/squeeze1x1_fire7/relu_squeeze1x1_0_split -> fire7/squeeze1x1_fire7/relu_squeeze1x1_0_split_1
I0424 21:32:26.082597 23283 net.cpp:122] Setting up fire7/squeeze1x1_fire7/relu_squeeze1x1_0_split
I0424 21:32:26.082629 23283 net.cpp:129] Top shape: 40 48 14 14 (376320)
I0424 21:32:26.082648 23283 net.cpp:129] Top shape: 40 48 14 14 (376320)
I0424 21:32:26.082656 23283 net.cpp:137] Memory required for data: 1064974720
I0424 21:32:26.082664 23283 layer_factory.hpp:77] Creating layer fire7/expand1x1
I0424 21:32:26.082681 23283 net.cpp:84] Creating Layer fire7/expand1x1
I0424 21:32:26.082690 23283 net.cpp:406] fire7/expand1x1 <- fire7/squeeze1x1_fire7/relu_squeeze1x1_0_split_0
I0424 21:32:26.082701 23283 net.cpp:380] fire7/expand1x1 -> fire7/expand1x1
I0424 21:32:26.083851 23283 net.cpp:122] Setting up fire7/expand1x1
I0424 21:32:26.083873 23283 net.cpp:129] Top shape: 40 192 14 14 (1505280)
I0424 21:32:26.083880 23283 net.cpp:137] Memory required for data: 1070995840
I0424 21:32:26.083894 23283 layer_factory.hpp:77] Creating layer fire7/relu_expand1x1
I0424 21:32:26.083909 23283 net.cpp:84] Creating Layer fire7/relu_expand1x1
I0424 21:32:26.083917 23283 net.cpp:406] fire7/relu_expand1x1 <- fire7/expand1x1
I0424 21:32:26.083927 23283 net.cpp:367] fire7/relu_expand1x1 -> fire7/expand1x1 (in-place)
I0424 21:32:26.084861 23283 net.cpp:122] Setting up fire7/relu_expand1x1
I0424 21:32:26.084880 23283 net.cpp:129] Top shape: 40 192 14 14 (1505280)
I0424 21:32:26.084889 23283 net.cpp:137] Memory required for data: 1077016960
I0424 21:32:26.084895 23283 layer_factory.hpp:77] Creating layer fire7/expand3x3
I0424 21:32:26.084914 23283 net.cpp:84] Creating Layer fire7/expand3x3
I0424 21:32:26.084930 23283 net.cpp:406] fire7/expand3x3 <- fire7/squeeze1x1_fire7/relu_squeeze1x1_0_split_1
I0424 21:32:26.084942 23283 net.cpp:380] fire7/expand3x3 -> fire7/expand3x3
I0424 21:32:26.088027 23283 net.cpp:122] Setting up fire7/expand3x3
I0424 21:32:26.088064 23283 net.cpp:129] Top shape: 40 192 14 14 (1505280)
I0424 21:32:26.088075 23283 net.cpp:137] Memory required for data: 1083038080
I0424 21:32:26.088090 23283 layer_factory.hpp:77] Creating layer fire7/relu_expand3x3
I0424 21:32:26.088107 23283 net.cpp:84] Creating Layer fire7/relu_expand3x3
I0424 21:32:26.088119 23283 net.cpp:406] fire7/relu_expand3x3 <- fire7/expand3x3
I0424 21:32:26.088130 23283 net.cpp:367] fire7/relu_expand3x3 -> fire7/expand3x3 (in-place)
I0424 21:32:26.088389 23283 net.cpp:122] Setting up fire7/relu_expand3x3
I0424 21:32:26.088407 23283 net.cpp:129] Top shape: 40 192 14 14 (1505280)
I0424 21:32:26.088414 23283 net.cpp:137] Memory required for data: 1089059200
I0424 21:32:26.088423 23283 layer_factory.hpp:77] Creating layer fire7/concat
I0424 21:32:26.088433 23283 net.cpp:84] Creating Layer fire7/concat
I0424 21:32:26.088444 23283 net.cpp:406] fire7/concat <- fire7/expand1x1
I0424 21:32:26.088454 23283 net.cpp:406] fire7/concat <- fire7/expand3x3
I0424 21:32:26.088464 23283 net.cpp:380] fire7/concat -> fire7/concat
I0424 21:32:26.088517 23283 net.cpp:122] Setting up fire7/concat
I0424 21:32:26.088532 23283 net.cpp:129] Top shape: 40 384 14 14 (3010560)
I0424 21:32:26.088539 23283 net.cpp:137] Memory required for data: 1101101440
I0424 21:32:26.088547 23283 layer_factory.hpp:77] Creating layer fire8/squeeze1x1
I0424 21:32:26.088563 23283 net.cpp:84] Creating Layer fire8/squeeze1x1
I0424 21:32:26.088572 23283 net.cpp:406] fire8/squeeze1x1 <- fire7/concat
I0424 21:32:26.088582 23283 net.cpp:380] fire8/squeeze1x1 -> fire8/squeeze1x1
I0424 21:32:26.090697 23283 net.cpp:122] Setting up fire8/squeeze1x1
I0424 21:32:26.090736 23283 net.cpp:129] Top shape: 40 64 14 14 (501760)
I0424 21:32:26.090745 23283 net.cpp:137] Memory required for data: 1103108480
I0424 21:32:26.090761 23283 layer_factory.hpp:77] Creating layer fire8/relu_squeeze1x1
I0424 21:32:26.090777 23283 net.cpp:84] Creating Layer fire8/relu_squeeze1x1
I0424 21:32:26.090786 23283 net.cpp:406] fire8/relu_squeeze1x1 <- fire8/squeeze1x1
I0424 21:32:26.090801 23283 net.cpp:367] fire8/relu_squeeze1x1 -> fire8/squeeze1x1 (in-place)
I0424 21:32:26.091163 23283 net.cpp:122] Setting up fire8/relu_squeeze1x1
I0424 21:32:26.091183 23283 net.cpp:129] Top shape: 40 64 14 14 (501760)
I0424 21:32:26.091215 23283 net.cpp:137] Memory required for data: 1105115520
I0424 21:32:26.091224 23283 layer_factory.hpp:77] Creating layer fire8/squeeze1x1_fire8/relu_squeeze1x1_0_split
I0424 21:32:26.091235 23283 net.cpp:84] Creating Layer fire8/squeeze1x1_fire8/relu_squeeze1x1_0_split
I0424 21:32:26.091243 23283 net.cpp:406] fire8/squeeze1x1_fire8/relu_squeeze1x1_0_split <- fire8/squeeze1x1
I0424 21:32:26.091256 23283 net.cpp:380] fire8/squeeze1x1_fire8/relu_squeeze1x1_0_split -> fire8/squeeze1x1_fire8/relu_squeeze1x1_0_split_0
I0424 21:32:26.091270 23283 net.cpp:380] fire8/squeeze1x1_fire8/relu_squeeze1x1_0_split -> fire8/squeeze1x1_fire8/relu_squeeze1x1_0_split_1
I0424 21:32:26.091347 23283 net.cpp:122] Setting up fire8/squeeze1x1_fire8/relu_squeeze1x1_0_split
I0424 21:32:26.091364 23283 net.cpp:129] Top shape: 40 64 14 14 (501760)
I0424 21:32:26.091373 23283 net.cpp:129] Top shape: 40 64 14 14 (501760)
I0424 21:32:26.091379 23283 net.cpp:137] Memory required for data: 1109129600
I0424 21:32:26.091387 23283 layer_factory.hpp:77] Creating layer fire8/expand1x1
I0424 21:32:26.091408 23283 net.cpp:84] Creating Layer fire8/expand1x1
I0424 21:32:26.091418 23283 net.cpp:406] fire8/expand1x1 <- fire8/squeeze1x1_fire8/relu_squeeze1x1_0_split_0
I0424 21:32:26.091428 23283 net.cpp:380] fire8/expand1x1 -> fire8/expand1x1
I0424 21:32:26.093523 23283 net.cpp:122] Setting up fire8/expand1x1
I0424 21:32:26.093559 23283 net.cpp:129] Top shape: 40 256 14 14 (2007040)
I0424 21:32:26.093569 23283 net.cpp:137] Memory required for data: 1117157760
I0424 21:32:26.093586 23283 layer_factory.hpp:77] Creating layer fire8/relu_expand1x1
I0424 21:32:26.093605 23283 net.cpp:84] Creating Layer fire8/relu_expand1x1
I0424 21:32:26.093617 23283 net.cpp:406] fire8/relu_expand1x1 <- fire8/expand1x1
I0424 21:32:26.093628 23283 net.cpp:367] fire8/relu_expand1x1 -> fire8/expand1x1 (in-place)
I0424 21:32:26.093878 23283 net.cpp:122] Setting up fire8/relu_expand1x1
I0424 21:32:26.093896 23283 net.cpp:129] Top shape: 40 256 14 14 (2007040)
I0424 21:32:26.093904 23283 net.cpp:137] Memory required for data: 1125185920
I0424 21:32:26.093911 23283 layer_factory.hpp:77] Creating layer fire8/expand3x3
I0424 21:32:26.093940 23283 net.cpp:84] Creating Layer fire8/expand3x3
I0424 21:32:26.093948 23283 net.cpp:406] fire8/expand3x3 <- fire8/squeeze1x1_fire8/relu_squeeze1x1_0_split_1
I0424 21:32:26.093963 23283 net.cpp:380] fire8/expand3x3 -> fire8/expand3x3
I0424 21:32:26.098562 23283 net.cpp:122] Setting up fire8/expand3x3
I0424 21:32:26.098717 23283 net.cpp:129] Top shape: 40 256 14 14 (2007040)
I0424 21:32:26.098738 23283 net.cpp:137] Memory required for data: 1133214080
I0424 21:32:26.098783 23283 layer_factory.hpp:77] Creating layer fire8/relu_expand3x3
I0424 21:32:26.098809 23283 net.cpp:84] Creating Layer fire8/relu_expand3x3
I0424 21:32:26.098834 23283 net.cpp:406] fire8/relu_expand3x3 <- fire8/expand3x3
I0424 21:32:26.098857 23283 net.cpp:367] fire8/relu_expand3x3 -> fire8/expand3x3 (in-place)
I0424 21:32:26.099192 23283 net.cpp:122] Setting up fire8/relu_expand3x3
I0424 21:32:26.099225 23283 net.cpp:129] Top shape: 40 256 14 14 (2007040)
I0424 21:32:26.099246 23283 net.cpp:137] Memory required for data: 1141242240
I0424 21:32:26.099267 23283 layer_factory.hpp:77] Creating layer fire8/concat
I0424 21:32:26.099292 23283 net.cpp:84] Creating Layer fire8/concat
I0424 21:32:26.099314 23283 net.cpp:406] fire8/concat <- fire8/expand1x1
I0424 21:32:26.099339 23283 net.cpp:406] fire8/concat <- fire8/expand3x3
I0424 21:32:26.099365 23283 net.cpp:380] fire8/concat -> fire8/concat
I0424 21:32:26.099473 23283 net.cpp:122] Setting up fire8/concat
I0424 21:32:26.099503 23283 net.cpp:129] Top shape: 40 512 14 14 (4014080)
I0424 21:32:26.099524 23283 net.cpp:137] Memory required for data: 1157298560
I0424 21:32:26.099546 23283 layer_factory.hpp:77] Creating layer fire9/squeeze1x1
I0424 21:32:26.099809 23283 net.cpp:84] Creating Layer fire9/squeeze1x1
I0424 21:32:26.099833 23283 net.cpp:406] fire9/squeeze1x1 <- fire8/concat
I0424 21:32:26.099862 23283 net.cpp:380] fire9/squeeze1x1 -> fire9/squeeze1x1
I0424 21:32:26.105463 23283 net.cpp:122] Setting up fire9/squeeze1x1
I0424 21:32:26.105628 23283 net.cpp:129] Top shape: 40 64 14 14 (501760)
I0424 21:32:26.105641 23283 net.cpp:137] Memory required for data: 1159305600
I0424 21:32:26.105675 23283 layer_factory.hpp:77] Creating layer fire9/relu_squeeze1x1
I0424 21:32:26.105722 23283 net.cpp:84] Creating Layer fire9/relu_squeeze1x1
I0424 21:32:26.105738 23283 net.cpp:406] fire9/relu_squeeze1x1 <- fire9/squeeze1x1
I0424 21:32:26.105759 23283 net.cpp:367] fire9/relu_squeeze1x1 -> fire9/squeeze1x1 (in-place)
I0424 21:32:26.107436 23283 net.cpp:122] Setting up fire9/relu_squeeze1x1
I0424 21:32:26.107494 23283 net.cpp:129] Top shape: 40 64 14 14 (501760)
I0424 21:32:26.107506 23283 net.cpp:137] Memory required for data: 1161312640
I0424 21:32:26.107519 23283 layer_factory.hpp:77] Creating layer fire9/squeeze1x1_fire9/relu_squeeze1x1_0_split
I0424 21:32:26.107589 23283 net.cpp:84] Creating Layer fire9/squeeze1x1_fire9/relu_squeeze1x1_0_split
I0424 21:32:26.107602 23283 net.cpp:406] fire9/squeeze1x1_fire9/relu_squeeze1x1_0_split <- fire9/squeeze1x1
I0424 21:32:26.107626 23283 net.cpp:380] fire9/squeeze1x1_fire9/relu_squeeze1x1_0_split -> fire9/squeeze1x1_fire9/relu_squeeze1x1_0_split_0
I0424 21:32:26.107653 23283 net.cpp:380] fire9/squeeze1x1_fire9/relu_squeeze1x1_0_split -> fire9/squeeze1x1_fire9/relu_squeeze1x1_0_split_1
I0424 21:32:26.107801 23283 net.cpp:122] Setting up fire9/squeeze1x1_fire9/relu_squeeze1x1_0_split
I0424 21:32:26.107818 23283 net.cpp:129] Top shape: 40 64 14 14 (501760)
I0424 21:32:26.107831 23283 net.cpp:129] Top shape: 40 64 14 14 (501760)
I0424 21:32:26.107837 23283 net.cpp:137] Memory required for data: 1165326720
I0424 21:32:26.107846 23283 layer_factory.hpp:77] Creating layer fire9/expand1x1
I0424 21:32:26.107874 23283 net.cpp:84] Creating Layer fire9/expand1x1
I0424 21:32:26.107885 23283 net.cpp:406] fire9/expand1x1 <- fire9/squeeze1x1_fire9/relu_squeeze1x1_0_split_0
I0424 21:32:26.107897 23283 net.cpp:380] fire9/expand1x1 -> fire9/expand1x1
I0424 21:32:26.109683 23283 net.cpp:122] Setting up fire9/expand1x1
I0424 21:32:26.109738 23283 net.cpp:129] Top shape: 40 256 14 14 (2007040)
I0424 21:32:26.109750 23283 net.cpp:137] Memory required for data: 1173354880
I0424 21:32:26.109779 23283 layer_factory.hpp:77] Creating layer fire9/relu_expand1x1
I0424 21:32:26.109809 23283 net.cpp:84] Creating Layer fire9/relu_expand1x1
I0424 21:32:26.109820 23283 net.cpp:406] fire9/relu_expand1x1 <- fire9/expand1x1
I0424 21:32:26.109836 23283 net.cpp:367] fire9/relu_expand1x1 -> fire9/expand1x1 (in-place)
I0424 21:32:26.112524 23283 net.cpp:122] Setting up fire9/relu_expand1x1
I0424 21:32:26.112597 23283 net.cpp:129] Top shape: 40 256 14 14 (2007040)
I0424 21:32:26.112603 23283 net.cpp:137] Memory required for data: 1181383040
I0424 21:32:26.112612 23283 layer_factory.hpp:77] Creating layer fire9/expand3x3
I0424 21:32:26.112638 23283 net.cpp:84] Creating Layer fire9/expand3x3
I0424 21:32:26.112645 23283 net.cpp:406] fire9/expand3x3 <- fire9/squeeze1x1_fire9/relu_squeeze1x1_0_split_1
I0424 21:32:26.112675 23283 net.cpp:380] fire9/expand3x3 -> fire9/expand3x3
I0424 21:32:26.118036 23283 net.cpp:122] Setting up fire9/expand3x3
I0424 21:32:26.118095 23283 net.cpp:129] Top shape: 40 256 14 14 (2007040)
I0424 21:32:26.118100 23283 net.cpp:137] Memory required for data: 1189411200
I0424 21:32:26.118118 23283 layer_factory.hpp:77] Creating layer fire9/relu_expand3x3
I0424 21:32:26.118134 23283 net.cpp:84] Creating Layer fire9/relu_expand3x3
I0424 21:32:26.118139 23283 net.cpp:406] fire9/relu_expand3x3 <- fire9/expand3x3
I0424 21:32:26.118151 23283 net.cpp:367] fire9/relu_expand3x3 -> fire9/expand3x3 (in-place)
I0424 21:32:26.119612 23283 net.cpp:122] Setting up fire9/relu_expand3x3
I0424 21:32:26.119639 23283 net.cpp:129] Top shape: 40 256 14 14 (2007040)
I0424 21:32:26.119747 23283 net.cpp:137] Memory required for data: 1197439360
I0424 21:32:26.119755 23283 layer_factory.hpp:77] Creating layer fire9/concat
I0424 21:32:26.119767 23283 net.cpp:84] Creating Layer fire9/concat
I0424 21:32:26.119794 23283 net.cpp:406] fire9/concat <- fire9/expand1x1
I0424 21:32:26.119804 23283 net.cpp:406] fire9/concat <- fire9/expand3x3
I0424 21:32:26.119814 23283 net.cpp:380] fire9/concat -> fire9/concat
I0424 21:32:26.119882 23283 net.cpp:122] Setting up fire9/concat
I0424 21:32:26.119890 23283 net.cpp:129] Top shape: 40 512 14 14 (4014080)
I0424 21:32:26.119894 23283 net.cpp:137] Memory required for data: 1213495680
I0424 21:32:26.119899 23283 layer_factory.hpp:77] Creating layer drop9
I0424 21:32:26.119909 23283 net.cpp:84] Creating Layer drop9
I0424 21:32:26.119913 23283 net.cpp:406] drop9 <- fire9/concat
I0424 21:32:26.119918 23283 net.cpp:367] drop9 -> fire9/concat (in-place)
I0424 21:32:26.119958 23283 net.cpp:122] Setting up drop9
I0424 21:32:26.119966 23283 net.cpp:129] Top shape: 40 512 14 14 (4014080)
I0424 21:32:26.119969 23283 net.cpp:137] Memory required for data: 1229552000
I0424 21:32:26.119972 23283 layer_factory.hpp:77] Creating layer conv10_new
I0424 21:32:26.119987 23283 net.cpp:84] Creating Layer conv10_new
I0424 21:32:26.119990 23283 net.cpp:406] conv10_new <- fire9/concat
I0424 21:32:26.119998 23283 net.cpp:380] conv10_new -> conv10_new
I0424 21:32:26.126816 23283 net.cpp:122] Setting up conv10_new
I0424 21:32:26.126864 23283 net.cpp:129] Top shape: 40 196 14 14 (1536640)
I0424 21:32:26.126869 23283 net.cpp:137] Memory required for data: 1235698560
I0424 21:32:26.126883 23283 layer_factory.hpp:77] Creating layer relu_conv10
I0424 21:32:26.126896 23283 net.cpp:84] Creating Layer relu_conv10
I0424 21:32:26.126902 23283 net.cpp:406] relu_conv10 <- conv10_new
I0424 21:32:26.126914 23283 net.cpp:367] relu_conv10 -> conv10_new (in-place)
I0424 21:32:26.128922 23283 net.cpp:122] Setting up relu_conv10
I0424 21:32:26.128963 23283 net.cpp:129] Top shape: 40 196 14 14 (1536640)
I0424 21:32:26.128970 23283 net.cpp:137] Memory required for data: 1241845120
I0424 21:32:26.128979 23283 layer_factory.hpp:77] Creating layer pool10
I0424 21:32:26.128998 23283 net.cpp:84] Creating Layer pool10
I0424 21:32:26.129005 23283 net.cpp:406] pool10 <- conv10_new
I0424 21:32:26.129022 23283 net.cpp:380] pool10 -> pool10
I0424 21:32:26.131359 23283 net.cpp:122] Setting up pool10
I0424 21:32:26.131402 23283 net.cpp:129] Top shape: 40 196 1 1 (7840)
I0424 21:32:26.131412 23283 net.cpp:137] Memory required for data: 1241876480
I0424 21:32:26.131420 23283 layer_factory.hpp:77] Creating layer loss
I0424 21:32:26.131434 23283 net.cpp:84] Creating Layer loss
I0424 21:32:26.131444 23283 net.cpp:406] loss <- pool10
I0424 21:32:26.131458 23283 net.cpp:406] loss <- label
I0424 21:32:26.131471 23283 net.cpp:380] loss -> loss
I0424 21:32:26.131495 23283 layer_factory.hpp:77] Creating layer loss
…
I0424 21:32:26.136831 23283 solver.cpp:172] Creating test net (#0) specified by net file: finetune.prototxt
I0424 21:32:26.136956 23283 net.cpp:294] The NetState phase (1) differed from the phase (0) specified by a rule in layer data
I0424 21:32:26.137554 23283 net.cpp:51] Initializing net from parameters: 
state {
  phase: TEST
}
layer {
  name: "data"
  type: "ImageData"
  top: "data"
  top: "label"
  include {
    phase: TEST
  }
  transform_param {
    mean_value: 104
    mean_value: 117
    mean_value: 123
  }
  image_data_param {
    source: "./test.txt"
    batch_size: 40
    mirror: false
    shuffle: true
  }
}
layer {
  name: "conv1"
  type: "Convolution"
  bottom: "data"
  top: "conv1"
  convolution_param {
    num_output: 64
    kernel_size: 3
    stride: 2
    weight_filler {
      type: "xavier"
    }
  }
}
layer {
  name: "relu_conv1"
  type: "ReLU"
  bottom: "conv1"
  top: "conv1"
}
layer {
  name: "pool1"
  type: "Pooling"
  bottom: "conv1"
  top: "pool1"
  pooling_param {
    pool: MAX
    kernel_size: 3
    stride: 2
  }
}
layer {
  name: "fire2/squeeze1x1"
  type: "Convolution"
  bottom: "pool1"
  top: "fire2/squeeze1x1"
  convolution_param {
    num_output: 16
    kernel_size: 1
    weight_filler {
      type: "xavier"
    }
  }
}
layer {
  name: "fire2/relu_squeeze1x1"
  type: "ReLU"
  bottom: "fire2/squeeze1x1"
  top: "fire2/squeeze1x1"
}
layer {
  name: "fire2/expand1x1"
  type: "Convolution"
  bottom: "fire2/squeeze1x1"
  top: "fire2/expand1x1"
  convolution_param {
    num_output: 64
    kernel_size: 1
    weight_filler {
      type: "xavier"
    }
  }
}
layer {
  name: "fire2/relu_expand1x1"
  type: "ReLU"
  bottom: "fire2/expand1x1"
  top: "fire2/expand1x1"
}
layer {
  name: "fire2/expand3x3"
  type: "Convolution"
  bottom: "fire2/squeeze1x1"
  top: "fire2/expand3x3"
  convolution_param {
    num_output: 64
    pad: 1
    kernel_size: 3
    weight_filler {
      type: "xavier"
    }
  }
}
layer {
  name: "fire2/relu_expand3x3"
  type: "ReLU"
  bottom: "fire2/expand3x3"
  top: "fire2/expand3x3"
}
layer {
  name: "fire2/concat"
  type: "Concat"
  bottom: "fire2/expand1x1"
  bottom: "fire2/expand3x3"
  top: "fire2/concat"
}
layer {
  name: "fire3/squeeze1x1"
  type: "Convolution"
  bottom: "fire2/concat"
  top: "fire3/squeeze1x1"
  convolution_param {
    num_output: 16
    kernel_size: 1
    weight_filler {
      type: "xavier"
    }
  }
}
layer {
  name: "fire3/relu_squeeze1x1"
  type: "ReLU"
  bottom: "fire3/squeeze1x1"
  top: "fire3/squeeze1x1"
}
layer {
  name: "fire3/expand1x1"
  type: "Convolution"
  bottom: "fire3/squeeze1x1"
  top: "fire3/expand1x1"
  convolution_param {
    num_output: 64
    kernel_size: 1
    weight_filler {
      type: "xavier"
    }
  }
}
layer {
  name: "fire3/relu_expand1x1"
  type: "ReLU"
  bottom: "fire3/expand1x1"
  top: "fire3/expand1x1"
}
layer {
  name: "fire3/expand3x3"
  type: "Convolution"
  bottom: "fire3/squeeze1x1"
  top: "fire3/expand3x3"
  convolution_param {
    num_output: 64
    pad: 1
    kernel_size: 3
    weight_filler {
      type: "xavier"
    }
  }
}
layer {
  name: "fire3/relu_expand3x3"
  type: "ReLU"
  bottom: "fire3/expand3x3"
  top: "fire3/expand3x3"
}
layer {
  name: "fire3/concat"
  type: "Concat"
  bottom: "fire3/expand1x1"
  bottom: "fire3/expand3x3"
  top: "fire3/concat"
}
layer {
  name: "pool3"
  type: "Pooling"
  bottom: "fire3/concat"
  top: "pool3"
  pooling_param {
    pool: MAX
    kernel_size: 3
    stride: 2
  }
}
layer {
  name: "fire4/squeeze1x1"
  type: "Convolution"
  bottom: "pool3"
  top: "fire4/squeeze1x1"
  convolution_param {
    num_output: 32
    kernel_size: 1
    weight_filler {
      type: "xavier"
    }
  }
}
layer {
  name: "fire4/relu_squeeze1x1"
  type: "ReLU"
  bottom: "fire4/squeeze1x1"
  top: "fire4/squeeze1x1"
}
layer {
  name: "fire4/expand1x1"
  type: "Convolution"
  bottom: "fire4/squeeze1x1"
  top: "fire4/expand1x1"
  convolution_param {
    num_output: 128
    kernel_size: 1
    weight_filler {
      type: "xavier"
    }
  }
}
layer {
  name: "fire4/relu_expand1x1"
  type: "ReLU"
  bottom: "fire4/expand1x1"
  top: "fire4/expand1x1"
}
layer {
  name: "fire4/expand3x3"
  type: "Convolution"
  bottom: "fire4/squeeze1x1"
  top: "fire4/expand3x3"
  convolution_param {
    num_output: 128
    pad: 1
    kernel_size: 3
    weight_filler {
      type: "xavier"
    }
  }
}
layer {
  name: "fire4/relu_expand3x3"
  type: "ReLU"
  bottom: "fire4/expand3x3"
  top: "fire4/expand3x3"
}
layer {
  name: "fire4/concat"
  type: "Concat"
  bottom: "fire4/expand1x1"
  bottom: "fire4/expand3x3"
  top: "fire4/concat"
}
layer {
  name: "fire5/squeeze1x1"
  type: "Convolution"
  bottom: "fire4/concat"
  top: "fire5/squeeze1x1"
  convolution_param {
    num_output: 32
    kernel_size: 1
    weight_filler {
      type: "xavier"
    }
  }
}
layer {
  name: "fire5/relu_squeeze1x1"
  type: "ReLU"
  bottom: "fire5/squeeze1x1"
  top: "fire5/squeeze1x1"
}
layer {
  name: "fire5/expand1x1"
  type: "Convolution"
  bottom: "fire5/squeeze1x1"
  top: "fire5/expand1x1"
  convolution_param {
    num_output: 128
    kernel_size: 1
    weight_filler {
      type: "xavier"
    }
  }
}
layer {
  name: "fire5/relu_expand1x1"
  type: "ReLU"
  bottom: "fire5/expand1x1"
  top: "fire5/expand1x1"
}
layer {
  name: "fire5/expand3x3"
  type: "Convolution"
  bottom: "fire5/squeeze1x1"
  top: "fire5/expand3x3"
  convolution_param {
    num_output: 128
    pad: 1
    kernel_size: 3
    weight_filler {
      type: "xavier"
    }
  }
}
layer {
  name: "fire5/relu_expand3x3"
  type: "ReLU"
  bottom: "fire5/expand3x3"
  top: "fire5/expand3x3"
}
layer {
  name: "fire5/concat"
  type: "Concat"
  bottom: "fire5/expand1x1"
  bottom: "fire5/expand3x3"
  top: "fire5/concat"
}
layer {
  name: "pool5"
  type: "Pooling"
  bottom: "fire5/concat"
  top: "pool5"
  pooling_param {
    pool: MAX
    kernel_size: 3
    stride: 2
  }
}
layer {
  name: "fire6/squeeze1x1"
  type: "Convolution"
  bottom: "pool5"
  top: "fire6/squeeze1x1"
  convolution_param {
    num_output: 48
    kernel_size: 1
    weight_filler {
      type: "xavier"
    }
  }
}
layer {
  name: "fire6/relu_squeeze1x1"
  type: "ReLU"
  bottom: "fire6/squeeze1x1"
  top: "fire6/squeeze1x1"
}
layer {
  name: "fire6/expand1x1"
  type: "Convolution"
  bottom: "fire6/squeeze1x1"
  top: "fire6/expand1x1"
  convolution_param {
    num_output: 192
    kernel_size: 1
    weight_filler {
      type: "xavier"
    }
  }
}
layer {
  name: "fire6/relu_expand1x1"
  type: "ReLU"
  bottom: "fire6/expand1x1"
  top: "fire6/expand1x1"
}
layer {
  name: "fire6/expand3x3"
  type: "Convolution"
  bottom: "fire6/squeeze1x1"
  top: "fire6/expand3x3"
  convolution_param {
    num_output: 192
    pad: 1
    kernel_size: 3
    weight_filler {
      type: "xavier"
    }
  }
}
layer {
  name: "fire6/relu_expand3x3"
  type: "ReLU"
  bottom: "fire6/expand3x3"
  top: "fire6/expand3x3"
}
layer {
  name: "fire6/concat"
  type: "Concat"
  bottom: "fire6/expand1x1"
  bottom: "fire6/expand3x3"
  top: "fire6/concat"
}
layer {
  name: "fire7/squeeze1x1"
  type: "Convolution"
  bottom: "fire6/concat"
  top: "fire7/squeeze1x1"
  convolution_param {
    num_output: 48
    kernel_size: 1
    weight_filler {
      type: "xavier"
    }
  }
}
layer {
  name: "fire7/relu_squeeze1x1"
  type: "ReLU"
  bottom: "fire7/squeeze1x1"
  top: "fire7/squeeze1x1"
}
layer {
  name: "fire7/expand1x1"
  type: "Convolution"
  bottom: "fire7/squeeze1x1"
  top: "fire7/expand1x1"
  convolution_param {
    num_output: 192
    kernel_size: 1
    weight_filler {
      type: "xavier"
    }
  }
}
layer {
  name: "fire7/relu_expand1x1"
  type: "ReLU"
  bottom: "fire7/expand1x1"
  top: "fire7/expand1x1"
}
layer {
  name: "fire7/expand3x3"
  type: "Convolution"
  bottom: "fire7/squeeze1x1"
  top: "fire7/expand3x3"
  convolution_param {
    num_output: 192
    pad: 1
    kernel_size: 3
    weight_filler {
      type: "xavier"
    }
  }
}
layer {
  name: "fire7/relu_expand3x3"
  type: "ReLU"
  bottom: "fire7/expand3x3"
  top: "fire7/expand3x3"
}
layer {
  name: "fire7/concat"
  type: "Concat"
  bottom: "fire7/expand1x1"
  bottom: "fire7/expand3x3"
  top: "fire7/concat"
}
layer {
  name: "fire8/squeeze1x1"
  type: "Convolution"
  bottom: "fire7/concat"
  top: "fire8/squeeze1x1"
  convolution_param {
    num_output: 64
    kernel_size: 1
    weight_filler {
      type: "xavier"
    }
  }
}
layer {
  name: "fire8/relu_squeeze1x1"
  type: "ReLU"
  bottom: "fire8/squeeze1x1"
  top: "fire8/squeeze1x1"
}
layer {
  name: "fire8/expand1x1"
  type: "Convolution"
  bottom: "fire8/squeeze1x1"
  top: "fire8/expand1x1"
  convolution_param {
    num_output: 256
    kernel_size: 1
    weight_filler {
      type: "xavier"
    }
  }
}
layer {
  name: "fire8/relu_expand1x1"
  type: "ReLU"
  bottom: "fire8/expand1x1"
  top: "fire8/expand1x1"
}
layer {
  name: "fire8/expand3x3"
  type: "Convolution"
  bottom: "fire8/squeeze1x1"
  top: "fire8/expand3x3"
  convolution_param {
    num_output: 256
    pad: 1
    kernel_size: 3
    weight_filler {
      type: "xavier"
    }
  }
}
layer {
  name: "fire8/relu_expand3x3"
  type: "ReLU"
  bottom: "fire8/expand3x3"
  top: "fire8/expand3x3"
}
layer {
  name: "fire8/concat"
  type: "Concat"
  bottom: "fire8/expand1x1"
  bottom: "fire8/expand3x3"
  top: "fire8/concat"
}
layer {
  name: "fire9/squeeze1x1"
  type: "Convolution"
  bottom: "fire8/concat"
  top: "fire9/squeeze1x1"
  convolution_param {
    num_output: 64
    kernel_size: 1
    weight_filler {
      type: "xavier"
    }
  }
}
layer {
  name: "fire9/relu_squeeze1x1"
  type: "ReLU"
  bottom: "fire9/squeeze1x1"
  top: "fire9/squeeze1x1"
}
layer {
  name: "fire9/expand1x1"
  type: "Convolution"
  bottom: "fire9/squeeze1x1"
  top: "fire9/expand1x1"
  convolution_param {
    num_output: 256
    kernel_size: 1
    weight_filler {
      type: "xavier"
    }
  }
}
layer {
  name: "fire9/relu_expand1x1"
  type: "ReLU"
  bottom: "fire9/expand1x1"
  top: "fire9/expand1x1"
}
layer {
  name: "fire9/expand3x3"
  type: "Convolution"
  bottom: "fire9/squeeze1x1"
  top: "fire9/expand3x3"
  convolution_param {
    num_output: 256
    pad: 1
    kernel_size: 3
    weight_filler {
      type: "xavier"
    }
  }
}
layer {
  name: "fire9/relu_expand3x3"
  type: "ReLU"
  bottom: "fire9/expand3x3"
  top: "fire9/expand3x3"
}
layer {
  name: "fire9/concat"
  type: "Concat"
  bottom: "fire9/expand1x1"
  bottom: "fire9/expand3x3"
  top: "fire9/concat"
}
layer {
  name: "drop9"
  type: "Dropout"
  bottom: "fire9/concat"
  top: "fire9/concat"
  dropout_param {
    dropout_ratio: 0.5
  }
}
layer {
  name: "conv10_new"
  type: "Convolution"
  bottom: "fire9/concat"
  top: "conv10_new"
  convolution_param {
    num_output: 196
    kernel_size: 1
    weight_filler {
      type: "gaussian"
      mean: 0
      std: 0.01
    }
  }
}
layer {
  name: "relu_conv10"
  type: "ReLU"
  bottom: "conv10_new"
  top: "conv10_new"
}
layer {
  name: "pool10"
  type: "Pooling"
  bottom: "conv10_new"
  top: "pool10"
  pooling_param {
    pool: AVE
    global_pooling: true
  }
}
layer {
  name: "loss"
  type: "SoftmaxWithLoss"
  bottom: "pool10"
  bottom: "label"
  top: "loss"
}
layer {
  name: "accuracy"
  type: "Accuracy"
  bottom: "pool10"
  bottom: "label"
  top: "accuracy"
  include {
    phase: TEST
  }
}
layer {
  name: "accuracy_top5"
  type: "Accuracy"
  bottom: "pool10"
  bottom: "label"
  top: "accuracy_top5"
  include {
    phase: TEST
  }
  accuracy_param {
    top_k: 5
  }
}
I0424 21:32:26.138087 23283 layer_factory.hpp:77] Creating layer data
I0424 21:32:26.138129 23283 net.cpp:84] Creating Layer data
I0424 21:32:26.138146 23283 net.cpp:380] data -> data
I0424 21:32:26.138166 23283 net.cpp:380] data -> label
I0424 21:32:26.138190 23283 image_data_layer.cpp:38] Opening file ./test.txt
I0424 21:32:26.144783 23283 image_data_layer.cpp:53] Shuffling data
I0424 21:32:26.148875 23283 image_data_layer.cpp:63] A total of 8041 images.
I0424 21:32:26.151069 23283 image_data_layer.cpp:90] output data size: 40,3,227,227
I0424 21:32:26.317670 23283 net.cpp:122] Setting up data
I0424 21:32:26.318022 23283 net.cpp:129] Top shape: 40 3 227 227 (6183480)
I0424 21:32:26.318043 23283 net.cpp:129] Top shape: 40 (40)
I0424 21:32:26.318056 23283 net.cpp:137] Memory required for data: 24734080
I0424 21:32:26.318089 23283 layer_factory.hpp:77] Creating layer label_data_1_split
I0424 21:32:26.318169 23283 net.cpp:84] Creating Layer label_data_1_split
I0424 21:32:26.318194 23283 net.cpp:406] label_data_1_split <- label
I0424 21:32:26.318234 23283 net.cpp:380] label_data_1_split -> label_data_1_split_0
I0424 21:32:26.318301 23283 net.cpp:380] label_data_1_split -> label_data_1_split_1
I0424 21:32:26.318326 23283 net.cpp:380] label_data_1_split -> label_data_1_split_2
I0424 21:32:26.318761 23283 net.cpp:122] Setting up label_data_1_split
I0424 21:32:26.318812 23283 net.cpp:129] Top shape: 40 (40)
I0424 21:32:26.318825 23283 net.cpp:129] Top shape: 40 (40)
I0424 21:32:26.318840 23283 net.cpp:129] Top shape: 40 (40)
I0424 21:32:26.318845 23283 net.cpp:137] Memory required for data: 24734560
I0424 21:32:26.318856 23283 layer_factory.hpp:77] Creating layer conv1
I0424 21:32:26.318915 23283 net.cpp:84] Creating Layer conv1
I0424 21:32:26.318922 23283 net.cpp:406] conv1 <- data
I0424 21:32:26.318935 23283 net.cpp:380] conv1 -> conv1
I0424 21:32:26.331377 23283 net.cpp:122] Setting up conv1
I0424 21:32:26.331727 23283 net.cpp:129] Top shape: 40 64 113 113 (32688640)
I0424 21:32:26.331753 23283 net.cpp:137] Memory required for data: 155489120
I0424 21:32:26.331872 23283 layer_factory.hpp:77] Creating layer relu_conv1
I0424 21:32:26.331961 23283 net.cpp:84] Creating Layer relu_conv1
I0424 21:32:26.331990 23283 net.cpp:406] relu_conv1 <- conv1
I0424 21:32:26.332021 23283 net.cpp:367] relu_conv1 -> conv1 (in-place)
I0424 21:32:26.332738 23283 net.cpp:122] Setting up relu_conv1
I0424 21:32:26.332800 23283 net.cpp:129] Top shape: 40 64 113 113 (32688640)
I0424 21:32:26.332819 23283 net.cpp:137] Memory required for data: 286243680
I0424 21:32:26.332840 23283 layer_factory.hpp:77] Creating layer pool1
I0424 21:32:26.332911 23283 net.cpp:84] Creating Layer pool1
I0424 21:32:26.332932 23283 net.cpp:406] pool1 <- conv1
I0424 21:32:26.332963 23283 net.cpp:380] pool1 -> pool1
I0424 21:32:26.333195 23283 net.cpp:122] Setting up pool1
I0424 21:32:26.333222 23283 net.cpp:129] Top shape: 40 64 56 56 (8028160)
I0424 21:32:26.333230 23283 net.cpp:137] Memory required for data: 318356320
I0424 21:32:26.333240 23283 layer_factory.hpp:77] Creating layer fire2/squeeze1x1
I0424 21:32:26.333423 23283 net.cpp:84] Creating Layer fire2/squeeze1x1
I0424 21:32:26.333441 23283 net.cpp:406] fire2/squeeze1x1 <- pool1
I0424 21:32:26.333462 23283 net.cpp:380] fire2/squeeze1x1 -> fire2/squeeze1x1
I0424 21:32:26.340901 23283 net.cpp:122] Setting up fire2/squeeze1x1
I0424 21:32:26.341084 23283 net.cpp:129] Top shape: 40 16 56 56 (2007040)
I0424 21:32:26.341100 23283 net.cpp:137] Memory required for data: 326384480
I0424 21:32:26.341212 23283 layer_factory.hpp:77] Creating layer fire2/relu_squeeze1x1
I0424 21:32:26.341296 23283 net.cpp:84] Creating Layer fire2/relu_squeeze1x1
I0424 21:32:26.341321 23283 net.cpp:406] fire2/relu_squeeze1x1 <- fire2/squeeze1x1
I0424 21:32:26.341384 23283 net.cpp:367] fire2/relu_squeeze1x1 -> fire2/squeeze1x1 (in-place)
I0424 21:32:26.342241 23283 net.cpp:122] Setting up fire2/relu_squeeze1x1
I0424 21:32:26.342293 23283 net.cpp:129] Top shape: 40 16 56 56 (2007040)
I0424 21:32:26.342306 23283 net.cpp:137] Memory required for data: 334412640
I0424 21:32:26.342324 23283 layer_factory.hpp:77] Creating layer fire2/squeeze1x1_fire2/relu_squeeze1x1_0_split
I0424 21:32:26.342370 23283 net.cpp:84] Creating Layer fire2/squeeze1x1_fire2/relu_squeeze1x1_0_split
I0424 21:32:26.342383 23283 net.cpp:406] fire2/squeeze1x1_fire2/relu_squeeze1x1_0_split <- fire2/squeeze1x1
I0424 21:32:26.342406 23283 net.cpp:380] fire2/squeeze1x1_fire2/relu_squeeze1x1_0_split -> fire2/squeeze1x1_fire2/relu_squeeze1x1_0_split_0
I0424 21:32:26.342466 23283 net.cpp:380] fire2/squeeze1x1_fire2/relu_squeeze1x1_0_split -> fire2/squeeze1x1_fire2/relu_squeeze1x1_0_split_1
I0424 21:32:26.342689 23283 net.cpp:122] Setting up fire2/squeeze1x1_fire2/relu_squeeze1x1_0_split
I0424 21:32:26.342737 23283 net.cpp:129] Top shape: 40 16 56 56 (2007040)
I0424 21:32:26.342751 23283 net.cpp:129] Top shape: 40 16 56 56 (2007040)
I0424 21:32:26.342763 23283 net.cpp:137] Memory required for data: 350468960
I0424 21:32:26.342773 23283 layer_factory.hpp:77] Creating layer fire2/expand1x1
I0424 21:32:26.342864 23283 net.cpp:84] Creating Layer fire2/expand1x1
I0424 21:32:26.342878 23283 net.cpp:406] fire2/expand1x1 <- fire2/squeeze1x1_fire2/relu_squeeze1x1_0_split_0
I0424 21:32:26.342895 23283 net.cpp:380] fire2/expand1x1 -> fire2/expand1x1
I0424 21:32:26.348284 23283 net.cpp:122] Setting up fire2/expand1x1
I0424 21:32:26.348467 23283 net.cpp:129] Top shape: 40 64 56 56 (8028160)
I0424 21:32:26.348486 23283 net.cpp:137] Memory required for data: 382581600
I0424 21:32:26.348594 23283 layer_factory.hpp:77] Creating layer fire2/relu_expand1x1
I0424 21:32:26.348678 23283 net.cpp:84] Creating Layer fire2/relu_expand1x1
I0424 21:32:26.348706 23283 net.cpp:406] fire2/relu_expand1x1 <- fire2/expand1x1
I0424 21:32:26.348740 23283 net.cpp:367] fire2/relu_expand1x1 -> fire2/expand1x1 (in-place)
I0424 21:32:26.349210 23283 net.cpp:122] Setting up fire2/relu_expand1x1
I0424 21:32:26.349261 23283 net.cpp:129] Top shape: 40 64 56 56 (8028160)
I0424 21:32:26.349272 23283 net.cpp:137] Memory required for data: 414694240
I0424 21:32:26.349284 23283 layer_factory.hpp:77] Creating layer fire2/expand3x3
I0424 21:32:26.349337 23283 net.cpp:84] Creating Layer fire2/expand3x3
I0424 21:32:26.349351 23283 net.cpp:406] fire2/expand3x3 <- fire2/squeeze1x1_fire2/relu_squeeze1x1_0_split_1
I0424 21:32:26.349377 23283 net.cpp:380] fire2/expand3x3 -> fire2/expand3x3
I0424 21:32:26.353745 23283 net.cpp:122] Setting up fire2/expand3x3
I0424 21:32:26.354048 23283 net.cpp:129] Top shape: 40 64 56 56 (8028160)
I0424 21:32:26.354071 23283 net.cpp:137] Memory required for data: 446806880
I0424 21:32:26.354125 23283 layer_factory.hpp:77] Creating layer fire2/relu_expand3x3
I0424 21:32:26.354174 23283 net.cpp:84] Creating Layer fire2/relu_expand3x3
I0424 21:32:26.354192 23283 net.cpp:406] fire2/relu_expand3x3 <- fire2/expand3x3
I0424 21:32:26.354238 23283 net.cpp:367] fire2/relu_expand3x3 -> fire2/expand3x3 (in-place)
I0424 21:32:26.354622 23283 net.cpp:122] Setting up fire2/relu_expand3x3
I0424 21:32:26.354668 23283 net.cpp:129] Top shape: 40 64 56 56 (8028160)
I0424 21:32:26.354806 23283 net.cpp:137] Memory required for data: 478919520
I0424 21:32:26.354821 23283 layer_factory.hpp:77] Creating layer fire2/concat
I0424 21:32:26.354851 23283 net.cpp:84] Creating Layer fire2/concat
I0424 21:32:26.354959 23283 net.cpp:406] fire2/concat <- fire2/expand1x1
I0424 21:32:26.354979 23283 net.cpp:406] fire2/concat <- fire2/expand3x3
I0424 21:32:26.355000 23283 net.cpp:380] fire2/concat -> fire2/concat
I0424 21:32:26.355129 23283 net.cpp:122] Setting up fire2/concat
I0424 21:32:26.355161 23283 net.cpp:129] Top shape: 40 128 56 56 (16056320)
I0424 21:32:26.355173 23283 net.cpp:137] Memory required for data: 543144800
I0424 21:32:26.355185 23283 layer_factory.hpp:77] Creating layer fire3/squeeze1x1
I0424 21:32:26.355244 23283 net.cpp:84] Creating Layer fire3/squeeze1x1
I0424 21:32:26.355257 23283 net.cpp:406] fire3/squeeze1x1 <- fire2/concat
I0424 21:32:26.355281 23283 net.cpp:380] fire3/squeeze1x1 -> fire3/squeeze1x1
I0424 21:32:26.359259 23283 net.cpp:122] Setting up fire3/squeeze1x1
I0424 21:32:26.359378 23283 net.cpp:129] Top shape: 40 16 56 56 (2007040)
I0424 21:32:26.359392 23283 net.cpp:137] Memory required for data: 551172960
I0424 21:32:26.359443 23283 layer_factory.hpp:77] Creating layer fire3/relu_squeeze1x1
I0424 21:32:26.359508 23283 net.cpp:84] Creating Layer fire3/relu_squeeze1x1
I0424 21:32:26.359531 23283 net.cpp:406] fire3/relu_squeeze1x1 <- fire3/squeeze1x1
I0424 21:32:26.359565 23283 net.cpp:367] fire3/relu_squeeze1x1 -> fire3/squeeze1x1 (in-place)
I0424 21:32:26.359957 23283 net.cpp:122] Setting up fire3/relu_squeeze1x1
I0424 21:32:26.359985 23283 net.cpp:129] Top shape: 40 16 56 56 (2007040)
I0424 21:32:26.359995 23283 net.cpp:137] Memory required for data: 559201120
I0424 21:32:26.360004 23283 layer_factory.hpp:77] Creating layer fire3/squeeze1x1_fire3/relu_squeeze1x1_0_split
I0424 21:32:26.360023 23283 net.cpp:84] Creating Layer fire3/squeeze1x1_fire3/relu_squeeze1x1_0_split
I0424 21:32:26.360031 23283 net.cpp:406] fire3/squeeze1x1_fire3/relu_squeeze1x1_0_split <- fire3/squeeze1x1
I0424 21:32:26.360047 23283 net.cpp:380] fire3/squeeze1x1_fire3/relu_squeeze1x1_0_split -> fire3/squeeze1x1_fire3/relu_squeeze1x1_0_split_0
I0424 21:32:26.360069 23283 net.cpp:380] fire3/squeeze1x1_fire3/relu_squeeze1x1_0_split -> fire3/squeeze1x1_fire3/relu_squeeze1x1_0_split_1
I0424 21:32:26.360164 23283 net.cpp:122] Setting up fire3/squeeze1x1_fire3/relu_squeeze1x1_0_split
I0424 21:32:26.360184 23283 net.cpp:129] Top shape: 40 16 56 56 (2007040)
I0424 21:32:26.360195 23283 net.cpp:129] Top shape: 40 16 56 56 (2007040)
I0424 21:32:26.360203 23283 net.cpp:137] Memory required for data: 575257440
I0424 21:32:26.360213 23283 layer_factory.hpp:77] Creating layer fire3/expand1x1
I0424 21:32:26.360301 23283 net.cpp:84] Creating Layer fire3/expand1x1
I0424 21:32:26.360316 23283 net.cpp:406] fire3/expand1x1 <- fire3/squeeze1x1_fire3/relu_squeeze1x1_0_split_0
I0424 21:32:26.360338 23283 net.cpp:380] fire3/expand1x1 -> fire3/expand1x1
I0424 21:32:26.364028 23283 net.cpp:122] Setting up fire3/expand1x1
I0424 21:32:26.364131 23283 net.cpp:129] Top shape: 40 64 56 56 (8028160)
I0424 21:32:26.364147 23283 net.cpp:137] Memory required for data: 607370080
I0424 21:32:26.364187 23283 layer_factory.hpp:77] Creating layer fire3/relu_expand1x1
I0424 21:32:26.364235 23283 net.cpp:84] Creating Layer fire3/relu_expand1x1
I0424 21:32:26.364251 23283 net.cpp:406] fire3/relu_expand1x1 <- fire3/expand1x1
I0424 21:32:26.364280 23283 net.cpp:367] fire3/relu_expand1x1 -> fire3/expand1x1 (in-place)
I0424 21:32:26.375674 23283 net.cpp:122] Setting up fire3/relu_expand1x1
I0424 21:32:26.375777 23283 net.cpp:129] Top shape: 40 64 56 56 (8028160)
I0424 21:32:26.375784 23283 net.cpp:137] Memory required for data: 639482720
I0424 21:32:26.375802 23283 layer_factory.hpp:77] Creating layer fire3/expand3x3
I0424 21:32:26.375854 23283 net.cpp:84] Creating Layer fire3/expand3x3
I0424 21:32:26.375862 23283 net.cpp:406] fire3/expand3x3 <- fire3/squeeze1x1_fire3/relu_squeeze1x1_0_split_1
I0424 21:32:26.375877 23283 net.cpp:380] fire3/expand3x3 -> fire3/expand3x3
I0424 21:32:26.377943 23283 net.cpp:122] Setting up fire3/expand3x3
I0424 21:32:26.377995 23283 net.cpp:129] Top shape: 40 64 56 56 (8028160)
I0424 21:32:26.378000 23283 net.cpp:137] Memory required for data: 671595360
I0424 21:32:26.378060 23283 layer_factory.hpp:77] Creating layer fire3/relu_expand3x3
I0424 21:32:26.378083 23283 net.cpp:84] Creating Layer fire3/relu_expand3x3
I0424 21:32:26.378093 23283 net.cpp:406] fire3/relu_expand3x3 <- fire3/expand3x3
I0424 21:32:26.378108 23283 net.cpp:367] fire3/relu_expand3x3 -> fire3/expand3x3 (in-place)
I0424 21:32:26.378314 23283 net.cpp:122] Setting up fire3/relu_expand3x3
I0424 21:32:26.378327 23283 net.cpp:129] Top shape: 40 64 56 56 (8028160)
I0424 21:32:26.378330 23283 net.cpp:137] Memory required for data: 703708000
I0424 21:32:26.378334 23283 layer_factory.hpp:77] Creating layer fire3/concat
I0424 21:32:26.378345 23283 net.cpp:84] Creating Layer fire3/concat
I0424 21:32:26.378348 23283 net.cpp:406] fire3/concat <- fire3/expand1x1
I0424 21:32:26.378353 23283 net.cpp:406] fire3/concat <- fire3/expand3x3
I0424 21:32:26.378360 23283 net.cpp:380] fire3/concat -> fire3/concat
I0424 21:32:26.378394 23283 net.cpp:122] Setting up fire3/concat
I0424 21:32:26.378402 23283 net.cpp:129] Top shape: 40 128 56 56 (16056320)
I0424 21:32:26.378407 23283 net.cpp:137] Memory required for data: 767933280
I0424 21:32:26.378409 23283 layer_factory.hpp:77] Creating layer pool3
I0424 21:32:26.378422 23283 net.cpp:84] Creating Layer pool3
I0424 21:32:26.378427 23283 net.cpp:406] pool3 <- fire3/concat
I0424 21:32:26.378432 23283 net.cpp:380] pool3 -> pool3
I0424 21:32:26.378479 23283 net.cpp:122] Setting up pool3
I0424 21:32:26.378486 23283 net.cpp:129] Top shape: 40 128 28 28 (4014080)
I0424 21:32:26.378490 23283 net.cpp:137] Memory required for data: 783989600
I0424 21:32:26.378494 23283 layer_factory.hpp:77] Creating layer fire4/squeeze1x1
I0424 21:32:26.378507 23283 net.cpp:84] Creating Layer fire4/squeeze1x1
I0424 21:32:26.378512 23283 net.cpp:406] fire4/squeeze1x1 <- pool3
I0424 21:32:26.378521 23283 net.cpp:380] fire4/squeeze1x1 -> fire4/squeeze1x1
I0424 21:32:26.380676 23283 net.cpp:122] Setting up fire4/squeeze1x1
I0424 21:32:26.380750 23283 net.cpp:129] Top shape: 40 32 28 28 (1003520)
I0424 21:32:26.380758 23283 net.cpp:137] Memory required for data: 788003680
I0424 21:32:26.380791 23283 layer_factory.hpp:77] Creating layer fire4/relu_squeeze1x1
I0424 21:32:26.380820 23283 net.cpp:84] Creating Layer fire4/relu_squeeze1x1
I0424 21:32:26.380831 23283 net.cpp:406] fire4/relu_squeeze1x1 <- fire4/squeeze1x1
I0424 21:32:26.380842 23283 net.cpp:367] fire4/relu_squeeze1x1 -> fire4/squeeze1x1 (in-place)
I0424 21:32:26.381081 23283 net.cpp:122] Setting up fire4/relu_squeeze1x1
I0424 21:32:26.381093 23283 net.cpp:129] Top shape: 40 32 28 28 (1003520)
I0424 21:32:26.381098 23283 net.cpp:137] Memory required for data: 792017760
I0424 21:32:26.381103 23283 layer_factory.hpp:77] Creating layer fire4/squeeze1x1_fire4/relu_squeeze1x1_0_split
I0424 21:32:26.381116 23283 net.cpp:84] Creating Layer fire4/squeeze1x1_fire4/relu_squeeze1x1_0_split
I0424 21:32:26.381121 23283 net.cpp:406] fire4/squeeze1x1_fire4/relu_squeeze1x1_0_split <- fire4/squeeze1x1
I0424 21:32:26.381131 23283 net.cpp:380] fire4/squeeze1x1_fire4/relu_squeeze1x1_0_split -> fire4/squeeze1x1_fire4/relu_squeeze1x1_0_split_0
I0424 21:32:26.381142 23283 net.cpp:380] fire4/squeeze1x1_fire4/relu_squeeze1x1_0_split -> fire4/squeeze1x1_fire4/relu_squeeze1x1_0_split_1
I0424 21:32:26.381191 23283 net.cpp:122] Setting up fire4/squeeze1x1_fire4/relu_squeeze1x1_0_split
I0424 21:32:26.381201 23283 net.cpp:129] Top shape: 40 32 28 28 (1003520)
I0424 21:32:26.381206 23283 net.cpp:129] Top shape: 40 32 28 28 (1003520)
I0424 21:32:26.381208 23283 net.cpp:137] Memory required for data: 800045920
I0424 21:32:26.381213 23283 layer_factory.hpp:77] Creating layer fire4/expand1x1
I0424 21:32:26.381232 23283 net.cpp:84] Creating Layer fire4/expand1x1
I0424 21:32:26.381237 23283 net.cpp:406] fire4/expand1x1 <- fire4/squeeze1x1_fire4/relu_squeeze1x1_0_split_0
I0424 21:32:26.381297 23283 net.cpp:380] fire4/expand1x1 -> fire4/expand1x1
I0424 21:32:26.383239 23283 net.cpp:122] Setting up fire4/expand1x1
I0424 21:32:26.383270 23283 net.cpp:129] Top shape: 40 128 28 28 (4014080)
I0424 21:32:26.383306 23283 net.cpp:137] Memory required for data: 816102240
I0424 21:32:26.383337 23283 layer_factory.hpp:77] Creating layer fire4/relu_expand1x1
I0424 21:32:26.383355 23283 net.cpp:84] Creating Layer fire4/relu_expand1x1
I0424 21:32:26.383363 23283 net.cpp:406] fire4/relu_expand1x1 <- fire4/expand1x1
I0424 21:32:26.383375 23283 net.cpp:367] fire4/relu_expand1x1 -> fire4/expand1x1 (in-place)
I0424 21:32:26.383668 23283 net.cpp:122] Setting up fire4/relu_expand1x1
I0424 21:32:26.383689 23283 net.cpp:129] Top shape: 40 128 28 28 (4014080)
I0424 21:32:26.383698 23283 net.cpp:137] Memory required for data: 832158560
I0424 21:32:26.383705 23283 layer_factory.hpp:77] Creating layer fire4/expand3x3
I0424 21:32:26.383728 23283 net.cpp:84] Creating Layer fire4/expand3x3
I0424 21:32:26.383739 23283 net.cpp:406] fire4/expand3x3 <- fire4/squeeze1x1_fire4/relu_squeeze1x1_0_split_1
I0424 21:32:26.383752 23283 net.cpp:380] fire4/expand3x3 -> fire4/expand3x3
I0424 21:32:26.385885 23283 net.cpp:122] Setting up fire4/expand3x3
I0424 21:32:26.385923 23283 net.cpp:129] Top shape: 40 128 28 28 (4014080)
I0424 21:32:26.385928 23283 net.cpp:137] Memory required for data: 848214880
I0424 21:32:26.385944 23283 layer_factory.hpp:77] Creating layer fire4/relu_expand3x3
I0424 21:32:26.385957 23283 net.cpp:84] Creating Layer fire4/relu_expand3x3
I0424 21:32:26.385963 23283 net.cpp:406] fire4/relu_expand3x3 <- fire4/expand3x3
I0424 21:32:26.385973 23283 net.cpp:367] fire4/relu_expand3x3 -> fire4/expand3x3 (in-place)
I0424 21:32:26.386153 23283 net.cpp:122] Setting up fire4/relu_expand3x3
I0424 21:32:26.386164 23283 net.cpp:129] Top shape: 40 128 28 28 (4014080)
I0424 21:32:26.386168 23283 net.cpp:137] Memory required for data: 864271200
I0424 21:32:26.386173 23283 layer_factory.hpp:77] Creating layer fire4/concat
I0424 21:32:26.386183 23283 net.cpp:84] Creating Layer fire4/concat
I0424 21:32:26.386186 23283 net.cpp:406] fire4/concat <- fire4/expand1x1
I0424 21:32:26.386193 23283 net.cpp:406] fire4/concat <- fire4/expand3x3
I0424 21:32:26.386198 23283 net.cpp:380] fire4/concat -> fire4/concat
I0424 21:32:26.386230 23283 net.cpp:122] Setting up fire4/concat
I0424 21:32:26.386238 23283 net.cpp:129] Top shape: 40 256 28 28 (8028160)
I0424 21:32:26.386241 23283 net.cpp:137] Memory required for data: 896383840
I0424 21:32:26.386247 23283 layer_factory.hpp:77] Creating layer fire5/squeeze1x1
I0424 21:32:26.386260 23283 net.cpp:84] Creating Layer fire5/squeeze1x1
I0424 21:32:26.386265 23283 net.cpp:406] fire5/squeeze1x1 <- fire4/concat
I0424 21:32:26.386272 23283 net.cpp:380] fire5/squeeze1x1 -> fire5/squeeze1x1
I0424 21:32:26.387763 23283 net.cpp:122] Setting up fire5/squeeze1x1
I0424 21:32:26.387782 23283 net.cpp:129] Top shape: 40 32 28 28 (1003520)
I0424 21:32:26.387787 23283 net.cpp:137] Memory required for data: 900397920
I0424 21:32:26.387795 23283 layer_factory.hpp:77] Creating layer fire5/relu_squeeze1x1
I0424 21:32:26.387804 23283 net.cpp:84] Creating Layer fire5/relu_squeeze1x1
I0424 21:32:26.387809 23283 net.cpp:406] fire5/relu_squeeze1x1 <- fire5/squeeze1x1
I0424 21:32:26.387817 23283 net.cpp:367] fire5/relu_squeeze1x1 -> fire5/squeeze1x1 (in-place)
I0424 21:32:26.387977 23283 net.cpp:122] Setting up fire5/relu_squeeze1x1
I0424 21:32:26.387989 23283 net.cpp:129] Top shape: 40 32 28 28 (1003520)
I0424 21:32:26.387991 23283 net.cpp:137] Memory required for data: 904412000
I0424 21:32:26.387995 23283 layer_factory.hpp:77] Creating layer fire5/squeeze1x1_fire5/relu_squeeze1x1_0_split
I0424 21:32:26.388011 23283 net.cpp:84] Creating Layer fire5/squeeze1x1_fire5/relu_squeeze1x1_0_split
I0424 21:32:26.388016 23283 net.cpp:406] fire5/squeeze1x1_fire5/relu_squeeze1x1_0_split <- fire5/squeeze1x1
I0424 21:32:26.388022 23283 net.cpp:380] fire5/squeeze1x1_fire5/relu_squeeze1x1_0_split -> fire5/squeeze1x1_fire5/relu_squeeze1x1_0_split_0
I0424 21:32:26.388049 23283 net.cpp:380] fire5/squeeze1x1_fire5/relu_squeeze1x1_0_split -> fire5/squeeze1x1_fire5/relu_squeeze1x1_0_split_1
I0424 21:32:26.388093 23283 net.cpp:122] Setting up fire5/squeeze1x1_fire5/relu_squeeze1x1_0_split
I0424 21:32:26.388110 23283 net.cpp:129] Top shape: 40 32 28 28 (1003520)
I0424 21:32:26.388115 23283 net.cpp:129] Top shape: 40 32 28 28 (1003520)
I0424 21:32:26.388118 23283 net.cpp:137] Memory required for data: 912440160
I0424 21:32:26.388123 23283 layer_factory.hpp:77] Creating layer fire5/expand1x1
I0424 21:32:26.388134 23283 net.cpp:84] Creating Layer fire5/expand1x1
I0424 21:32:26.388137 23283 net.cpp:406] fire5/expand1x1 <- fire5/squeeze1x1_fire5/relu_squeeze1x1_0_split_0
I0424 21:32:26.388144 23283 net.cpp:380] fire5/expand1x1 -> fire5/expand1x1
I0424 21:32:26.393651 23283 net.cpp:122] Setting up fire5/expand1x1
I0424 21:32:26.393685 23283 net.cpp:129] Top shape: 40 128 28 28 (4014080)
I0424 21:32:26.393694 23283 net.cpp:137] Memory required for data: 928496480
I0424 21:32:26.393709 23283 layer_factory.hpp:77] Creating layer fire5/relu_expand1x1
I0424 21:32:26.393724 23283 net.cpp:84] Creating Layer fire5/relu_expand1x1
I0424 21:32:26.393734 23283 net.cpp:406] fire5/relu_expand1x1 <- fire5/expand1x1
I0424 21:32:26.393748 23283 net.cpp:367] fire5/relu_expand1x1 -> fire5/expand1x1 (in-place)
I0424 21:32:26.395705 23283 net.cpp:122] Setting up fire5/relu_expand1x1
I0424 21:32:26.395726 23283 net.cpp:129] Top shape: 40 128 28 28 (4014080)
I0424 21:32:26.395733 23283 net.cpp:137] Memory required for data: 944552800
I0424 21:32:26.395740 23283 layer_factory.hpp:77] Creating layer fire5/expand3x3
I0424 21:32:26.395759 23283 net.cpp:84] Creating Layer fire5/expand3x3
I0424 21:32:26.395768 23283 net.cpp:406] fire5/expand3x3 <- fire5/squeeze1x1_fire5/relu_squeeze1x1_0_split_1
I0424 21:32:26.395783 23283 net.cpp:380] fire5/expand3x3 -> fire5/expand3x3
I0424 21:32:26.402660 23283 net.cpp:122] Setting up fire5/expand3x3
I0424 21:32:26.402689 23283 net.cpp:129] Top shape: 40 128 28 28 (4014080)
I0424 21:32:26.402699 23283 net.cpp:137] Memory required for data: 960609120
I0424 21:32:26.402714 23283 layer_factory.hpp:77] Creating layer fire5/relu_expand3x3
I0424 21:32:26.402727 23283 net.cpp:84] Creating Layer fire5/relu_expand3x3
I0424 21:32:26.402736 23283 net.cpp:406] fire5/relu_expand3x3 <- fire5/expand3x3
I0424 21:32:26.402748 23283 net.cpp:367] fire5/relu_expand3x3 -> fire5/expand3x3 (in-place)
I0424 21:32:26.406821 23283 net.cpp:122] Setting up fire5/relu_expand3x3
I0424 21:32:26.406862 23283 net.cpp:129] Top shape: 40 128 28 28 (4014080)
I0424 21:32:26.406872 23283 net.cpp:137] Memory required for data: 976665440
I0424 21:32:26.406882 23283 layer_factory.hpp:77] Creating layer fire5/concat
I0424 21:32:26.406896 23283 net.cpp:84] Creating Layer fire5/concat
I0424 21:32:26.406906 23283 net.cpp:406] fire5/concat <- fire5/expand1x1
I0424 21:32:26.406918 23283 net.cpp:406] fire5/concat <- fire5/expand3x3
I0424 21:32:26.406929 23283 net.cpp:380] fire5/concat -> fire5/concat
I0424 21:32:26.406997 23283 net.cpp:122] Setting up fire5/concat
I0424 21:32:26.407013 23283 net.cpp:129] Top shape: 40 256 28 28 (8028160)
I0424 21:32:26.407021 23283 net.cpp:137] Memory required for data: 1008778080
I0424 21:32:26.407028 23283 layer_factory.hpp:77] Creating layer pool5
I0424 21:32:26.407039 23283 net.cpp:84] Creating Layer pool5
I0424 21:32:26.407050 23283 net.cpp:406] pool5 <- fire5/concat
I0424 21:32:26.407061 23283 net.cpp:380] pool5 -> pool5
I0424 21:32:26.407145 23283 net.cpp:122] Setting up pool5
I0424 21:32:26.407162 23283 net.cpp:129] Top shape: 40 256 14 14 (2007040)
I0424 21:32:26.407171 23283 net.cpp:137] Memory required for data: 1016806240
I0424 21:32:26.407177 23283 layer_factory.hpp:77] Creating layer fire6/squeeze1x1
I0424 21:32:26.407198 23283 net.cpp:84] Creating Layer fire6/squeeze1x1
I0424 21:32:26.407208 23283 net.cpp:406] fire6/squeeze1x1 <- pool5
I0424 21:32:26.407219 23283 net.cpp:380] fire6/squeeze1x1 -> fire6/squeeze1x1
I0424 21:32:26.411934 23283 net.cpp:122] Setting up fire6/squeeze1x1
I0424 21:32:26.411980 23283 net.cpp:129] Top shape: 40 48 14 14 (376320)
I0424 21:32:26.411993 23283 net.cpp:137] Memory required for data: 1018311520
I0424 21:32:26.412037 23283 layer_factory.hpp:77] Creating layer fire6/relu_squeeze1x1
I0424 21:32:26.412056 23283 net.cpp:84] Creating Layer fire6/relu_squeeze1x1
I0424 21:32:26.412066 23283 net.cpp:406] fire6/relu_squeeze1x1 <- fire6/squeeze1x1
I0424 21:32:26.412081 23283 net.cpp:367] fire6/relu_squeeze1x1 -> fire6/squeeze1x1 (in-place)
I0424 21:32:26.413964 23283 net.cpp:122] Setting up fire6/relu_squeeze1x1
I0424 21:32:26.413985 23283 net.cpp:129] Top shape: 40 48 14 14 (376320)
I0424 21:32:26.413993 23283 net.cpp:137] Memory required for data: 1019816800
I0424 21:32:26.414001 23283 layer_factory.hpp:77] Creating layer fire6/squeeze1x1_fire6/relu_squeeze1x1_0_split
I0424 21:32:26.414016 23283 net.cpp:84] Creating Layer fire6/squeeze1x1_fire6/relu_squeeze1x1_0_split
I0424 21:32:26.414024 23283 net.cpp:406] fire6/squeeze1x1_fire6/relu_squeeze1x1_0_split <- fire6/squeeze1x1
I0424 21:32:26.414036 23283 net.cpp:380] fire6/squeeze1x1_fire6/relu_squeeze1x1_0_split -> fire6/squeeze1x1_fire6/relu_squeeze1x1_0_split_0
I0424 21:32:26.414055 23283 net.cpp:380] fire6/squeeze1x1_fire6/relu_squeeze1x1_0_split -> fire6/squeeze1x1_fire6/relu_squeeze1x1_0_split_1
I0424 21:32:26.414139 23283 net.cpp:122] Setting up fire6/squeeze1x1_fire6/relu_squeeze1x1_0_split
I0424 21:32:26.414156 23283 net.cpp:129] Top shape: 40 48 14 14 (376320)
I0424 21:32:26.414167 23283 net.cpp:129] Top shape: 40 48 14 14 (376320)
I0424 21:32:26.414175 23283 net.cpp:137] Memory required for data: 1022827360
I0424 21:32:26.414180 23283 layer_factory.hpp:77] Creating layer fire6/expand1x1
I0424 21:32:26.414196 23283 net.cpp:84] Creating Layer fire6/expand1x1
I0424 21:32:26.414206 23283 net.cpp:406] fire6/expand1x1 <- fire6/squeeze1x1_fire6/relu_squeeze1x1_0_split_0
I0424 21:32:26.414222 23283 net.cpp:380] fire6/expand1x1 -> fire6/expand1x1
I0424 21:32:26.421140 23283 net.cpp:122] Setting up fire6/expand1x1
I0424 21:32:26.421185 23283 net.cpp:129] Top shape: 40 192 14 14 (1505280)
I0424 21:32:26.421195 23283 net.cpp:137] Memory required for data: 1028848480
I0424 21:32:26.421214 23283 layer_factory.hpp:77] Creating layer fire6/relu_expand1x1
I0424 21:32:26.421236 23283 net.cpp:84] Creating Layer fire6/relu_expand1x1
I0424 21:32:26.421247 23283 net.cpp:406] fire6/relu_expand1x1 <- fire6/expand1x1
I0424 21:32:26.421262 23283 net.cpp:367] fire6/relu_expand1x1 -> fire6/expand1x1 (in-place)
I0424 21:32:26.423125 23283 net.cpp:122] Setting up fire6/relu_expand1x1
I0424 21:32:26.423144 23283 net.cpp:129] Top shape: 40 192 14 14 (1505280)
I0424 21:32:26.423153 23283 net.cpp:137] Memory required for data: 1034869600
I0424 21:32:26.423159 23283 layer_factory.hpp:77] Creating layer fire6/expand3x3
I0424 21:32:26.423180 23283 net.cpp:84] Creating Layer fire6/expand3x3
I0424 21:32:26.423189 23283 net.cpp:406] fire6/expand3x3 <- fire6/squeeze1x1_fire6/relu_squeeze1x1_0_split_1
I0424 21:32:26.423204 23283 net.cpp:380] fire6/expand3x3 -> fire6/expand3x3
I0424 21:32:26.430241 23283 net.cpp:122] Setting up fire6/expand3x3
I0424 21:32:26.430265 23283 net.cpp:129] Top shape: 40 192 14 14 (1505280)
I0424 21:32:26.430269 23283 net.cpp:137] Memory required for data: 1040890720
I0424 21:32:26.430280 23283 layer_factory.hpp:77] Creating layer fire6/relu_expand3x3
I0424 21:32:26.430289 23283 net.cpp:84] Creating Layer fire6/relu_expand3x3
I0424 21:32:26.430294 23283 net.cpp:406] fire6/relu_expand3x3 <- fire6/expand3x3
I0424 21:32:26.430302 23283 net.cpp:367] fire6/relu_expand3x3 -> fire6/expand3x3 (in-place)
I0424 21:32:26.431993 23283 net.cpp:122] Setting up fire6/relu_expand3x3
I0424 21:32:26.432008 23283 net.cpp:129] Top shape: 40 192 14 14 (1505280)
I0424 21:32:26.432013 23283 net.cpp:137] Memory required for data: 1046911840
I0424 21:32:26.432016 23283 layer_factory.hpp:77] Creating layer fire6/concat
I0424 21:32:26.432023 23283 net.cpp:84] Creating Layer fire6/concat
I0424 21:32:26.432027 23283 net.cpp:406] fire6/concat <- fire6/expand1x1
I0424 21:32:26.432056 23283 net.cpp:406] fire6/concat <- fire6/expand3x3
I0424 21:32:26.432065 23283 net.cpp:380] fire6/concat -> fire6/concat
I0424 21:32:26.432116 23283 net.cpp:122] Setting up fire6/concat
I0424 21:32:26.432122 23283 net.cpp:129] Top shape: 40 384 14 14 (3010560)
I0424 21:32:26.432126 23283 net.cpp:137] Memory required for data: 1058954080
I0424 21:32:26.432130 23283 layer_factory.hpp:77] Creating layer fire7/squeeze1x1
I0424 21:32:26.432142 23283 net.cpp:84] Creating Layer fire7/squeeze1x1
I0424 21:32:26.432147 23283 net.cpp:406] fire7/squeeze1x1 <- fire6/concat
I0424 21:32:26.432154 23283 net.cpp:380] fire7/squeeze1x1 -> fire7/squeeze1x1
I0424 21:32:26.438891 23283 net.cpp:122] Setting up fire7/squeeze1x1
I0424 21:32:26.438953 23283 net.cpp:129] Top shape: 40 48 14 14 (376320)
I0424 21:32:26.438962 23283 net.cpp:137] Memory required for data: 1060459360
I0424 21:32:26.439004 23283 layer_factory.hpp:77] Creating layer fire7/relu_squeeze1x1
I0424 21:32:26.439031 23283 net.cpp:84] Creating Layer fire7/relu_squeeze1x1
I0424 21:32:26.439039 23283 net.cpp:406] fire7/relu_squeeze1x1 <- fire7/squeeze1x1
I0424 21:32:26.439056 23283 net.cpp:367] fire7/relu_squeeze1x1 -> fire7/squeeze1x1 (in-place)
I0424 21:32:26.440846 23283 net.cpp:122] Setting up fire7/relu_squeeze1x1
I0424 21:32:26.440883 23283 net.cpp:129] Top shape: 40 48 14 14 (376320)
I0424 21:32:26.440891 23283 net.cpp:137] Memory required for data: 1061964640
I0424 21:32:26.440899 23283 layer_factory.hpp:77] Creating layer fire7/squeeze1x1_fire7/relu_squeeze1x1_0_split
I0424 21:32:26.440914 23283 net.cpp:84] Creating Layer fire7/squeeze1x1_fire7/relu_squeeze1x1_0_split
I0424 21:32:26.440929 23283 net.cpp:406] fire7/squeeze1x1_fire7/relu_squeeze1x1_0_split <- fire7/squeeze1x1
I0424 21:32:26.440946 23283 net.cpp:380] fire7/squeeze1x1_fire7/relu_squeeze1x1_0_split -> fire7/squeeze1x1_fire7/relu_squeeze1x1_0_split_0
I0424 21:32:26.440964 23283 net.cpp:380] fire7/squeeze1x1_fire7/relu_squeeze1x1_0_split -> fire7/squeeze1x1_fire7/relu_squeeze1x1_0_split_1
I0424 21:32:26.441081 23283 net.cpp:122] Setting up fire7/squeeze1x1_fire7/relu_squeeze1x1_0_split
I0424 21:32:26.441094 23283 net.cpp:129] Top shape: 40 48 14 14 (376320)
I0424 21:32:26.441102 23283 net.cpp:129] Top shape: 40 48 14 14 (376320)
I0424 21:32:26.441108 23283 net.cpp:137] Memory required for data: 1064975200
I0424 21:32:26.441115 23283 layer_factory.hpp:77] Creating layer fire7/expand1x1
I0424 21:32:26.441138 23283 net.cpp:84] Creating Layer fire7/expand1x1
I0424 21:32:26.441145 23283 net.cpp:406] fire7/expand1x1 <- fire7/squeeze1x1_fire7/relu_squeeze1x1_0_split_0
I0424 21:32:26.441156 23283 net.cpp:380] fire7/expand1x1 -> fire7/expand1x1
I0424 21:32:26.452198 23283 net.cpp:122] Setting up fire7/expand1x1
I0424 21:32:26.452293 23283 net.cpp:129] Top shape: 40 192 14 14 (1505280)
I0424 21:32:26.452306 23283 net.cpp:137] Memory required for data: 1070996320
I0424 21:32:26.452332 23283 layer_factory.hpp:77] Creating layer fire7/relu_expand1x1
I0424 21:32:26.452361 23283 net.cpp:84] Creating Layer fire7/relu_expand1x1
I0424 21:32:26.452375 23283 net.cpp:406] fire7/relu_expand1x1 <- fire7/expand1x1
I0424 21:32:26.452394 23283 net.cpp:367] fire7/relu_expand1x1 -> fire7/expand1x1 (in-place)
I0424 21:32:26.454005 23283 net.cpp:122] Setting up fire7/relu_expand1x1
I0424 21:32:26.454047 23283 net.cpp:129] Top shape: 40 192 14 14 (1505280)
I0424 21:32:26.454072 23283 net.cpp:137] Memory required for data: 1077017440
I0424 21:32:26.454084 23283 layer_factory.hpp:77] Creating layer fire7/expand3x3
I0424 21:32:26.454116 23283 net.cpp:84] Creating Layer fire7/expand3x3
I0424 21:32:26.454130 23283 net.cpp:406] fire7/expand3x3 <- fire7/squeeze1x1_fire7/relu_squeeze1x1_0_split_1
I0424 21:32:26.454154 23283 net.cpp:380] fire7/expand3x3 -> fire7/expand3x3
I0424 21:32:26.466786 23283 net.cpp:122] Setting up fire7/expand3x3
I0424 21:32:26.466828 23283 net.cpp:129] Top shape: 40 192 14 14 (1505280)
I0424 21:32:26.466837 23283 net.cpp:137] Memory required for data: 1083038560
I0424 21:32:26.466877 23283 layer_factory.hpp:77] Creating layer fire7/relu_expand3x3
I0424 21:32:26.466895 23283 net.cpp:84] Creating Layer fire7/relu_expand3x3
I0424 21:32:26.466905 23283 net.cpp:406] fire7/relu_expand3x3 <- fire7/expand3x3
I0424 21:32:26.466938 23283 net.cpp:367] fire7/relu_expand3x3 -> fire7/expand3x3 (in-place)
I0424 21:32:26.467205 23283 net.cpp:122] Setting up fire7/relu_expand3x3
I0424 21:32:26.467221 23283 net.cpp:129] Top shape: 40 192 14 14 (1505280)
I0424 21:32:26.467226 23283 net.cpp:137] Memory required for data: 1089059680
I0424 21:32:26.467233 23283 layer_factory.hpp:77] Creating layer fire7/concat
I0424 21:32:26.467243 23283 net.cpp:84] Creating Layer fire7/concat
I0424 21:32:26.467249 23283 net.cpp:406] fire7/concat <- fire7/expand1x1
I0424 21:32:26.467257 23283 net.cpp:406] fire7/concat <- fire7/expand3x3
I0424 21:32:26.467268 23283 net.cpp:380] fire7/concat -> fire7/concat
I0424 21:32:26.467319 23283 net.cpp:122] Setting up fire7/concat
I0424 21:32:26.467330 23283 net.cpp:129] Top shape: 40 384 14 14 (3010560)
I0424 21:32:26.467336 23283 net.cpp:137] Memory required for data: 1101101920
I0424 21:32:26.467344 23283 layer_factory.hpp:77] Creating layer fire8/squeeze1x1
I0424 21:32:26.467360 23283 net.cpp:84] Creating Layer fire8/squeeze1x1
I0424 21:32:26.467367 23283 net.cpp:406] fire8/squeeze1x1 <- fire7/concat
I0424 21:32:26.467377 23283 net.cpp:380] fire8/squeeze1x1 -> fire8/squeeze1x1
I0424 21:32:26.469355 23283 net.cpp:122] Setting up fire8/squeeze1x1
I0424 21:32:26.469377 23283 net.cpp:129] Top shape: 40 64 14 14 (501760)
I0424 21:32:26.469383 23283 net.cpp:137] Memory required for data: 1103108960
I0424 21:32:26.469394 23283 layer_factory.hpp:77] Creating layer fire8/relu_squeeze1x1
I0424 21:32:26.469405 23283 net.cpp:84] Creating Layer fire8/relu_squeeze1x1
I0424 21:32:26.469413 23283 net.cpp:406] fire8/relu_squeeze1x1 <- fire8/squeeze1x1
I0424 21:32:26.469424 23283 net.cpp:367] fire8/relu_squeeze1x1 -> fire8/squeeze1x1 (in-place)
I0424 21:32:26.469650 23283 net.cpp:122] Setting up fire8/relu_squeeze1x1
I0424 21:32:26.469664 23283 net.cpp:129] Top shape: 40 64 14 14 (501760)
I0424 21:32:26.469671 23283 net.cpp:137] Memory required for data: 1105116000
I0424 21:32:26.469676 23283 layer_factory.hpp:77] Creating layer fire8/squeeze1x1_fire8/relu_squeeze1x1_0_split
I0424 21:32:26.469686 23283 net.cpp:84] Creating Layer fire8/squeeze1x1_fire8/relu_squeeze1x1_0_split
I0424 21:32:26.469693 23283 net.cpp:406] fire8/squeeze1x1_fire8/relu_squeeze1x1_0_split <- fire8/squeeze1x1
I0424 21:32:26.469705 23283 net.cpp:380] fire8/squeeze1x1_fire8/relu_squeeze1x1_0_split -> fire8/squeeze1x1_fire8/relu_squeeze1x1_0_split_0
I0424 21:32:26.469717 23283 net.cpp:380] fire8/squeeze1x1_fire8/relu_squeeze1x1_0_split -> fire8/squeeze1x1_fire8/relu_squeeze1x1_0_split_1
I0424 21:32:26.469779 23283 net.cpp:122] Setting up fire8/squeeze1x1_fire8/relu_squeeze1x1_0_split
I0424 21:32:26.469790 23283 net.cpp:129] Top shape: 40 64 14 14 (501760)
I0424 21:32:26.469799 23283 net.cpp:129] Top shape: 40 64 14 14 (501760)
I0424 21:32:26.469805 23283 net.cpp:137] Memory required for data: 1109130080
I0424 21:32:26.469810 23283 layer_factory.hpp:77] Creating layer fire8/expand1x1
I0424 21:32:26.469825 23283 net.cpp:84] Creating Layer fire8/expand1x1
I0424 21:32:26.469832 23283 net.cpp:406] fire8/expand1x1 <- fire8/squeeze1x1_fire8/relu_squeeze1x1_0_split_0
I0424 21:32:26.469842 23283 net.cpp:380] fire8/expand1x1 -> fire8/expand1x1
I0424 21:32:26.471669 23283 net.cpp:122] Setting up fire8/expand1x1
I0424 21:32:26.471690 23283 net.cpp:129] Top shape: 40 256 14 14 (2007040)
I0424 21:32:26.471696 23283 net.cpp:137] Memory required for data: 1117158240
I0424 21:32:26.471709 23283 layer_factory.hpp:77] Creating layer fire8/relu_expand1x1
I0424 21:32:26.471720 23283 net.cpp:84] Creating Layer fire8/relu_expand1x1
I0424 21:32:26.471729 23283 net.cpp:406] fire8/relu_expand1x1 <- fire8/expand1x1
I0424 21:32:26.471737 23283 net.cpp:367] fire8/relu_expand1x1 -> fire8/expand1x1 (in-place)
I0424 21:32:26.471958 23283 net.cpp:122] Setting up fire8/relu_expand1x1
I0424 21:32:26.471990 23283 net.cpp:129] Top shape: 40 256 14 14 (2007040)
I0424 21:32:26.471998 23283 net.cpp:137] Memory required for data: 1125186400
I0424 21:32:26.472015 23283 layer_factory.hpp:77] Creating layer fire8/expand3x3
I0424 21:32:26.472030 23283 net.cpp:84] Creating Layer fire8/expand3x3
I0424 21:32:26.472038 23283 net.cpp:406] fire8/expand3x3 <- fire8/squeeze1x1_fire8/relu_squeeze1x1_0_split_1
I0424 21:32:26.472050 23283 net.cpp:380] fire8/expand3x3 -> fire8/expand3x3
I0424 21:32:26.476104 23283 net.cpp:122] Setting up fire8/expand3x3
I0424 21:32:26.476147 23283 net.cpp:129] Top shape: 40 256 14 14 (2007040)
I0424 21:32:26.476155 23283 net.cpp:137] Memory required for data: 1133214560
I0424 21:32:26.476171 23283 layer_factory.hpp:77] Creating layer fire8/relu_expand3x3
I0424 21:32:26.476184 23283 net.cpp:84] Creating Layer fire8/relu_expand3x3
I0424 21:32:26.476192 23283 net.cpp:406] fire8/relu_expand3x3 <- fire8/expand3x3
I0424 21:32:26.476204 23283 net.cpp:367] fire8/relu_expand3x3 -> fire8/expand3x3 (in-place)
I0424 21:32:26.476450 23283 net.cpp:122] Setting up fire8/relu_expand3x3
I0424 21:32:26.476465 23283 net.cpp:129] Top shape: 40 256 14 14 (2007040)
I0424 21:32:26.476471 23283 net.cpp:137] Memory required for data: 1141242720
I0424 21:32:26.476477 23283 layer_factory.hpp:77] Creating layer fire8/concat
I0424 21:32:26.476490 23283 net.cpp:84] Creating Layer fire8/concat
I0424 21:32:26.476497 23283 net.cpp:406] fire8/concat <- fire8/expand1x1
I0424 21:32:26.476505 23283 net.cpp:406] fire8/concat <- fire8/expand3x3
I0424 21:32:26.476512 23283 net.cpp:380] fire8/concat -> fire8/concat
I0424 21:32:26.476563 23283 net.cpp:122] Setting up fire8/concat
I0424 21:32:26.476574 23283 net.cpp:129] Top shape: 40 512 14 14 (4014080)
I0424 21:32:26.476580 23283 net.cpp:137] Memory required for data: 1157299040
I0424 21:32:26.476586 23283 layer_factory.hpp:77] Creating layer fire9/squeeze1x1
I0424 21:32:26.476603 23283 net.cpp:84] Creating Layer fire9/squeeze1x1
I0424 21:32:26.476609 23283 net.cpp:406] fire9/squeeze1x1 <- fire8/concat
I0424 21:32:26.476620 23283 net.cpp:380] fire9/squeeze1x1 -> fire9/squeeze1x1
I0424 21:32:26.487274 23283 net.cpp:122] Setting up fire9/squeeze1x1
I0424 21:32:26.487313 23283 net.cpp:129] Top shape: 40 64 14 14 (501760)
I0424 21:32:26.487320 23283 net.cpp:137] Memory required for data: 1159306080
I0424 21:32:26.487336 23283 layer_factory.hpp:77] Creating layer fire9/relu_squeeze1x1
I0424 21:32:26.487371 23283 net.cpp:84] Creating Layer fire9/relu_squeeze1x1
I0424 21:32:26.487381 23283 net.cpp:406] fire9/relu_squeeze1x1 <- fire9/squeeze1x1
I0424 21:32:26.487393 23283 net.cpp:367] fire9/relu_squeeze1x1 -> fire9/squeeze1x1 (in-place)
I0424 21:32:26.487630 23283 net.cpp:122] Setting up fire9/relu_squeeze1x1
I0424 21:32:26.487646 23283 net.cpp:129] Top shape: 40 64 14 14 (501760)
I0424 21:32:26.487653 23283 net.cpp:137] Memory required for data: 1161313120
I0424 21:32:26.487660 23283 layer_factory.hpp:77] Creating layer fire9/squeeze1x1_fire9/relu_squeeze1x1_0_split
I0424 21:32:26.487674 23283 net.cpp:84] Creating Layer fire9/squeeze1x1_fire9/relu_squeeze1x1_0_split
I0424 21:32:26.487681 23283 net.cpp:406] fire9/squeeze1x1_fire9/relu_squeeze1x1_0_split <- fire9/squeeze1x1
I0424 21:32:26.487694 23283 net.cpp:380] fire9/squeeze1x1_fire9/relu_squeeze1x1_0_split -> fire9/squeeze1x1_fire9/relu_squeeze1x1_0_split_0
I0424 21:32:26.487709 23283 net.cpp:380] fire9/squeeze1x1_fire9/relu_squeeze1x1_0_split -> fire9/squeeze1x1_fire9/relu_squeeze1x1_0_split_1
I0424 21:32:26.487797 23283 net.cpp:122] Setting up fire9/squeeze1x1_fire9/relu_squeeze1x1_0_split
I0424 21:32:26.487808 23283 net.cpp:129] Top shape: 40 64 14 14 (501760)
I0424 21:32:26.487818 23283 net.cpp:129] Top shape: 40 64 14 14 (501760)
I0424 21:32:26.487823 23283 net.cpp:137] Memory required for data: 1165327200
I0424 21:32:26.487828 23283 layer_factory.hpp:77] Creating layer fire9/expand1x1
I0424 21:32:26.487854 23283 net.cpp:84] Creating Layer fire9/expand1x1
I0424 21:32:26.487861 23283 net.cpp:406] fire9/expand1x1 <- fire9/squeeze1x1_fire9/relu_squeeze1x1_0_split_0
I0424 21:32:26.487912 23283 net.cpp:380] fire9/expand1x1 -> fire9/expand1x1
I0424 21:32:26.490366 23283 net.cpp:122] Setting up fire9/expand1x1
I0424 21:32:26.490399 23283 net.cpp:129] Top shape: 40 256 14 14 (2007040)
I0424 21:32:26.490407 23283 net.cpp:137] Memory required for data: 1173355360
I0424 21:32:26.490419 23283 layer_factory.hpp:77] Creating layer fire9/relu_expand1x1
I0424 21:32:26.490432 23283 net.cpp:84] Creating Layer fire9/relu_expand1x1
I0424 21:32:26.490438 23283 net.cpp:406] fire9/relu_expand1x1 <- fire9/expand1x1
I0424 21:32:26.490448 23283 net.cpp:367] fire9/relu_expand1x1 -> fire9/expand1x1 (in-place)
I0424 21:32:26.491700 23283 net.cpp:122] Setting up fire9/relu_expand1x1
I0424 21:32:26.491729 23283 net.cpp:129] Top shape: 40 256 14 14 (2007040)
I0424 21:32:26.491739 23283 net.cpp:137] Memory required for data: 1181383520
I0424 21:32:26.491749 23283 layer_factory.hpp:77] Creating layer fire9/expand3x3
I0424 21:32:26.491768 23283 net.cpp:84] Creating Layer fire9/expand3x3
I0424 21:32:26.491778 23283 net.cpp:406] fire9/expand3x3 <- fire9/squeeze1x1_fire9/relu_squeeze1x1_0_split_1
I0424 21:32:26.491796 23283 net.cpp:380] fire9/expand3x3 -> fire9/expand3x3
I0424 21:32:26.502034 23283 net.cpp:122] Setting up fire9/expand3x3
I0424 21:32:26.502127 23283 net.cpp:129] Top shape: 40 256 14 14 (2007040)
I0424 21:32:26.502138 23283 net.cpp:137] Memory required for data: 1189411680
I0424 21:32:26.502168 23283 layer_factory.hpp:77] Creating layer fire9/relu_expand3x3
I0424 21:32:26.502197 23283 net.cpp:84] Creating Layer fire9/relu_expand3x3
I0424 21:32:26.502210 23283 net.cpp:406] fire9/relu_expand3x3 <- fire9/expand3x3
I0424 21:32:26.502234 23283 net.cpp:367] fire9/relu_expand3x3 -> fire9/expand3x3 (in-place)
I0424 21:32:26.502609 23283 net.cpp:122] Setting up fire9/relu_expand3x3
I0424 21:32:26.502629 23283 net.cpp:129] Top shape: 40 256 14 14 (2007040)
I0424 21:32:26.502655 23283 net.cpp:137] Memory required for data: 1197439840
I0424 21:32:26.502665 23283 layer_factory.hpp:77] Creating layer fire9/concat
I0424 21:32:26.502679 23283 net.cpp:84] Creating Layer fire9/concat
I0424 21:32:26.502689 23283 net.cpp:406] fire9/concat <- fire9/expand1x1
I0424 21:32:26.502698 23283 net.cpp:406] fire9/concat <- fire9/expand3x3
I0424 21:32:26.502712 23283 net.cpp:380] fire9/concat -> fire9/concat
I0424 21:32:26.502830 23283 net.cpp:122] Setting up fire9/concat
I0424 21:32:26.502845 23283 net.cpp:129] Top shape: 40 512 14 14 (4014080)
I0424 21:32:26.502852 23283 net.cpp:137] Memory required for data: 1213496160
I0424 21:32:26.502859 23283 layer_factory.hpp:77] Creating layer drop9
I0424 21:32:26.502878 23283 net.cpp:84] Creating Layer drop9
I0424 21:32:26.502887 23283 net.cpp:406] drop9 <- fire9/concat
I0424 21:32:26.502897 23283 net.cpp:367] drop9 -> fire9/concat (in-place)
I0424 21:32:26.502959 23283 net.cpp:122] Setting up drop9
I0424 21:32:26.502974 23283 net.cpp:129] Top shape: 40 512 14 14 (4014080)
I0424 21:32:26.502981 23283 net.cpp:137] Memory required for data: 1229552480
I0424 21:32:26.502990 23283 layer_factory.hpp:77] Creating layer conv10_new
I0424 21:32:26.503016 23283 net.cpp:84] Creating Layer conv10_new
I0424 21:32:26.503024 23283 net.cpp:406] conv10_new <- fire9/concat
I0424 21:32:26.503049 23283 net.cpp:380] conv10_new -> conv10_new
I0424 21:32:26.507653 23283 net.cpp:122] Setting up conv10_new
I0424 21:32:26.507705 23283 net.cpp:129] Top shape: 40 196 14 14 (1536640)
I0424 21:32:26.507714 23283 net.cpp:137] Memory required for data: 1235699040
I0424 21:32:26.507735 23283 layer_factory.hpp:77] Creating layer relu_conv10
I0424 21:32:26.507752 23283 net.cpp:84] Creating Layer relu_conv10
I0424 21:32:26.507763 23283 net.cpp:406] relu_conv10 <- conv10_new
I0424 21:32:26.507781 23283 net.cpp:367] relu_conv10 -> conv10_new (in-place)
I0424 21:32:26.508047 23283 net.cpp:122] Setting up relu_conv10
I0424 21:32:26.508064 23283 net.cpp:129] Top shape: 40 196 14 14 (1536640)
I0424 21:32:26.508071 23283 net.cpp:137] Memory required for data: 1241845600
I0424 21:32:26.508113 23283 layer_factory.hpp:77] Creating layer pool10
I0424 21:32:26.508128 23283 net.cpp:84] Creating Layer pool10
I0424 21:32:26.508137 23283 net.cpp:406] pool10 <- conv10_new
I0424 21:32:26.508172 23283 net.cpp:380] pool10 -> pool10
I0424 21:32:26.508456 23283 net.cpp:122] Setting up pool10
I0424 21:32:26.508472 23283 net.cpp:129] Top shape: 40 196 1 1 (7840)
I0424 21:32:26.508481 23283 net.cpp:137] Memory required for data: 1241876960
I0424 21:32:26.508487 23283 layer_factory.hpp:77] Creating layer pool10_pool10_0_split
I0424 21:32:26.508498 23283 net.cpp:84] Creating Layer pool10_pool10_0_split
I0424 21:32:26.508508 23283 net.cpp:406] pool10_pool10_0_split <- pool10
I0424 21:32:26.508522 23283 net.cpp:380] pool10_pool10_0_split -> pool10_pool10_0_split_0
I0424 21:32:26.508536 23283 net.cpp:380] pool10_pool10_0_split -> pool10_pool10_0_split_1
I0424 21:32:26.508550 23283 net.cpp:380] pool10_pool10_0_split -> pool10_pool10_0_split_2
I0424 21:32:26.508643 23283 net.cpp:122] Setting up pool10_pool10_0_split
I0424 21:32:26.508656 23283 net.cpp:129] Top shape: 40 196 1 1 (7840)
I0424 21:32:26.508666 23283 net.cpp:129] Top shape: 40 196 1 1 (7840)
I0424 21:32:26.508674 23283 net.cpp:129] Top shape: 40 196 1 1 (7840)
I0424 21:32:26.508682 23283 net.cpp:137] Memory required for data: 1241971040
I0424 21:32:26.508689 23283 layer_factory.hpp:77] Creating layer loss
I0424 21:32:26.508699 23283 net.cpp:84] Creating Layer loss
I0424 21:32:26.508708 23283 net.cpp:406] loss <- pool10_pool10_0_split_0
I0424 21:32:26.508718 23283 net.cpp:406] loss <- label_data_1_split_0
I0424 21:32:26.508731 23283 net.cpp:380] loss -> loss
…
