…
I0425 09:52:42.978126 24800 net.cpp:294] The NetState phase (0) differed from the phase (1) specified by a rule in layer accuracy_top5
I0425 09:52:42.978469 24800 net.cpp:51] Initializing net from parameters: 
state {
  phase: TRAIN
  level: 0
  stage: ""
}
layer {
  name: "data"
  type: "ImageData"
  top: "data"
  top: "label"
  include {
    phase: TRAIN
  }
  transform_param {
    mean_value: 104
    mean_value: 117
    mean_value: 123
  }
  image_data_param {
    source: "./train.txt"
    batch_size: 40
    crop_size: 227
    mirror: true
    shuffle: true
  }
}
layer {
  name: "conv1"
  type: "Convolution"
  bottom: "data"
  top: "conv1"
  convolution_param {
    num_output: 64
    kernel_size: 3
    stride: 2
    weight_filler {
      type: "xavier"
    }
  }
}
layer {
  name: "relu_conv1"
  type: "ReLU"
  bottom: "conv1"
  top: "conv1"
}
layer {
  name: "pool1"
  type: "Pooling"
  bottom: "conv1"
  top: "pool1"
  pooling_param {
    pool: MAX
    kernel_size: 3
    stride: 2
  }
}
layer {
  name: "fire2/squeeze1x1"
  type: "Convolution"
  bottom: "pool1"
  top: "fire2/squeeze1x1"
  convolution_param {
    num_output: 16
    kernel_size: 1
    weight_filler {
      type: "xavier"
    }
  }
}
layer {
  name: "fire2/relu_squeeze1x1"
  type: "ReLU"
  bottom: "fire2/squeeze1x1"
  top: "fire2/squeeze1x1"
}
layer {
  name: "fire2/expand1x1"
  type: "Convolution"
  bottom: "fire2/squeeze1x1"
  top: "fire2/expand1x1"
  convolution_param {
    num_output: 64
    kernel_size: 1
    weight_filler {
      type: "xavier"
    }
  }
}
layer {
  name: "fire2/relu_expand1x1"
  type: "ReLU"
  bottom: "fire2/expand1x1"
  top: "fire2/expand1x1"
}
layer {
  name: "fire2/expand3x3"
  type: "Convolution"
  bottom: "fire2/squeeze1x1"
  top: "fire2/expand3x3"
  convolution_param {
    num_output: 64
    pad: 1
    kernel_size: 3
    weight_filler {
      type: "xavier"
    }
  }
}
layer {
  name: "fire2/relu_expand3x3"
  type: "ReLU"
  bottom: "fire2/expand3x3"
  top: "fire2/expand3x3"
}
layer {
  name: "fire2/concat"
  type: "Concat"
  bottom: "fire2/expand1x1"
  bottom: "fire2/expand3x3"
  top: "fire2/concat"
}
layer {
  name: "fire3/squeeze1x1"
  type: "Convolution"
  bottom: "fire2/concat"
  top: "fire3/squeeze1x1"
  convolution_param {
    num_output: 16
    kernel_size: 1
    weight_filler {
      type: "xavier"
    }
  }
}
layer {
  name: "fire3/relu_squeeze1x1"
  type: "ReLU"
  bottom: "fire3/squeeze1x1"
  top: "fire3/squeeze1x1"
}
layer {
  name: "fire3/expand1x1"
  type: "Convolution"
  bottom: "fire3/squeeze1x1"
  top: "fire3/expand1x1"
  convolution_param {
    num_output: 64
    kernel_size: 1
    weight_filler {
      type: "xavier"
    }
  }
}
layer {
  name: "fire3/relu_expand1x1"
  type: "ReLU"
  bottom: "fire3/expand1x1"
  top: "fire3/expand1x1"
}
layer {
  name: "fire3/expand3x3"
  type: "Convolution"
  bottom: "fire3/squeeze1x1"
  top: "fire3/expand3x3"
  convolution_param {
    num_output: 64
    pad: 1
    kernel_size: 3
    weight_filler {
      type: "xavier"
    }
  }
}
layer {
  name: "fire3/relu_expand3x3"
  type: "ReLU"
  bottom: "fire3/expand3x3"
  top: "fire3/expand3x3"
}
layer {
  name: "fire3/concat"
  type: "Concat"
  bottom: "fire3/expand1x1"
  bottom: "fire3/expand3x3"
  top: "fire3/concat"
}
layer {
  name: "pool3"
  type: "Pooling"
  bottom: "fire3/concat"
  top: "pool3"
  pooling_param {
    pool: MAX
    kernel_size: 3
    stride: 2
  }
}
layer {
  name: "fire4/squeeze1x1"
  type: "Convolution"
  bottom: "pool3"
  top: "fire4/squeeze1x1"
  convolution_param {
    num_output: 32
    kernel_size: 1
    weight_filler {
      type: "xavier"
    }
  }
}
layer {
  name: "fire4/relu_squeeze1x1"
  type: "ReLU"
  bottom: "fire4/squeeze1x1"
  top: "fire4/squeeze1x1"
}
layer {
  name: "fire4/expand1x1"
  type: "Convolution"
  bottom: "fire4/squeeze1x1"
  top: "fire4/expand1x1"
  convolution_param {
    num_output: 128
    kernel_size: 1
    weight_filler {
      type: "xavier"
    }
  }
}
layer {
  name: "fire4/relu_expand1x1"
  type: "ReLU"
  bottom: "fire4/expand1x1"
  top: "fire4/expand1x1"
}
layer {
  name: "fire4/expand3x3"
  type: "Convolution"
  bottom: "fire4/squeeze1x1"
  top: "fire4/expand3x3"
  convolution_param {
    num_output: 128
    pad: 1
    kernel_size: 3
    weight_filler {
      type: "xavier"
    }
  }
}
layer {
  name: "fire4/relu_expand3x3"
  type: "ReLU"
  bottom: "fire4/expand3x3"
  top: "fire4/expand3x3"
}
layer {
  name: "fire4/concat"
  type: "Concat"
  bottom: "fire4/expand1x1"
  bottom: "fire4/expand3x3"
  top: "fire4/concat"
}
layer {
  name: "fire5/squeeze1x1"
  type: "Convolution"
  bottom: "fire4/concat"
  top: "fire5/squeeze1x1"
  convolution_param {
    num_output: 32
    kernel_size: 1
    weight_filler {
      type: "xavier"
    }
  }
}
layer {
  name: "fire5/relu_squeeze1x1"
  type: "ReLU"
  bottom: "fire5/squeeze1x1"
  top: "fire5/squeeze1x1"
}
layer {
  name: "fire5/expand1x1"
  type: "Convolution"
  bottom: "fire5/squeeze1x1"
  top: "fire5/expand1x1"
  convolution_param {
    num_output: 128
    kernel_size: 1
    weight_filler {
      type: "xavier"
    }
  }
}
layer {
  name: "fire5/relu_expand1x1"
  type: "ReLU"
  bottom: "fire5/expand1x1"
  top: "fire5/expand1x1"
}
layer {
  name: "fire5/expand3x3"
  type: "Convolution"
  bottom: "fire5/squeeze1x1"
  top: "fire5/expand3x3"
  convolution_param {
    num_output: 128
    pad: 1
    kernel_size: 3
    weight_filler {
      type: "xavier"
    }
  }
}
layer {
  name: "fire5/relu_expand3x3"
  type: "ReLU"
  bottom: "fire5/expand3x3"
  top: "fire5/expand3x3"
}
layer {
  name: "fire5/concat"
  type: "Concat"
  bottom: "fire5/expand1x1"
  bottom: "fire5/expand3x3"
  top: "fire5/concat"
}
layer {
  name: "pool5"
  type: "Pooling"
  bottom: "fire5/concat"
  top: "pool5"
  pooling_param {
    pool: MAX
    kernel_size: 3
    stride: 2
  }
}
layer {
  name: "fire6/squeeze1x1"
  type: "Convolution"
  bottom: "pool5"
  top: "fire6/squeeze1x1"
  convolution_param {
    num_output: 48
    kernel_size: 1
    weight_filler {
      type: "xavier"
    }
  }
}
layer {
  name: "fire6/relu_squeeze1x1"
  type: "ReLU"
  bottom: "fire6/squeeze1x1"
  top: "fire6/squeeze1x1"
}
layer {
  name: "fire6/expand1x1"
  type: "Convolution"
  bottom: "fire6/squeeze1x1"
  top: "fire6/expand1x1"
  convolution_param {
    num_output: 192
    kernel_size: 1
    weight_filler {
      type: "xavier"
    }
  }
}
layer {
  name: "fire6/relu_expand1x1"
  type: "ReLU"
  bottom: "fire6/expand1x1"
  top: "fire6/expand1x1"
}
layer {
  name: "fire6/expand3x3"
  type: "Convolution"
  bottom: "fire6/squeeze1x1"
  top: "fire6/expand3x3"
  convolution_param {
    num_output: 192
    pad: 1
    kernel_size: 3
    weight_filler {
      type: "xavier"
    }
  }
}
layer {
  name: "fire6/relu_expand3x3"
  type: "ReLU"
  bottom: "fire6/expand3x3"
  top: "fire6/expand3x3"
}
layer {
  name: "fire6/concat"
  type: "Concat"
  bottom: "fire6/expand1x1"
  bottom: "fire6/expand3x3"
  top: "fire6/concat"
}
layer {
  name: "fire7/squeeze1x1"
  type: "Convolution"
  bottom: "fire6/concat"
  top: "fire7/squeeze1x1"
  convolution_param {
    num_output: 48
    kernel_size: 1
    weight_filler {
      type: "xavier"
    }
  }
}
layer {
  name: "fire7/relu_squeeze1x1"
  type: "ReLU"
  bottom: "fire7/squeeze1x1"
  top: "fire7/squeeze1x1"
}
layer {
  name: "fire7/expand1x1"
  type: "Convolution"
  bottom: "fire7/squeeze1x1"
  top: "fire7/expand1x1"
  convolution_param {
    num_output: 192
    kernel_size: 1
    weight_filler {
      type: "xavier"
    }
  }
}
layer {
  name: "fire7/relu_expand1x1"
  type: "ReLU"
  bottom: "fire7/expand1x1"
  top: "fire7/expand1x1"
}
layer {
  name: "fire7/expand3x3"
  type: "Convolution"
  bottom: "fire7/squeeze1x1"
  top: "fire7/expand3x3"
  convolution_param {
    num_output: 192
    pad: 1
    kernel_size: 3
    weight_filler {
      type: "xavier"
    }
  }
}
layer {
  name: "fire7/relu_expand3x3"
  type: "ReLU"
  bottom: "fire7/expand3x3"
  top: "fire7/expand3x3"
}
layer {
  name: "fire7/concat"
  type: "Concat"
  bottom: "fire7/expand1x1"
  bottom: "fire7/expand3x3"
  top: "fire7/concat"
}
layer {
  name: "fire8/squeeze1x1"
  type: "Convolution"
  bottom: "fire7/concat"
  top: "fire8/squeeze1x1"
  convolution_param {
    num_output: 64
    kernel_size: 1
    weight_filler {
      type: "xavier"
    }
  }
}
layer {
  name: "fire8/relu_squeeze1x1"
  type: "ReLU"
  bottom: "fire8/squeeze1x1"
  top: "fire8/squeeze1x1"
}
layer {
  name: "fire8/expand1x1"
  type: "Convolution"
  bottom: "fire8/squeeze1x1"
  top: "fire8/expand1x1"
  convolution_param {
    num_output: 256
    kernel_size: 1
    weight_filler {
      type: "xavier"
    }
  }
}
layer {
  name: "fire8/relu_expand1x1"
  type: "ReLU"
  bottom: "fire8/expand1x1"
  top: "fire8/expand1x1"
}
layer {
  name: "fire8/expand3x3"
  type: "Convolution"
  bottom: "fire8/squeeze1x1"
  top: "fire8/expand3x3"
  convolution_param {
    num_output: 256
    pad: 1
    kernel_size: 3
    weight_filler {
      type: "xavier"
    }
  }
}
layer {
  name: "fire8/relu_expand3x3"
  type: "ReLU"
  bottom: "fire8/expand3x3"
  top: "fire8/expand3x3"
}
layer {
  name: "fire8/concat"
  type: "Concat"
  bottom: "fire8/expand1x1"
  bottom: "fire8/expand3x3"
  top: "fire8/concat"
}
layer {
  name: "fire9/squeeze1x1"
  type: "Convolution"
  bottom: "fire8/concat"
  top: "fire9/squeeze1x1"
  convolution_param {
    num_output: 64
    kernel_size: 1
    weight_filler {
      type: "xavier"
    }
  }
}
layer {
  name: "fire9/relu_squeeze1x1"
  type: "ReLU"
  bottom: "fire9/squeeze1x1"
  top: "fire9/squeeze1x1"
}
layer {
  name: "fire9/expand1x1"
  type: "Convolution"
  bottom: "fire9/squeeze1x1"
  top: "fire9/expand1x1"
  convolution_param {
    num_output: 256
    kernel_size: 1
    weight_filler {
      type: "xavier"
    }
  }
}
layer {
  name: "fire9/relu_expand1x1"
  type: "ReLU"
  bottom: "fire9/expand1x1"
  top: "fire9/expand1x1"
}
layer {
  name: "fire9/expand3x3"
  type: "Convolution"
  bottom: "fire9/squeeze1x1"
  top: "fire9/expand3x3"
  convolution_param {
    num_output: 256
    pad: 1
    kernel_size: 3
    weight_filler {
      type: "xavier"
    }
  }
}
layer {
  name: "fire9/relu_expand3x3"
  type: "ReLU"
  bottom: "fire9/expand3x3"
  top: "fire9/expand3x3"
}
layer {
  name: "fire9/concat"
  type: "Concat"
  bottom: "fire9/expand1x1"
  bottom: "fire9/expand3x3"
  top: "fire9/concat"
}
layer {
  name: "drop9"
  type: "Dropout"
  bottom: "fire9/concat"
  top: "fire9/concat"
  dropout_param {
    dropout_ratio: 0.5
  }
}
layer {
  name: "conv10_new"
  type: "Convolution"
  bottom: "fire9/concat"
  top: "conv10_new"
  convolution_param {
    num_output: 196
    kernel_size: 1
    weight_filler {
      type: "gaussian"
      mean: 0
      std: 0.01
    }
  }
}
layer {
  name: "relu_conv10"
  type: "ReLU"
  bottom: "conv10_new"
  top: "conv10_new"
}
layer {
  name: "pool10"
  type: "Pooling"
  bottom: "conv10_new"
  top: "pool10"
  pooling_param {
    pool: AVE
    global_pooling: true
  }
}
layer {
  name: "loss"
  type: "SoftmaxWithLoss"
  bottom: "pool10"
  bottom: "label"
  top: "loss"
}
I0425 09:52:42.979018 24800 layer_factory.hpp:77] Creating layer data
I0425 09:52:42.979152 24800 net.cpp:84] Creating Layer data
I0425 09:52:42.979188 24800 net.cpp:380] data -> data
I0425 09:52:42.979277 24800 net.cpp:380] data -> label
I0425 09:52:42.979310 24800 image_data_layer.cpp:38] Opening file ./train.txt
I0425 09:52:42.984144 24800 image_data_layer.cpp:53] Shuffling data
I0425 09:52:42.986991 24800 image_data_layer.cpp:63] A total of 8144 images.
I0425 09:52:42.992331 24800 image_data_layer.cpp:90] output data size: 40,3,300,300
I0425 09:52:43.130352 24800 net.cpp:122] Setting up data
I0425 09:52:43.130404 24800 net.cpp:129] Top shape: 40 3 300 300 (10800000)
I0425 09:52:43.130414 24800 net.cpp:129] Top shape: 40 (40)
I0425 09:52:43.130417 24800 net.cpp:137] Memory required for data: 43200160
I0425 09:52:43.130427 24800 layer_factory.hpp:77] Creating layer conv1
I0425 09:52:43.130456 24800 net.cpp:84] Creating Layer conv1
I0425 09:52:43.130465 24800 net.cpp:406] conv1 <- data
I0425 09:52:43.130479 24800 net.cpp:380] conv1 -> conv1
I0425 09:52:43.714970 24800 net.cpp:122] Setting up conv1
I0425 09:52:43.715103 24800 net.cpp:129] Top shape: 40 64 149 149 (56834560)
I0425 09:52:43.715116 24800 net.cpp:137] Memory required for data: 270538400
I0425 09:52:43.715193 24800 layer_factory.hpp:77] Creating layer relu_conv1
I0425 09:52:43.715240 24800 net.cpp:84] Creating Layer relu_conv1
I0425 09:52:43.715255 24800 net.cpp:406] relu_conv1 <- conv1
I0425 09:52:43.715275 24800 net.cpp:367] relu_conv1 -> conv1 (in-place)
I0425 09:52:43.715708 24800 net.cpp:122] Setting up relu_conv1
I0425 09:52:43.715730 24800 net.cpp:129] Top shape: 40 64 149 149 (56834560)
I0425 09:52:43.715737 24800 net.cpp:137] Memory required for data: 497876640
I0425 09:52:43.715745 24800 layer_factory.hpp:77] Creating layer pool1
I0425 09:52:43.715760 24800 net.cpp:84] Creating Layer pool1
I0425 09:52:43.715767 24800 net.cpp:406] pool1 <- conv1
I0425 09:52:43.715780 24800 net.cpp:380] pool1 -> pool1
I0425 09:52:43.715925 24800 net.cpp:122] Setting up pool1
I0425 09:52:43.715945 24800 net.cpp:129] Top shape: 40 64 74 74 (14018560)
I0425 09:52:43.715951 24800 net.cpp:137] Memory required for data: 553950880
I0425 09:52:43.715958 24800 layer_factory.hpp:77] Creating layer fire2/squeeze1x1
I0425 09:52:43.715986 24800 net.cpp:84] Creating Layer fire2/squeeze1x1
I0425 09:52:43.715992 24800 net.cpp:406] fire2/squeeze1x1 <- pool1
I0425 09:52:43.716004 24800 net.cpp:380] fire2/squeeze1x1 -> fire2/squeeze1x1
I0425 09:52:43.724001 24800 net.cpp:122] Setting up fire2/squeeze1x1
I0425 09:52:43.724083 24800 net.cpp:129] Top shape: 40 16 74 74 (3504640)
I0425 09:52:43.724088 24800 net.cpp:137] Memory required for data: 567969440
I0425 09:52:43.724128 24800 layer_factory.hpp:77] Creating layer fire2/relu_squeeze1x1
I0425 09:52:43.724155 24800 net.cpp:84] Creating Layer fire2/relu_squeeze1x1
I0425 09:52:43.724162 24800 net.cpp:406] fire2/relu_squeeze1x1 <- fire2/squeeze1x1
I0425 09:52:43.724176 24800 net.cpp:367] fire2/relu_squeeze1x1 -> fire2/squeeze1x1 (in-place)
I0425 09:52:43.724464 24800 net.cpp:122] Setting up fire2/relu_squeeze1x1
I0425 09:52:43.724475 24800 net.cpp:129] Top shape: 40 16 74 74 (3504640)
I0425 09:52:43.724480 24800 net.cpp:137] Memory required for data: 581988000
I0425 09:52:43.724484 24800 layer_factory.hpp:77] Creating layer fire2/squeeze1x1_fire2/relu_squeeze1x1_0_split
I0425 09:52:43.724494 24800 net.cpp:84] Creating Layer fire2/squeeze1x1_fire2/relu_squeeze1x1_0_split
I0425 09:52:43.724499 24800 net.cpp:406] fire2/squeeze1x1_fire2/relu_squeeze1x1_0_split <- fire2/squeeze1x1
I0425 09:52:43.724508 24800 net.cpp:380] fire2/squeeze1x1_fire2/relu_squeeze1x1_0_split -> fire2/squeeze1x1_fire2/relu_squeeze1x1_0_split_0
I0425 09:52:43.724519 24800 net.cpp:380] fire2/squeeze1x1_fire2/relu_squeeze1x1_0_split -> fire2/squeeze1x1_fire2/relu_squeeze1x1_0_split_1
I0425 09:52:43.724596 24800 net.cpp:122] Setting up fire2/squeeze1x1_fire2/relu_squeeze1x1_0_split
I0425 09:52:43.724604 24800 net.cpp:129] Top shape: 40 16 74 74 (3504640)
I0425 09:52:43.724611 24800 net.cpp:129] Top shape: 40 16 74 74 (3504640)
I0425 09:52:43.724613 24800 net.cpp:137] Memory required for data: 610025120
I0425 09:52:43.724673 24800 layer_factory.hpp:77] Creating layer fire2/expand1x1
I0425 09:52:43.724692 24800 net.cpp:84] Creating Layer fire2/expand1x1
I0425 09:52:43.724697 24800 net.cpp:406] fire2/expand1x1 <- fire2/squeeze1x1_fire2/relu_squeeze1x1_0_split_0
I0425 09:52:43.724727 24800 net.cpp:380] fire2/expand1x1 -> fire2/expand1x1
I0425 09:52:43.726012 24800 net.cpp:122] Setting up fire2/expand1x1
I0425 09:52:43.726044 24800 net.cpp:129] Top shape: 40 64 74 74 (14018560)
I0425 09:52:43.726048 24800 net.cpp:137] Memory required for data: 666099360
I0425 09:52:43.726066 24800 layer_factory.hpp:77] Creating layer fire2/relu_expand1x1
I0425 09:52:43.726083 24800 net.cpp:84] Creating Layer fire2/relu_expand1x1
I0425 09:52:43.726089 24800 net.cpp:406] fire2/relu_expand1x1 <- fire2/expand1x1
I0425 09:52:43.726099 24800 net.cpp:367] fire2/relu_expand1x1 -> fire2/expand1x1 (in-place)
I0425 09:52:43.726236 24800 net.cpp:122] Setting up fire2/relu_expand1x1
I0425 09:52:43.726245 24800 net.cpp:129] Top shape: 40 64 74 74 (14018560)
I0425 09:52:43.726250 24800 net.cpp:137] Memory required for data: 722173600
I0425 09:52:43.726254 24800 layer_factory.hpp:77] Creating layer fire2/expand3x3
I0425 09:52:43.726266 24800 net.cpp:84] Creating Layer fire2/expand3x3
I0425 09:52:43.726271 24800 net.cpp:406] fire2/expand3x3 <- fire2/squeeze1x1_fire2/relu_squeeze1x1_0_split_1
I0425 09:52:43.726279 24800 net.cpp:380] fire2/expand3x3 -> fire2/expand3x3
I0425 09:52:43.727596 24800 net.cpp:122] Setting up fire2/expand3x3
I0425 09:52:43.727635 24800 net.cpp:129] Top shape: 40 64 74 74 (14018560)
I0425 09:52:43.727640 24800 net.cpp:137] Memory required for data: 778247840
I0425 09:52:43.727651 24800 layer_factory.hpp:77] Creating layer fire2/relu_expand3x3
I0425 09:52:43.727665 24800 net.cpp:84] Creating Layer fire2/relu_expand3x3
I0425 09:52:43.727671 24800 net.cpp:406] fire2/relu_expand3x3 <- fire2/expand3x3
I0425 09:52:43.727680 24800 net.cpp:367] fire2/relu_expand3x3 -> fire2/expand3x3 (in-place)
I0425 09:52:43.727833 24800 net.cpp:122] Setting up fire2/relu_expand3x3
I0425 09:52:43.727843 24800 net.cpp:129] Top shape: 40 64 74 74 (14018560)
I0425 09:52:43.727847 24800 net.cpp:137] Memory required for data: 834322080
I0425 09:52:43.727851 24800 layer_factory.hpp:77] Creating layer fire2/concat
I0425 09:52:43.727864 24800 net.cpp:84] Creating Layer fire2/concat
I0425 09:52:43.727869 24800 net.cpp:406] fire2/concat <- fire2/expand1x1
I0425 09:52:43.727874 24800 net.cpp:406] fire2/concat <- fire2/expand3x3
I0425 09:52:43.727880 24800 net.cpp:380] fire2/concat -> fire2/concat
I0425 09:52:43.727910 24800 net.cpp:122] Setting up fire2/concat
I0425 09:52:43.727916 24800 net.cpp:129] Top shape: 40 128 74 74 (28037120)
I0425 09:52:43.727921 24800 net.cpp:137] Memory required for data: 946470560
I0425 09:52:43.727924 24800 layer_factory.hpp:77] Creating layer fire3/squeeze1x1
I0425 09:52:43.727937 24800 net.cpp:84] Creating Layer fire3/squeeze1x1
I0425 09:52:43.727941 24800 net.cpp:406] fire3/squeeze1x1 <- fire2/concat
I0425 09:52:43.727949 24800 net.cpp:380] fire3/squeeze1x1 -> fire3/squeeze1x1
I0425 09:52:43.729360 24800 net.cpp:122] Setting up fire3/squeeze1x1
I0425 09:52:43.729401 24800 net.cpp:129] Top shape: 40 16 74 74 (3504640)
I0425 09:52:43.729406 24800 net.cpp:137] Memory required for data: 960489120
I0425 09:52:43.729432 24800 layer_factory.hpp:77] Creating layer fire3/relu_squeeze1x1
I0425 09:52:43.729446 24800 net.cpp:84] Creating Layer fire3/relu_squeeze1x1
I0425 09:52:43.729454 24800 net.cpp:406] fire3/relu_squeeze1x1 <- fire3/squeeze1x1
I0425 09:52:43.729465 24800 net.cpp:367] fire3/relu_squeeze1x1 -> fire3/squeeze1x1 (in-place)
I0425 09:52:43.730167 24800 net.cpp:122] Setting up fire3/relu_squeeze1x1
I0425 09:52:43.730186 24800 net.cpp:129] Top shape: 40 16 74 74 (3504640)
I0425 09:52:43.730192 24800 net.cpp:137] Memory required for data: 974507680
I0425 09:52:43.730197 24800 layer_factory.hpp:77] Creating layer fire3/squeeze1x1_fire3/relu_squeeze1x1_0_split
I0425 09:52:43.730211 24800 net.cpp:84] Creating Layer fire3/squeeze1x1_fire3/relu_squeeze1x1_0_split
I0425 09:52:43.730289 24800 net.cpp:406] fire3/squeeze1x1_fire3/relu_squeeze1x1_0_split <- fire3/squeeze1x1
I0425 09:52:43.730299 24800 net.cpp:380] fire3/squeeze1x1_fire3/relu_squeeze1x1_0_split -> fire3/squeeze1x1_fire3/relu_squeeze1x1_0_split_0
I0425 09:52:43.730341 24800 net.cpp:380] fire3/squeeze1x1_fire3/relu_squeeze1x1_0_split -> fire3/squeeze1x1_fire3/relu_squeeze1x1_0_split_1
I0425 09:52:43.730399 24800 net.cpp:122] Setting up fire3/squeeze1x1_fire3/relu_squeeze1x1_0_split
I0425 09:52:43.730408 24800 net.cpp:129] Top shape: 40 16 74 74 (3504640)
I0425 09:52:43.730414 24800 net.cpp:129] Top shape: 40 16 74 74 (3504640)
I0425 09:52:43.730418 24800 net.cpp:137] Memory required for data: 1002544800
I0425 09:52:43.730422 24800 layer_factory.hpp:77] Creating layer fire3/expand1x1
I0425 09:52:43.730440 24800 net.cpp:84] Creating Layer fire3/expand1x1
I0425 09:52:43.730445 24800 net.cpp:406] fire3/expand1x1 <- fire3/squeeze1x1_fire3/relu_squeeze1x1_0_split_0
I0425 09:52:43.730453 24800 net.cpp:380] fire3/expand1x1 -> fire3/expand1x1
I0425 09:52:43.731248 24800 net.cpp:122] Setting up fire3/expand1x1
I0425 09:52:43.731266 24800 net.cpp:129] Top shape: 40 64 74 74 (14018560)
I0425 09:52:43.731272 24800 net.cpp:137] Memory required for data: 1058619040
I0425 09:52:43.731284 24800 layer_factory.hpp:77] Creating layer fire3/relu_expand1x1
I0425 09:52:43.731307 24800 net.cpp:84] Creating Layer fire3/relu_expand1x1
I0425 09:52:43.731312 24800 net.cpp:406] fire3/relu_expand1x1 <- fire3/expand1x1
I0425 09:52:43.731319 24800 net.cpp:367] fire3/relu_expand1x1 -> fire3/expand1x1 (in-place)
I0425 09:52:43.732184 24800 net.cpp:122] Setting up fire3/relu_expand1x1
I0425 09:52:43.732206 24800 net.cpp:129] Top shape: 40 64 74 74 (14018560)
I0425 09:52:43.732211 24800 net.cpp:137] Memory required for data: 1114693280
I0425 09:52:43.732218 24800 layer_factory.hpp:77] Creating layer fire3/expand3x3
I0425 09:52:43.732234 24800 net.cpp:84] Creating Layer fire3/expand3x3
I0425 09:52:43.732239 24800 net.cpp:406] fire3/expand3x3 <- fire3/squeeze1x1_fire3/relu_squeeze1x1_0_split_1
I0425 09:52:43.732249 24800 net.cpp:380] fire3/expand3x3 -> fire3/expand3x3
I0425 09:52:43.733487 24800 net.cpp:122] Setting up fire3/expand3x3
I0425 09:52:43.733512 24800 net.cpp:129] Top shape: 40 64 74 74 (14018560)
I0425 09:52:43.733517 24800 net.cpp:137] Memory required for data: 1170767520
I0425 09:52:43.733527 24800 layer_factory.hpp:77] Creating layer fire3/relu_expand3x3
I0425 09:52:43.733539 24800 net.cpp:84] Creating Layer fire3/relu_expand3x3
I0425 09:52:43.733544 24800 net.cpp:406] fire3/relu_expand3x3 <- fire3/expand3x3
I0425 09:52:43.733553 24800 net.cpp:367] fire3/relu_expand3x3 -> fire3/expand3x3 (in-place)
I0425 09:52:43.733695 24800 net.cpp:122] Setting up fire3/relu_expand3x3
I0425 09:52:43.733705 24800 net.cpp:129] Top shape: 40 64 74 74 (14018560)
I0425 09:52:43.733709 24800 net.cpp:137] Memory required for data: 1226841760
I0425 09:52:43.733714 24800 layer_factory.hpp:77] Creating layer fire3/concat
I0425 09:52:43.733722 24800 net.cpp:84] Creating Layer fire3/concat
I0425 09:52:43.733726 24800 net.cpp:406] fire3/concat <- fire3/expand1x1
I0425 09:52:43.733731 24800 net.cpp:406] fire3/concat <- fire3/expand3x3
I0425 09:52:43.733738 24800 net.cpp:380] fire3/concat -> fire3/concat
I0425 09:52:43.733763 24800 net.cpp:122] Setting up fire3/concat
I0425 09:52:43.733770 24800 net.cpp:129] Top shape: 40 128 74 74 (28037120)
I0425 09:52:43.733774 24800 net.cpp:137] Memory required for data: 1338990240
I0425 09:52:43.733778 24800 layer_factory.hpp:77] Creating layer pool3
I0425 09:52:43.733790 24800 net.cpp:84] Creating Layer pool3
I0425 09:52:43.733795 24800 net.cpp:406] pool3 <- fire3/concat
I0425 09:52:43.733800 24800 net.cpp:380] pool3 -> pool3
I0425 09:52:43.733844 24800 net.cpp:122] Setting up pool3
I0425 09:52:43.733852 24800 net.cpp:129] Top shape: 40 128 37 37 (7009280)
I0425 09:52:43.733857 24800 net.cpp:137] Memory required for data: 1367027360
I0425 09:52:43.733861 24800 layer_factory.hpp:77] Creating layer fire4/squeeze1x1
I0425 09:52:43.733919 24800 net.cpp:84] Creating Layer fire4/squeeze1x1
I0425 09:52:43.733924 24800 net.cpp:406] fire4/squeeze1x1 <- pool3
I0425 09:52:43.733932 24800 net.cpp:380] fire4/squeeze1x1 -> fire4/squeeze1x1
I0425 09:52:43.735234 24800 net.cpp:122] Setting up fire4/squeeze1x1
I0425 09:52:43.735261 24800 net.cpp:129] Top shape: 40 32 37 37 (1752320)
I0425 09:52:43.735265 24800 net.cpp:137] Memory required for data: 1374036640
I0425 09:52:43.735276 24800 layer_factory.hpp:77] Creating layer fire4/relu_squeeze1x1
I0425 09:52:43.735287 24800 net.cpp:84] Creating Layer fire4/relu_squeeze1x1
I0425 09:52:43.735291 24800 net.cpp:406] fire4/relu_squeeze1x1 <- fire4/squeeze1x1
I0425 09:52:43.735298 24800 net.cpp:367] fire4/relu_squeeze1x1 -> fire4/squeeze1x1 (in-place)
I0425 09:52:43.735460 24800 net.cpp:122] Setting up fire4/relu_squeeze1x1
I0425 09:52:43.735468 24800 net.cpp:129] Top shape: 40 32 37 37 (1752320)
I0425 09:52:43.735472 24800 net.cpp:137] Memory required for data: 1381045920
I0425 09:52:43.735477 24800 layer_factory.hpp:77] Creating layer fire4/squeeze1x1_fire4/relu_squeeze1x1_0_split
I0425 09:52:43.735486 24800 net.cpp:84] Creating Layer fire4/squeeze1x1_fire4/relu_squeeze1x1_0_split
I0425 09:52:43.735489 24800 net.cpp:406] fire4/squeeze1x1_fire4/relu_squeeze1x1_0_split <- fire4/squeeze1x1
I0425 09:52:43.735496 24800 net.cpp:380] fire4/squeeze1x1_fire4/relu_squeeze1x1_0_split -> fire4/squeeze1x1_fire4/relu_squeeze1x1_0_split_0
I0425 09:52:43.735505 24800 net.cpp:380] fire4/squeeze1x1_fire4/relu_squeeze1x1_0_split -> fire4/squeeze1x1_fire4/relu_squeeze1x1_0_split_1
I0425 09:52:43.735541 24800 net.cpp:122] Setting up fire4/squeeze1x1_fire4/relu_squeeze1x1_0_split
I0425 09:52:43.735548 24800 net.cpp:129] Top shape: 40 32 37 37 (1752320)
I0425 09:52:43.735553 24800 net.cpp:129] Top shape: 40 32 37 37 (1752320)
I0425 09:52:43.735558 24800 net.cpp:137] Memory required for data: 1395064480
I0425 09:52:43.735561 24800 layer_factory.hpp:77] Creating layer fire4/expand1x1
I0425 09:52:43.735574 24800 net.cpp:84] Creating Layer fire4/expand1x1
I0425 09:52:43.735579 24800 net.cpp:406] fire4/expand1x1 <- fire4/squeeze1x1_fire4/relu_squeeze1x1_0_split_0
I0425 09:52:43.735586 24800 net.cpp:380] fire4/expand1x1 -> fire4/expand1x1
I0425 09:52:43.736749 24800 net.cpp:122] Setting up fire4/expand1x1
I0425 09:52:43.736771 24800 net.cpp:129] Top shape: 40 128 37 37 (7009280)
I0425 09:52:43.736776 24800 net.cpp:137] Memory required for data: 1423101600
I0425 09:52:43.736795 24800 layer_factory.hpp:77] Creating layer fire4/relu_expand1x1
I0425 09:52:43.736805 24800 net.cpp:84] Creating Layer fire4/relu_expand1x1
I0425 09:52:43.736810 24800 net.cpp:406] fire4/relu_expand1x1 <- fire4/expand1x1
I0425 09:52:43.736816 24800 net.cpp:367] fire4/relu_expand1x1 -> fire4/expand1x1 (in-place)
I0425 09:52:43.736971 24800 net.cpp:122] Setting up fire4/relu_expand1x1
I0425 09:52:43.736984 24800 net.cpp:129] Top shape: 40 128 37 37 (7009280)
I0425 09:52:43.736987 24800 net.cpp:137] Memory required for data: 1451138720
I0425 09:52:43.736991 24800 layer_factory.hpp:77] Creating layer fire4/expand3x3
I0425 09:52:43.737002 24800 net.cpp:84] Creating Layer fire4/expand3x3
I0425 09:52:43.737007 24800 net.cpp:406] fire4/expand3x3 <- fire4/squeeze1x1_fire4/relu_squeeze1x1_0_split_1
I0425 09:52:43.737015 24800 net.cpp:380] fire4/expand3x3 -> fire4/expand3x3
I0425 09:52:43.738328 24800 net.cpp:122] Setting up fire4/expand3x3
I0425 09:52:43.738354 24800 net.cpp:129] Top shape: 40 128 37 37 (7009280)
I0425 09:52:43.738359 24800 net.cpp:137] Memory required for data: 1479175840
I0425 09:52:43.738368 24800 layer_factory.hpp:77] Creating layer fire4/relu_expand3x3
I0425 09:52:43.738379 24800 net.cpp:84] Creating Layer fire4/relu_expand3x3
I0425 09:52:43.738385 24800 net.cpp:406] fire4/relu_expand3x3 <- fire4/expand3x3
I0425 09:52:43.738394 24800 net.cpp:367] fire4/relu_expand3x3 -> fire4/expand3x3 (in-place)
I0425 09:52:43.738538 24800 net.cpp:122] Setting up fire4/relu_expand3x3
I0425 09:52:43.738548 24800 net.cpp:129] Top shape: 40 128 37 37 (7009280)
I0425 09:52:43.738600 24800 net.cpp:137] Memory required for data: 1507212960
I0425 09:52:43.738605 24800 layer_factory.hpp:77] Creating layer fire4/concat
I0425 09:52:43.738615 24800 net.cpp:84] Creating Layer fire4/concat
I0425 09:52:43.738651 24800 net.cpp:406] fire4/concat <- fire4/expand1x1
I0425 09:52:43.738658 24800 net.cpp:406] fire4/concat <- fire4/expand3x3
I0425 09:52:43.738665 24800 net.cpp:380] fire4/concat -> fire4/concat
I0425 09:52:43.738696 24800 net.cpp:122] Setting up fire4/concat
I0425 09:52:43.738703 24800 net.cpp:129] Top shape: 40 256 37 37 (14018560)
I0425 09:52:43.738708 24800 net.cpp:137] Memory required for data: 1563287200
I0425 09:52:43.738711 24800 layer_factory.hpp:77] Creating layer fire5/squeeze1x1
I0425 09:52:43.738723 24800 net.cpp:84] Creating Layer fire5/squeeze1x1
I0425 09:52:43.738728 24800 net.cpp:406] fire5/squeeze1x1 <- fire4/concat
I0425 09:52:43.738734 24800 net.cpp:380] fire5/squeeze1x1 -> fire5/squeeze1x1
I0425 09:52:43.740020 24800 net.cpp:122] Setting up fire5/squeeze1x1
I0425 09:52:43.740044 24800 net.cpp:129] Top shape: 40 32 37 37 (1752320)
I0425 09:52:43.740049 24800 net.cpp:137] Memory required for data: 1570296480
I0425 09:52:43.740058 24800 layer_factory.hpp:77] Creating layer fire5/relu_squeeze1x1
I0425 09:52:43.740070 24800 net.cpp:84] Creating Layer fire5/relu_squeeze1x1
I0425 09:52:43.740075 24800 net.cpp:406] fire5/relu_squeeze1x1 <- fire5/squeeze1x1
I0425 09:52:43.740082 24800 net.cpp:367] fire5/relu_squeeze1x1 -> fire5/squeeze1x1 (in-place)
I0425 09:52:43.740658 24800 net.cpp:122] Setting up fire5/relu_squeeze1x1
I0425 09:52:43.740674 24800 net.cpp:129] Top shape: 40 32 37 37 (1752320)
I0425 09:52:43.740679 24800 net.cpp:137] Memory required for data: 1577305760
I0425 09:52:43.740684 24800 layer_factory.hpp:77] Creating layer fire5/squeeze1x1_fire5/relu_squeeze1x1_0_split
I0425 09:52:43.740694 24800 net.cpp:84] Creating Layer fire5/squeeze1x1_fire5/relu_squeeze1x1_0_split
I0425 09:52:43.740698 24800 net.cpp:406] fire5/squeeze1x1_fire5/relu_squeeze1x1_0_split <- fire5/squeeze1x1
I0425 09:52:43.740706 24800 net.cpp:380] fire5/squeeze1x1_fire5/relu_squeeze1x1_0_split -> fire5/squeeze1x1_fire5/relu_squeeze1x1_0_split_0
I0425 09:52:43.740715 24800 net.cpp:380] fire5/squeeze1x1_fire5/relu_squeeze1x1_0_split -> fire5/squeeze1x1_fire5/relu_squeeze1x1_0_split_1
I0425 09:52:43.740761 24800 net.cpp:122] Setting up fire5/squeeze1x1_fire5/relu_squeeze1x1_0_split
I0425 09:52:43.740770 24800 net.cpp:129] Top shape: 40 32 37 37 (1752320)
I0425 09:52:43.740775 24800 net.cpp:129] Top shape: 40 32 37 37 (1752320)
I0425 09:52:43.740778 24800 net.cpp:137] Memory required for data: 1591324320
I0425 09:52:43.740782 24800 layer_factory.hpp:77] Creating layer fire5/expand1x1
I0425 09:52:43.740816 24800 net.cpp:84] Creating Layer fire5/expand1x1
I0425 09:52:43.740820 24800 net.cpp:406] fire5/expand1x1 <- fire5/squeeze1x1_fire5/relu_squeeze1x1_0_split_0
I0425 09:52:43.740828 24800 net.cpp:380] fire5/expand1x1 -> fire5/expand1x1
I0425 09:52:43.741631 24800 net.cpp:122] Setting up fire5/expand1x1
I0425 09:52:43.741652 24800 net.cpp:129] Top shape: 40 128 37 37 (7009280)
I0425 09:52:43.741655 24800 net.cpp:137] Memory required for data: 1619361440
I0425 09:52:43.741667 24800 layer_factory.hpp:77] Creating layer fire5/relu_expand1x1
I0425 09:52:43.741679 24800 net.cpp:84] Creating Layer fire5/relu_expand1x1
I0425 09:52:43.741684 24800 net.cpp:406] fire5/relu_expand1x1 <- fire5/expand1x1
I0425 09:52:43.741691 24800 net.cpp:367] fire5/relu_expand1x1 -> fire5/expand1x1 (in-place)
I0425 09:52:43.744549 24800 net.cpp:122] Setting up fire5/relu_expand1x1
I0425 09:52:43.744632 24800 net.cpp:129] Top shape: 40 128 37 37 (7009280)
I0425 09:52:43.744638 24800 net.cpp:137] Memory required for data: 1647398560
I0425 09:52:43.744645 24800 layer_factory.hpp:77] Creating layer fire5/expand3x3
I0425 09:52:43.744678 24800 net.cpp:84] Creating Layer fire5/expand3x3
I0425 09:52:43.744686 24800 net.cpp:406] fire5/expand3x3 <- fire5/squeeze1x1_fire5/relu_squeeze1x1_0_split_1
I0425 09:52:43.744699 24800 net.cpp:380] fire5/expand3x3 -> fire5/expand3x3
I0425 09:52:43.752074 24800 net.cpp:122] Setting up fire5/expand3x3
I0425 09:52:43.752295 24800 net.cpp:129] Top shape: 40 128 37 37 (7009280)
I0425 09:52:43.752310 24800 net.cpp:137] Memory required for data: 1675435680
I0425 09:52:43.752437 24800 layer_factory.hpp:77] Creating layer fire5/relu_expand3x3
I0425 09:52:43.752483 24800 net.cpp:84] Creating Layer fire5/relu_expand3x3
I0425 09:52:43.752502 24800 net.cpp:406] fire5/relu_expand3x3 <- fire5/expand3x3
I0425 09:52:43.752543 24800 net.cpp:367] fire5/relu_expand3x3 -> fire5/expand3x3 (in-place)
I0425 09:52:43.753119 24800 net.cpp:122] Setting up fire5/relu_expand3x3
I0425 09:52:43.753172 24800 net.cpp:129] Top shape: 40 128 37 37 (7009280)
I0425 09:52:43.753182 24800 net.cpp:137] Memory required for data: 1703472800
I0425 09:52:43.753196 24800 layer_factory.hpp:77] Creating layer fire5/concat
I0425 09:52:43.753217 24800 net.cpp:84] Creating Layer fire5/concat
I0425 09:52:43.753232 24800 net.cpp:406] fire5/concat <- fire5/expand1x1
I0425 09:52:43.753247 24800 net.cpp:406] fire5/concat <- fire5/expand3x3
I0425 09:52:43.753269 24800 net.cpp:380] fire5/concat -> fire5/concat
I0425 09:52:43.753379 24800 net.cpp:122] Setting up fire5/concat
I0425 09:52:43.753401 24800 net.cpp:129] Top shape: 40 256 37 37 (14018560)
I0425 09:52:43.753408 24800 net.cpp:137] Memory required for data: 1759547040
I0425 09:52:43.753418 24800 layer_factory.hpp:77] Creating layer pool5
I0425 09:52:43.753444 24800 net.cpp:84] Creating Layer pool5
I0425 09:52:43.753456 24800 net.cpp:406] pool5 <- fire5/concat
I0425 09:52:43.753473 24800 net.cpp:380] pool5 -> pool5
I0425 09:52:43.753571 24800 net.cpp:122] Setting up pool5
I0425 09:52:43.753589 24800 net.cpp:129] Top shape: 40 256 18 18 (3317760)
I0425 09:52:43.753599 24800 net.cpp:137] Memory required for data: 1772818080
I0425 09:52:43.753608 24800 layer_factory.hpp:77] Creating layer fire6/squeeze1x1
I0425 09:52:43.753645 24800 net.cpp:84] Creating Layer fire6/squeeze1x1
I0425 09:52:43.753656 24800 net.cpp:406] fire6/squeeze1x1 <- pool5
I0425 09:52:43.753676 24800 net.cpp:380] fire6/squeeze1x1 -> fire6/squeeze1x1
I0425 09:52:43.759279 24800 net.cpp:122] Setting up fire6/squeeze1x1
I0425 09:52:43.759413 24800 net.cpp:129] Top shape: 40 48 18 18 (622080)
I0425 09:52:43.759423 24800 net.cpp:137] Memory required for data: 1775306400
I0425 09:52:43.759472 24800 layer_factory.hpp:77] Creating layer fire6/relu_squeeze1x1
I0425 09:52:43.759505 24800 net.cpp:84] Creating Layer fire6/relu_squeeze1x1
I0425 09:52:43.759516 24800 net.cpp:406] fire6/relu_squeeze1x1 <- fire6/squeeze1x1
I0425 09:52:43.759537 24800 net.cpp:367] fire6/relu_squeeze1x1 -> fire6/squeeze1x1 (in-place)
I0425 09:52:43.759963 24800 net.cpp:122] Setting up fire6/relu_squeeze1x1
I0425 09:52:43.759984 24800 net.cpp:129] Top shape: 40 48 18 18 (622080)
I0425 09:52:43.759991 24800 net.cpp:137] Memory required for data: 1777794720
I0425 09:52:43.760000 24800 layer_factory.hpp:77] Creating layer fire6/squeeze1x1_fire6/relu_squeeze1x1_0_split
I0425 09:52:43.760020 24800 net.cpp:84] Creating Layer fire6/squeeze1x1_fire6/relu_squeeze1x1_0_split
I0425 09:52:43.760031 24800 net.cpp:406] fire6/squeeze1x1_fire6/relu_squeeze1x1_0_split <- fire6/squeeze1x1
I0425 09:52:43.760048 24800 net.cpp:380] fire6/squeeze1x1_fire6/relu_squeeze1x1_0_split -> fire6/squeeze1x1_fire6/relu_squeeze1x1_0_split_0
I0425 09:52:43.760067 24800 net.cpp:380] fire6/squeeze1x1_fire6/relu_squeeze1x1_0_split -> fire6/squeeze1x1_fire6/relu_squeeze1x1_0_split_1
I0425 09:52:43.760191 24800 net.cpp:122] Setting up fire6/squeeze1x1_fire6/relu_squeeze1x1_0_split
I0425 09:52:43.760205 24800 net.cpp:129] Top shape: 40 48 18 18 (622080)
I0425 09:52:43.760217 24800 net.cpp:129] Top shape: 40 48 18 18 (622080)
I0425 09:52:43.760228 24800 net.cpp:137] Memory required for data: 1782771360
I0425 09:52:43.760236 24800 layer_factory.hpp:77] Creating layer fire6/expand1x1
I0425 09:52:43.760277 24800 net.cpp:84] Creating Layer fire6/expand1x1
I0425 09:52:43.760287 24800 net.cpp:406] fire6/expand1x1 <- fire6/squeeze1x1_fire6/relu_squeeze1x1_0_split_0
I0425 09:52:43.760499 24800 net.cpp:380] fire6/expand1x1 -> fire6/expand1x1
I0425 09:52:43.777386 24800 net.cpp:122] Setting up fire6/expand1x1
I0425 09:52:43.777449 24800 net.cpp:129] Top shape: 40 192 18 18 (2488320)
I0425 09:52:43.777482 24800 net.cpp:137] Memory required for data: 1792724640
I0425 09:52:43.777503 24800 layer_factory.hpp:77] Creating layer fire6/relu_expand1x1
I0425 09:52:43.777520 24800 net.cpp:84] Creating Layer fire6/relu_expand1x1
I0425 09:52:43.777529 24800 net.cpp:406] fire6/relu_expand1x1 <- fire6/expand1x1
I0425 09:52:43.777544 24800 net.cpp:367] fire6/relu_expand1x1 -> fire6/expand1x1 (in-place)
I0425 09:52:43.777839 24800 net.cpp:122] Setting up fire6/relu_expand1x1
I0425 09:52:43.777855 24800 net.cpp:129] Top shape: 40 192 18 18 (2488320)
I0425 09:52:43.777861 24800 net.cpp:137] Memory required for data: 1802677920
I0425 09:52:43.777868 24800 layer_factory.hpp:77] Creating layer fire6/expand3x3
I0425 09:52:43.777886 24800 net.cpp:84] Creating Layer fire6/expand3x3
I0425 09:52:43.777894 24800 net.cpp:406] fire6/expand3x3 <- fire6/squeeze1x1_fire6/relu_squeeze1x1_0_split_1
I0425 09:52:43.777905 24800 net.cpp:380] fire6/expand3x3 -> fire6/expand3x3
I0425 09:52:43.803704 24800 net.cpp:122] Setting up fire6/expand3x3
I0425 09:52:43.803923 24800 net.cpp:129] Top shape: 40 192 18 18 (2488320)
I0425 09:52:43.803937 24800 net.cpp:137] Memory required for data: 1812631200
I0425 09:52:43.803982 24800 layer_factory.hpp:77] Creating layer fire6/relu_expand3x3
I0425 09:52:43.804020 24800 net.cpp:84] Creating Layer fire6/relu_expand3x3
I0425 09:52:43.804036 24800 net.cpp:406] fire6/relu_expand3x3 <- fire6/expand3x3
I0425 09:52:43.804066 24800 net.cpp:367] fire6/relu_expand3x3 -> fire6/expand3x3 (in-place)
I0425 09:52:43.804736 24800 net.cpp:122] Setting up fire6/relu_expand3x3
I0425 09:52:43.804759 24800 net.cpp:129] Top shape: 40 192 18 18 (2488320)
I0425 09:52:43.804767 24800 net.cpp:137] Memory required for data: 1822584480
I0425 09:52:43.804774 24800 layer_factory.hpp:77] Creating layer fire6/concat
I0425 09:52:43.804790 24800 net.cpp:84] Creating Layer fire6/concat
I0425 09:52:43.804796 24800 net.cpp:406] fire6/concat <- fire6/expand1x1
I0425 09:52:43.804805 24800 net.cpp:406] fire6/concat <- fire6/expand3x3
I0425 09:52:43.804819 24800 net.cpp:380] fire6/concat -> fire6/concat
I0425 09:52:43.804972 24800 net.cpp:122] Setting up fire6/concat
I0425 09:52:43.804991 24800 net.cpp:129] Top shape: 40 384 18 18 (4976640)
I0425 09:52:43.805001 24800 net.cpp:137] Memory required for data: 1842491040
I0425 09:52:43.805008 24800 layer_factory.hpp:77] Creating layer fire7/squeeze1x1
I0425 09:52:43.805044 24800 net.cpp:84] Creating Layer fire7/squeeze1x1
I0425 09:52:43.805054 24800 net.cpp:406] fire7/squeeze1x1 <- fire6/concat
I0425 09:52:43.805070 24800 net.cpp:380] fire7/squeeze1x1 -> fire7/squeeze1x1
I0425 09:52:43.807644 24800 net.cpp:122] Setting up fire7/squeeze1x1
I0425 09:52:43.807704 24800 net.cpp:129] Top shape: 40 48 18 18 (622080)
I0425 09:52:43.807714 24800 net.cpp:137] Memory required for data: 1844979360
I0425 09:52:43.807761 24800 layer_factory.hpp:77] Creating layer fire7/relu_squeeze1x1
I0425 09:52:43.807785 24800 net.cpp:84] Creating Layer fire7/relu_squeeze1x1
I0425 09:52:43.807796 24800 net.cpp:406] fire7/relu_squeeze1x1 <- fire7/squeeze1x1
I0425 09:52:43.807813 24800 net.cpp:367] fire7/relu_squeeze1x1 -> fire7/squeeze1x1 (in-place)
I0425 09:52:43.808782 24800 net.cpp:122] Setting up fire7/relu_squeeze1x1
I0425 09:52:43.808807 24800 net.cpp:129] Top shape: 40 48 18 18 (622080)
I0425 09:52:43.808816 24800 net.cpp:137] Memory required for data: 1847467680
I0425 09:52:43.808825 24800 layer_factory.hpp:77] Creating layer fire7/squeeze1x1_fire7/relu_squeeze1x1_0_split
I0425 09:52:43.808838 24800 net.cpp:84] Creating Layer fire7/squeeze1x1_fire7/relu_squeeze1x1_0_split
I0425 09:52:43.808848 24800 net.cpp:406] fire7/squeeze1x1_fire7/relu_squeeze1x1_0_split <- fire7/squeeze1x1
I0425 09:52:43.808866 24800 net.cpp:380] fire7/squeeze1x1_fire7/relu_squeeze1x1_0_split -> fire7/squeeze1x1_fire7/relu_squeeze1x1_0_split_0
I0425 09:52:43.809017 24800 net.cpp:380] fire7/squeeze1x1_fire7/relu_squeeze1x1_0_split -> fire7/squeeze1x1_fire7/relu_squeeze1x1_0_split_1
I0425 09:52:43.809121 24800 net.cpp:122] Setting up fire7/squeeze1x1_fire7/relu_squeeze1x1_0_split
I0425 09:52:43.809137 24800 net.cpp:129] Top shape: 40 48 18 18 (622080)
I0425 09:52:43.809149 24800 net.cpp:129] Top shape: 40 48 18 18 (622080)
I0425 09:52:43.809154 24800 net.cpp:137] Memory required for data: 1852444320
I0425 09:52:43.809162 24800 layer_factory.hpp:77] Creating layer fire7/expand1x1
I0425 09:52:43.809183 24800 net.cpp:84] Creating Layer fire7/expand1x1
I0425 09:52:43.809192 24800 net.cpp:406] fire7/expand1x1 <- fire7/squeeze1x1_fire7/relu_squeeze1x1_0_split_0
I0425 09:52:43.809206 24800 net.cpp:380] fire7/expand1x1 -> fire7/expand1x1
I0425 09:52:43.810551 24800 net.cpp:122] Setting up fire7/expand1x1
I0425 09:52:43.810577 24800 net.cpp:129] Top shape: 40 192 18 18 (2488320)
I0425 09:52:43.810586 24800 net.cpp:137] Memory required for data: 1862397600
I0425 09:52:43.810602 24800 layer_factory.hpp:77] Creating layer fire7/relu_expand1x1
I0425 09:52:43.810618 24800 net.cpp:84] Creating Layer fire7/relu_expand1x1
I0425 09:52:43.810626 24800 net.cpp:406] fire7/relu_expand1x1 <- fire7/expand1x1
I0425 09:52:43.810652 24800 net.cpp:367] fire7/relu_expand1x1 -> fire7/expand1x1 (in-place)
I0425 09:52:43.811650 24800 net.cpp:122] Setting up fire7/relu_expand1x1
I0425 09:52:43.811676 24800 net.cpp:129] Top shape: 40 192 18 18 (2488320)
I0425 09:52:43.811683 24800 net.cpp:137] Memory required for data: 1872350880
I0425 09:52:43.811689 24800 layer_factory.hpp:77] Creating layer fire7/expand3x3
I0425 09:52:43.811708 24800 net.cpp:84] Creating Layer fire7/expand3x3
I0425 09:52:43.811717 24800 net.cpp:406] fire7/expand3x3 <- fire7/squeeze1x1_fire7/relu_squeeze1x1_0_split_1
I0425 09:52:43.811730 24800 net.cpp:380] fire7/expand3x3 -> fire7/expand3x3
I0425 09:52:43.815488 24800 net.cpp:122] Setting up fire7/expand3x3
I0425 09:52:43.815647 24800 net.cpp:129] Top shape: 40 192 18 18 (2488320)
I0425 09:52:43.815659 24800 net.cpp:137] Memory required for data: 1882304160
I0425 09:52:43.815701 24800 layer_factory.hpp:77] Creating layer fire7/relu_expand3x3
I0425 09:52:43.815732 24800 net.cpp:84] Creating Layer fire7/relu_expand3x3
I0425 09:52:43.815744 24800 net.cpp:406] fire7/relu_expand3x3 <- fire7/expand3x3
I0425 09:52:43.815768 24800 net.cpp:367] fire7/relu_expand3x3 -> fire7/expand3x3 (in-place)
I0425 09:52:43.816171 24800 net.cpp:122] Setting up fire7/relu_expand3x3
I0425 09:52:43.816188 24800 net.cpp:129] Top shape: 40 192 18 18 (2488320)
I0425 09:52:43.816195 24800 net.cpp:137] Memory required for data: 1892257440
I0425 09:52:43.816203 24800 layer_factory.hpp:77] Creating layer fire7/concat
I0425 09:52:43.816215 24800 net.cpp:84] Creating Layer fire7/concat
I0425 09:52:43.816222 24800 net.cpp:406] fire7/concat <- fire7/expand1x1
I0425 09:52:43.816233 24800 net.cpp:406] fire7/concat <- fire7/expand3x3
I0425 09:52:43.816249 24800 net.cpp:380] fire7/concat -> fire7/concat
I0425 09:52:43.816341 24800 net.cpp:122] Setting up fire7/concat
I0425 09:52:43.816355 24800 net.cpp:129] Top shape: 40 384 18 18 (4976640)
I0425 09:52:43.816362 24800 net.cpp:137] Memory required for data: 1912164000
I0425 09:52:43.816370 24800 layer_factory.hpp:77] Creating layer fire8/squeeze1x1
I0425 09:52:43.816393 24800 net.cpp:84] Creating Layer fire8/squeeze1x1
I0425 09:52:43.816401 24800 net.cpp:406] fire8/squeeze1x1 <- fire7/concat
I0425 09:52:43.816412 24800 net.cpp:380] fire8/squeeze1x1 -> fire8/squeeze1x1
I0425 09:52:43.819955 24800 net.cpp:122] Setting up fire8/squeeze1x1
I0425 09:52:43.820103 24800 net.cpp:129] Top shape: 40 64 18 18 (829440)
I0425 09:52:43.820113 24800 net.cpp:137] Memory required for data: 1915481760
I0425 09:52:43.820149 24800 layer_factory.hpp:77] Creating layer fire8/relu_squeeze1x1
I0425 09:52:43.820183 24800 net.cpp:84] Creating Layer fire8/relu_squeeze1x1
I0425 09:52:43.820195 24800 net.cpp:406] fire8/relu_squeeze1x1 <- fire8/squeeze1x1
I0425 09:52:43.820438 24800 net.cpp:367] fire8/relu_squeeze1x1 -> fire8/squeeze1x1 (in-place)
I0425 09:52:43.820756 24800 net.cpp:122] Setting up fire8/relu_squeeze1x1
I0425 09:52:43.820776 24800 net.cpp:129] Top shape: 40 64 18 18 (829440)
I0425 09:52:43.820821 24800 net.cpp:137] Memory required for data: 1918799520
I0425 09:52:43.820829 24800 layer_factory.hpp:77] Creating layer fire8/squeeze1x1_fire8/relu_squeeze1x1_0_split
I0425 09:52:43.820845 24800 net.cpp:84] Creating Layer fire8/squeeze1x1_fire8/relu_squeeze1x1_0_split
I0425 09:52:43.820857 24800 net.cpp:406] fire8/squeeze1x1_fire8/relu_squeeze1x1_0_split <- fire8/squeeze1x1
I0425 09:52:43.820871 24800 net.cpp:380] fire8/squeeze1x1_fire8/relu_squeeze1x1_0_split -> fire8/squeeze1x1_fire8/relu_squeeze1x1_0_split_0
I0425 09:52:43.820886 24800 net.cpp:380] fire8/squeeze1x1_fire8/relu_squeeze1x1_0_split -> fire8/squeeze1x1_fire8/relu_squeeze1x1_0_split_1
I0425 09:52:43.820968 24800 net.cpp:122] Setting up fire8/squeeze1x1_fire8/relu_squeeze1x1_0_split
I0425 09:52:43.820982 24800 net.cpp:129] Top shape: 40 64 18 18 (829440)
I0425 09:52:43.820994 24800 net.cpp:129] Top shape: 40 64 18 18 (829440)
I0425 09:52:43.821000 24800 net.cpp:137] Memory required for data: 1925435040
I0425 09:52:43.821007 24800 layer_factory.hpp:77] Creating layer fire8/expand1x1
I0425 09:52:43.821041 24800 net.cpp:84] Creating Layer fire8/expand1x1
I0425 09:52:43.821048 24800 net.cpp:406] fire8/expand1x1 <- fire8/squeeze1x1_fire8/relu_squeeze1x1_0_split_0
I0425 09:52:43.821063 24800 net.cpp:380] fire8/expand1x1 -> fire8/expand1x1
I0425 09:52:43.830404 24800 net.cpp:122] Setting up fire8/expand1x1
I0425 09:52:43.830582 24800 net.cpp:129] Top shape: 40 256 18 18 (3317760)
I0425 09:52:43.830598 24800 net.cpp:137] Memory required for data: 1938706080
I0425 09:52:43.830655 24800 layer_factory.hpp:77] Creating layer fire8/relu_expand1x1
I0425 09:52:43.830703 24800 net.cpp:84] Creating Layer fire8/relu_expand1x1
I0425 09:52:43.830721 24800 net.cpp:406] fire8/relu_expand1x1 <- fire8/expand1x1
I0425 09:52:43.830744 24800 net.cpp:367] fire8/relu_expand1x1 -> fire8/expand1x1 (in-place)
I0425 09:52:43.831087 24800 net.cpp:122] Setting up fire8/relu_expand1x1
I0425 09:52:43.831110 24800 net.cpp:129] Top shape: 40 256 18 18 (3317760)
I0425 09:52:43.831121 24800 net.cpp:137] Memory required for data: 1951977120
I0425 09:52:43.831131 24800 layer_factory.hpp:77] Creating layer fire8/expand3x3
I0425 09:52:43.831167 24800 net.cpp:84] Creating Layer fire8/expand3x3
I0425 09:52:43.831181 24800 net.cpp:406] fire8/expand3x3 <- fire8/squeeze1x1_fire8/relu_squeeze1x1_0_split_1
I0425 09:52:43.831200 24800 net.cpp:380] fire8/expand3x3 -> fire8/expand3x3
I0425 09:52:43.840466 24800 net.cpp:122] Setting up fire8/expand3x3
I0425 09:52:43.840575 24800 net.cpp:129] Top shape: 40 256 18 18 (3317760)
I0425 09:52:43.840586 24800 net.cpp:137] Memory required for data: 1965248160
I0425 09:52:43.840620 24800 layer_factory.hpp:77] Creating layer fire8/relu_expand3x3
I0425 09:52:43.840648 24800 net.cpp:84] Creating Layer fire8/relu_expand3x3
I0425 09:52:43.840662 24800 net.cpp:406] fire8/relu_expand3x3 <- fire8/expand3x3
I0425 09:52:43.840683 24800 net.cpp:367] fire8/relu_expand3x3 -> fire8/expand3x3 (in-place)
I0425 09:52:43.841117 24800 net.cpp:122] Setting up fire8/relu_expand3x3
I0425 09:52:43.841138 24800 net.cpp:129] Top shape: 40 256 18 18 (3317760)
I0425 09:52:43.841147 24800 net.cpp:137] Memory required for data: 1978519200
I0425 09:52:43.841156 24800 layer_factory.hpp:77] Creating layer fire8/concat
I0425 09:52:43.841172 24800 net.cpp:84] Creating Layer fire8/concat
I0425 09:52:43.841178 24800 net.cpp:406] fire8/concat <- fire8/expand1x1
I0425 09:52:43.841188 24800 net.cpp:406] fire8/concat <- fire8/expand3x3
I0425 09:52:43.841200 24800 net.cpp:380] fire8/concat -> fire8/concat
I0425 09:52:43.841300 24800 net.cpp:122] Setting up fire8/concat
I0425 09:52:43.841312 24800 net.cpp:129] Top shape: 40 512 18 18 (6635520)
I0425 09:52:43.841317 24800 net.cpp:137] Memory required for data: 2005061280
I0425 09:52:43.841325 24800 layer_factory.hpp:77] Creating layer fire9/squeeze1x1
I0425 09:52:43.841547 24800 net.cpp:84] Creating Layer fire9/squeeze1x1
I0425 09:52:43.841558 24800 net.cpp:406] fire9/squeeze1x1 <- fire8/concat
I0425 09:52:43.841603 24800 net.cpp:380] fire9/squeeze1x1 -> fire9/squeeze1x1
I0425 09:52:43.844403 24800 net.cpp:122] Setting up fire9/squeeze1x1
I0425 09:52:43.844494 24800 net.cpp:129] Top shape: 40 64 18 18 (829440)
I0425 09:52:43.844503 24800 net.cpp:137] Memory required for data: 2008379040
I0425 09:52:43.844530 24800 layer_factory.hpp:77] Creating layer fire9/relu_squeeze1x1
I0425 09:52:43.844558 24800 net.cpp:84] Creating Layer fire9/relu_squeeze1x1
I0425 09:52:43.844568 24800 net.cpp:406] fire9/relu_squeeze1x1 <- fire9/squeeze1x1
I0425 09:52:43.844584 24800 net.cpp:367] fire9/relu_squeeze1x1 -> fire9/squeeze1x1 (in-place)
I0425 09:52:43.860905 24800 net.cpp:122] Setting up fire9/relu_squeeze1x1
I0425 09:52:43.861018 24800 net.cpp:129] Top shape: 40 64 18 18 (829440)
I0425 09:52:43.861027 24800 net.cpp:137] Memory required for data: 2011696800
I0425 09:52:43.861039 24800 layer_factory.hpp:77] Creating layer fire9/squeeze1x1_fire9/relu_squeeze1x1_0_split
I0425 09:52:43.861101 24800 net.cpp:84] Creating Layer fire9/squeeze1x1_fire9/relu_squeeze1x1_0_split
I0425 09:52:43.861111 24800 net.cpp:406] fire9/squeeze1x1_fire9/relu_squeeze1x1_0_split <- fire9/squeeze1x1
I0425 09:52:43.861129 24800 net.cpp:380] fire9/squeeze1x1_fire9/relu_squeeze1x1_0_split -> fire9/squeeze1x1_fire9/relu_squeeze1x1_0_split_0
I0425 09:52:43.861151 24800 net.cpp:380] fire9/squeeze1x1_fire9/relu_squeeze1x1_0_split -> fire9/squeeze1x1_fire9/relu_squeeze1x1_0_split_1
I0425 09:52:43.861277 24800 net.cpp:122] Setting up fire9/squeeze1x1_fire9/relu_squeeze1x1_0_split
I0425 09:52:43.861291 24800 net.cpp:129] Top shape: 40 64 18 18 (829440)
I0425 09:52:43.861300 24800 net.cpp:129] Top shape: 40 64 18 18 (829440)
I0425 09:52:43.861305 24800 net.cpp:137] Memory required for data: 2018332320
I0425 09:52:43.861313 24800 layer_factory.hpp:77] Creating layer fire9/expand1x1
I0425 09:52:43.861335 24800 net.cpp:84] Creating Layer fire9/expand1x1
I0425 09:52:43.861342 24800 net.cpp:406] fire9/expand1x1 <- fire9/squeeze1x1_fire9/relu_squeeze1x1_0_split_0
I0425 09:52:43.861352 24800 net.cpp:380] fire9/expand1x1 -> fire9/expand1x1
I0425 09:52:43.868180 24800 net.cpp:122] Setting up fire9/expand1x1
I0425 09:52:43.869910 24800 net.cpp:129] Top shape: 40 256 18 18 (3317760)
I0425 09:52:43.869997 24800 net.cpp:137] Memory required for data: 2031603360
I0425 09:52:43.870056 24800 layer_factory.hpp:77] Creating layer fire9/relu_expand1x1
I0425 09:52:43.870144 24800 net.cpp:84] Creating Layer fire9/relu_expand1x1
I0425 09:52:43.870177 24800 net.cpp:406] fire9/relu_expand1x1 <- fire9/expand1x1
I0425 09:52:43.870219 24800 net.cpp:367] fire9/relu_expand1x1 -> fire9/expand1x1 (in-place)
I0425 09:52:43.896404 24800 net.cpp:122] Setting up fire9/relu_expand1x1
I0425 09:52:43.896706 24800 net.cpp:129] Top shape: 40 256 18 18 (3317760)
I0425 09:52:43.896725 24800 net.cpp:137] Memory required for data: 2044874400
I0425 09:52:43.896766 24800 layer_factory.hpp:77] Creating layer fire9/expand3x3
I0425 09:52:43.896888 24800 net.cpp:84] Creating Layer fire9/expand3x3
I0425 09:52:43.896924 24800 net.cpp:406] fire9/expand3x3 <- fire9/squeeze1x1_fire9/relu_squeeze1x1_0_split_1
I0425 09:52:43.896996 24800 net.cpp:380] fire9/expand3x3 -> fire9/expand3x3
I0425 09:52:43.908195 24800 net.cpp:122] Setting up fire9/expand3x3
I0425 09:52:43.908457 24800 net.cpp:129] Top shape: 40 256 18 18 (3317760)
I0425 09:52:43.908485 24800 net.cpp:137] Memory required for data: 2058145440
I0425 09:52:43.908572 24800 layer_factory.hpp:77] Creating layer fire9/relu_expand3x3
I0425 09:52:43.908663 24800 net.cpp:84] Creating Layer fire9/relu_expand3x3
I0425 09:52:43.908695 24800 net.cpp:406] fire9/relu_expand3x3 <- fire9/expand3x3
I0425 09:52:43.908751 24800 net.cpp:367] fire9/relu_expand3x3 -> fire9/expand3x3 (in-place)
I0425 09:52:43.909699 24800 net.cpp:122] Setting up fire9/relu_expand3x3
I0425 09:52:43.909934 24800 net.cpp:129] Top shape: 40 256 18 18 (3317760)
I0425 09:52:43.909951 24800 net.cpp:137] Memory required for data: 2071416480
I0425 09:52:43.909965 24800 layer_factory.hpp:77] Creating layer fire9/concat
I0425 09:52:43.910050 24800 net.cpp:84] Creating Layer fire9/concat
I0425 09:52:43.910065 24800 net.cpp:406] fire9/concat <- fire9/expand1x1
I0425 09:52:43.910084 24800 net.cpp:406] fire9/concat <- fire9/expand3x3
I0425 09:52:43.910104 24800 net.cpp:380] fire9/concat -> fire9/concat
I0425 09:52:43.910326 24800 net.cpp:122] Setting up fire9/concat
I0425 09:52:43.910351 24800 net.cpp:129] Top shape: 40 512 18 18 (6635520)
I0425 09:52:43.910362 24800 net.cpp:137] Memory required for data: 2097958560
I0425 09:52:43.910369 24800 layer_factory.hpp:77] Creating layer drop9
I0425 09:52:43.910403 24800 net.cpp:84] Creating Layer drop9
I0425 09:52:43.910414 24800 net.cpp:406] drop9 <- fire9/concat
I0425 09:52:43.910426 24800 net.cpp:367] drop9 -> fire9/concat (in-place)
I0425 09:52:43.910548 24800 net.cpp:122] Setting up drop9
I0425 09:52:43.910570 24800 net.cpp:129] Top shape: 40 512 18 18 (6635520)
I0425 09:52:43.910580 24800 net.cpp:137] Memory required for data: 2124500640
I0425 09:52:43.910589 24800 layer_factory.hpp:77] Creating layer conv10_new
I0425 09:52:43.910677 24800 net.cpp:84] Creating Layer conv10_new
I0425 09:52:43.910691 24800 net.cpp:406] conv10_new <- fire9/concat
I0425 09:52:43.910707 24800 net.cpp:380] conv10_new -> conv10_new
I0425 09:52:43.921452 24800 net.cpp:122] Setting up conv10_new
I0425 09:52:43.921707 24800 net.cpp:129] Top shape: 40 196 18 18 (2540160)
I0425 09:52:43.921728 24800 net.cpp:137] Memory required for data: 2134661280
I0425 09:52:43.921767 24800 layer_factory.hpp:77] Creating layer relu_conv10
I0425 09:52:43.921808 24800 net.cpp:84] Creating Layer relu_conv10
I0425 09:52:43.921823 24800 net.cpp:406] relu_conv10 <- conv10_new
I0425 09:52:43.921855 24800 net.cpp:367] relu_conv10 -> conv10_new (in-place)
I0425 09:52:43.924662 24800 net.cpp:122] Setting up relu_conv10
I0425 09:52:43.924829 24800 net.cpp:129] Top shape: 40 196 18 18 (2540160)
I0425 09:52:43.924844 24800 net.cpp:137] Memory required for data: 2144821920
I0425 09:52:43.924860 24800 layer_factory.hpp:77] Creating layer pool10
I0425 09:52:43.924902 24800 net.cpp:84] Creating Layer pool10
I0425 09:52:43.924917 24800 net.cpp:406] pool10 <- conv10_new
I0425 09:52:43.924957 24800 net.cpp:380] pool10 -> pool10
I0425 09:52:43.925554 24800 net.cpp:122] Setting up pool10
I0425 09:52:43.925590 24800 net.cpp:129] Top shape: 40 196 1 1 (7840)
I0425 09:52:43.925599 24800 net.cpp:137] Memory required for data: 2144853280
I0425 09:52:43.925612 24800 layer_factory.hpp:77] Creating layer loss
I0425 09:52:43.925627 24800 net.cpp:84] Creating Layer loss
I0425 09:52:43.925638 24800 net.cpp:406] loss <- pool10
I0425 09:52:43.925652 24800 net.cpp:406] loss <- label
I0425 09:52:43.925673 24800 net.cpp:380] loss -> loss
I0425 09:52:43.925726 24800 layer_factory.hpp:77] Creating layer loss
…
I0425 09:52:43.930666 24800 solver.cpp:172] Creating test net (#0) specified by net file: finetune.prototxt
I0425 09:52:43.930866 24800 net.cpp:294] The NetState phase (1) differed from the phase (0) specified by a rule in layer data
I0425 09:52:43.931462 24800 net.cpp:51] Initializing net from parameters: 
state {
  phase: TEST
}
layer {
  name: "data"
  type: "ImageData"
  top: "data"
  top: "label"
  include {
    phase: TEST
  }
  transform_param {
    mean_value: 104
    mean_value: 117
    mean_value: 123
  }
  image_data_param {
    source: "./val1.txt"
    batch_size: 40
    crop_size: 227
    mirror: false
    shuffle: true
  }
}
layer {
  name: "conv1"
  type: "Convolution"
  bottom: "data"
  top: "conv1"
  convolution_param {
    num_output: 64
    kernel_size: 3
    stride: 2
    weight_filler {
      type: "xavier"
    }
  }
}
layer {
  name: "relu_conv1"
  type: "ReLU"
  bottom: "conv1"
  top: "conv1"
}
layer {
  name: "pool1"
  type: "Pooling"
  bottom: "conv1"
  top: "pool1"
  pooling_param {
    pool: MAX
    kernel_size: 3
    stride: 2
  }
}
layer {
  name: "fire2/squeeze1x1"
  type: "Convolution"
  bottom: "pool1"
  top: "fire2/squeeze1x1"
  convolution_param {
    num_output: 16
    kernel_size: 1
    weight_filler {
      type: "xavier"
    }
  }
}
layer {
  name: "fire2/relu_squeeze1x1"
  type: "ReLU"
  bottom: "fire2/squeeze1x1"
  top: "fire2/squeeze1x1"
}
layer {
  name: "fire2/expand1x1"
  type: "Convolution"
  bottom: "fire2/squeeze1x1"
  top: "fire2/expand1x1"
  convolution_param {
    num_output: 64
    kernel_size: 1
    weight_filler {
      type: "xavier"
    }
  }
}
layer {
  name: "fire2/relu_expand1x1"
  type: "ReLU"
  bottom: "fire2/expand1x1"
  top: "fire2/expand1x1"
}
layer {
  name: "fire2/expand3x3"
  type: "Convolution"
  bottom: "fire2/squeeze1x1"
  top: "fire2/expand3x3"
  convolution_param {
    num_output: 64
    pad: 1
    kernel_size: 3
    weight_filler {
      type: "xavier"
    }
  }
}
layer {
  name: "fire2/relu_expand3x3"
  type: "ReLU"
  bottom: "fire2/expand3x3"
  top: "fire2/expand3x3"
}
layer {
  name: "fire2/concat"
  type: "Concat"
  bottom: "fire2/expand1x1"
  bottom: "fire2/expand3x3"
  top: "fire2/concat"
}
layer {
  name: "fire3/squeeze1x1"
  type: "Convolution"
  bottom: "fire2/concat"
  top: "fire3/squeeze1x1"
  convolution_param {
    num_output: 16
    kernel_size: 1
    weight_filler {
      type: "xavier"
    }
  }
}
layer {
  name: "fire3/relu_squeeze1x1"
  type: "ReLU"
  bottom: "fire3/squeeze1x1"
  top: "fire3/squeeze1x1"
}
layer {
  name: "fire3/expand1x1"
  type: "Convolution"
  bottom: "fire3/squeeze1x1"
  top: "fire3/expand1x1"
  convolution_param {
    num_output: 64
    kernel_size: 1
    weight_filler {
      type: "xavier"
    }
  }
}
layer {
  name: "fire3/relu_expand1x1"
  type: "ReLU"
  bottom: "fire3/expand1x1"
  top: "fire3/expand1x1"
}
layer {
  name: "fire3/expand3x3"
  type: "Convolution"
  bottom: "fire3/squeeze1x1"
  top: "fire3/expand3x3"
  convolution_param {
    num_output: 64
    pad: 1
    kernel_size: 3
    weight_filler {
      type: "xavier"
    }
  }
}
layer {
  name: "fire3/relu_expand3x3"
  type: "ReLU"
  bottom: "fire3/expand3x3"
  top: "fire3/expand3x3"
}
layer {
  name: "fire3/concat"
  type: "Concat"
  bottom: "fire3/expand1x1"
  bottom: "fire3/expand3x3"
  top: "fire3/concat"
}
layer {
  name: "pool3"
  type: "Pooling"
  bottom: "fire3/concat"
  top: "pool3"
  pooling_param {
    pool: MAX
    kernel_size: 3
    stride: 2
  }
}
layer {
  name: "fire4/squeeze1x1"
  type: "Convolution"
  bottom: "pool3"
  top: "fire4/squeeze1x1"
  convolution_param {
    num_output: 32
    kernel_size: 1
    weight_filler {
      type: "xavier"
    }
  }
}
layer {
  name: "fire4/relu_squeeze1x1"
  type: "ReLU"
  bottom: "fire4/squeeze1x1"
  top: "fire4/squeeze1x1"
}
layer {
  name: "fire4/expand1x1"
  type: "Convolution"
  bottom: "fire4/squeeze1x1"
  top: "fire4/expand1x1"
  convolution_param {
    num_output: 128
    kernel_size: 1
    weight_filler {
      type: "xavier"
    }
  }
}
layer {
  name: "fire4/relu_expand1x1"
  type: "ReLU"
  bottom: "fire4/expand1x1"
  top: "fire4/expand1x1"
}
layer {
  name: "fire4/expand3x3"
  type: "Convolution"
  bottom: "fire4/squeeze1x1"
  top: "fire4/expand3x3"
  convolution_param {
    num_output: 128
    pad: 1
    kernel_size: 3
    weight_filler {
      type: "xavier"
    }
  }
}
layer {
  name: "fire4/relu_expand3x3"
  type: "ReLU"
  bottom: "fire4/expand3x3"
  top: "fire4/expand3x3"
}
layer {
  name: "fire4/concat"
  type: "Concat"
  bottom: "fire4/expand1x1"
  bottom: "fire4/expand3x3"
  top: "fire4/concat"
}
layer {
  name: "fire5/squeeze1x1"
  type: "Convolution"
  bottom: "fire4/concat"
  top: "fire5/squeeze1x1"
  convolution_param {
    num_output: 32
    kernel_size: 1
    weight_filler {
      type: "xavier"
    }
  }
}
layer {
  name: "fire5/relu_squeeze1x1"
  type: "ReLU"
  bottom: "fire5/squeeze1x1"
  top: "fire5/squeeze1x1"
}
layer {
  name: "fire5/expand1x1"
  type: "Convolution"
  bottom: "fire5/squeeze1x1"
  top: "fire5/expand1x1"
  convolution_param {
    num_output: 128
    kernel_size: 1
    weight_filler {
      type: "xavier"
    }
  }
}
layer {
  name: "fire5/relu_expand1x1"
  type: "ReLU"
  bottom: "fire5/expand1x1"
  top: "fire5/expand1x1"
}
layer {
  name: "fire5/expand3x3"
  type: "Convolution"
  bottom: "fire5/squeeze1x1"
  top: "fire5/expand3x3"
  convolution_param {
    num_output: 128
    pad: 1
    kernel_size: 3
    weight_filler {
      type: "xavier"
    }
  }
}
layer {
  name: "fire5/relu_expand3x3"
  type: "ReLU"
  bottom: "fire5/expand3x3"
  top: "fire5/expand3x3"
}
layer {
  name: "fire5/concat"
  type: "Concat"
  bottom: "fire5/expand1x1"
  bottom: "fire5/expand3x3"
  top: "fire5/concat"
}
layer {
  name: "pool5"
  type: "Pooling"
  bottom: "fire5/concat"
  top: "pool5"
  pooling_param {
    pool: MAX
    kernel_size: 3
    stride: 2
  }
}
layer {
  name: "fire6/squeeze1x1"
  type: "Convolution"
  bottom: "pool5"
  top: "fire6/squeeze1x1"
  convolution_param {
    num_output: 48
    kernel_size: 1
    weight_filler {
      type: "xavier"
    }
  }
}
layer {
  name: "fire6/relu_squeeze1x1"
  type: "ReLU"
  bottom: "fire6/squeeze1x1"
  top: "fire6/squeeze1x1"
}
layer {
  name: "fire6/expand1x1"
  type: "Convolution"
  bottom: "fire6/squeeze1x1"
  top: "fire6/expand1x1"
  convolution_param {
    num_output: 192
    kernel_size: 1
    weight_filler {
      type: "xavier"
    }
  }
}
layer {
  name: "fire6/relu_expand1x1"
  type: "ReLU"
  bottom: "fire6/expand1x1"
  top: "fire6/expand1x1"
}
layer {
  name: "fire6/expand3x3"
  type: "Convolution"
  bottom: "fire6/squeeze1x1"
  top: "fire6/expand3x3"
  convolution_param {
    num_output: 192
    pad: 1
    kernel_size: 3
    weight_filler {
      type: "xavier"
    }
  }
}
layer {
  name: "fire6/relu_expand3x3"
  type: "ReLU"
  bottom: "fire6/expand3x3"
  top: "fire6/expand3x3"
}
layer {
  name: "fire6/concat"
  type: "Concat"
  bottom: "fire6/expand1x1"
  bottom: "fire6/expand3x3"
  top: "fire6/concat"
}
layer {
  name: "fire7/squeeze1x1"
  type: "Convolution"
  bottom: "fire6/concat"
  top: "fire7/squeeze1x1"
  convolution_param {
    num_output: 48
    kernel_size: 1
    weight_filler {
      type: "xavier"
    }
  }
}
layer {
  name: "fire7/relu_squeeze1x1"
  type: "ReLU"
  bottom: "fire7/squeeze1x1"
  top: "fire7/squeeze1x1"
}
layer {
  name: "fire7/expand1x1"
  type: "Convolution"
  bottom: "fire7/squeeze1x1"
  top: "fire7/expand1x1"
  convolution_param {
    num_output: 192
    kernel_size: 1
    weight_filler {
      type: "xavier"
    }
  }
}
layer {
  name: "fire7/relu_expand1x1"
  type: "ReLU"
  bottom: "fire7/expand1x1"
  top: "fire7/expand1x1"
}
layer {
  name: "fire7/expand3x3"
  type: "Convolution"
  bottom: "fire7/squeeze1x1"
  top: "fire7/expand3x3"
  convolution_param {
    num_output: 192
    pad: 1
    kernel_size: 3
    weight_filler {
      type: "xavier"
    }
  }
}
layer {
  name: "fire7/relu_expand3x3"
  type: "ReLU"
  bottom: "fire7/expand3x3"
  top: "fire7/expand3x3"
}
layer {
  name: "fire7/concat"
  type: "Concat"
  bottom: "fire7/expand1x1"
  bottom: "fire7/expand3x3"
  top: "fire7/concat"
}
layer {
  name: "fire8/squeeze1x1"
  type: "Convolution"
  bottom: "fire7/concat"
  top: "fire8/squeeze1x1"
  convolution_param {
    num_output: 64
    kernel_size: 1
    weight_filler {
      type: "xavier"
    }
  }
}
layer {
  name: "fire8/relu_squeeze1x1"
  type: "ReLU"
  bottom: "fire8/squeeze1x1"
  top: "fire8/squeeze1x1"
}
layer {
  name: "fire8/expand1x1"
  type: "Convolution"
  bottom: "fire8/squeeze1x1"
  top: "fire8/expand1x1"
  convolution_param {
    num_output: 256
    kernel_size: 1
    weight_filler {
      type: "xavier"
    }
  }
}
layer {
  name: "fire8/relu_expand1x1"
  type: "ReLU"
  bottom: "fire8/expand1x1"
  top: "fire8/expand1x1"
}
layer {
  name: "fire8/expand3x3"
  type: "Convolution"
  bottom: "fire8/squeeze1x1"
  top: "fire8/expand3x3"
  convolution_param {
    num_output: 256
    pad: 1
    kernel_size: 3
    weight_filler {
      type: "xavier"
    }
  }
}
layer {
  name: "fire8/relu_expand3x3"
  type: "ReLU"
  bottom: "fire8/expand3x3"
  top: "fire8/expand3x3"
}
layer {
  name: "fire8/concat"
  type: "Concat"
  bottom: "fire8/expand1x1"
  bottom: "fire8/expand3x3"
  top: "fire8/concat"
}
layer {
  name: "fire9/squeeze1x1"
  type: "Convolution"
  bottom: "fire8/concat"
  top: "fire9/squeeze1x1"
  convolution_param {
    num_output: 64
    kernel_size: 1
    weight_filler {
      type: "xavier"
    }
  }
}
layer {
  name: "fire9/relu_squeeze1x1"
  type: "ReLU"
  bottom: "fire9/squeeze1x1"
  top: "fire9/squeeze1x1"
}
layer {
  name: "fire9/expand1x1"
  type: "Convolution"
  bottom: "fire9/squeeze1x1"
  top: "fire9/expand1x1"
  convolution_param {
    num_output: 256
    kernel_size: 1
    weight_filler {
      type: "xavier"
    }
  }
}
layer {
  name: "fire9/relu_expand1x1"
  type: "ReLU"
  bottom: "fire9/expand1x1"
  top: "fire9/expand1x1"
}
layer {
  name: "fire9/expand3x3"
  type: "Convolution"
  bottom: "fire9/squeeze1x1"
  top: "fire9/expand3x3"
  convolution_param {
    num_output: 256
    pad: 1
    kernel_size: 3
    weight_filler {
      type: "xavier"
    }
  }
}
layer {
  name: "fire9/relu_expand3x3"
  type: "ReLU"
  bottom: "fire9/expand3x3"
  top: "fire9/expand3x3"
}
layer {
  name: "fire9/concat"
  type: "Concat"
  bottom: "fire9/expand1x1"
  bottom: "fire9/expand3x3"
  top: "fire9/concat"
}
layer {
  name: "drop9"
  type: "Dropout"
  bottom: "fire9/concat"
  top: "fire9/concat"
  dropout_param {
    dropout_ratio: 0.5
  }
}
layer {
  name: "conv10_new"
  type: "Convolution"
  bottom: "fire9/concat"
  top: "conv10_new"
  convolution_param {
    num_output: 196
    kernel_size: 1
    weight_filler {
      type: "gaussian"
      mean: 0
      std: 0.01
    }
  }
}
layer {
  name: "relu_conv10"
  type: "ReLU"
  bottom: "conv10_new"
  top: "conv10_new"
}
layer {
  name: "pool10"
  type: "Pooling"
  bottom: "conv10_new"
  top: "pool10"
  pooling_param {
    pool: AVE
    global_pooling: true
  }
}
layer {
  name: "loss"
  type: "SoftmaxWithLoss"
  bottom: "pool10"
  bottom: "label"
  top: "loss"
}
layer {
  name: "accuracy"
  type: "Accuracy"
  bottom: "pool10"
  bottom: "label"
  top: "accuracy"
  include {
    phase: TEST
  }
}
layer {
  name: "accuracy_top5"
  type: "Accuracy"
  bottom: "pool10"
  bottom: "label"
  top: "accuracy_top5"
  include {
    phase: TEST
  }
  accuracy_param {
    top_k: 5
  }
}
I0425 09:52:43.932260 24800 layer_factory.hpp:77] Creating layer data
I0425 09:52:43.932312 24800 net.cpp:84] Creating Layer data
I0425 09:52:43.932329 24800 net.cpp:380] data -> data
I0425 09:52:43.932368 24800 net.cpp:380] data -> label
I0425 09:52:43.932395 24800 image_data_layer.cpp:38] Opening file ./val1.txt
I0425 09:52:43.935549 24800 image_data_layer.cpp:53] Shuffling data
I0425 09:52:43.936826 24800 image_data_layer.cpp:63] A total of 3940 images.
I0425 09:52:43.939461 24800 image_data_layer.cpp:90] output data size: 40,3,300,300
I0425 09:52:44.157909 24800 net.cpp:122] Setting up data
I0425 09:52:44.158077 24800 net.cpp:129] Top shape: 40 3 300 300 (10800000)
I0425 09:52:44.158087 24800 net.cpp:129] Top shape: 40 (40)
I0425 09:52:44.158094 24800 net.cpp:137] Memory required for data: 43200160
I0425 09:52:44.158115 24800 layer_factory.hpp:77] Creating layer label_data_1_split
I0425 09:52:44.158159 24800 net.cpp:84] Creating Layer label_data_1_split
I0425 09:52:44.158170 24800 net.cpp:406] label_data_1_split <- label
I0425 09:52:44.158192 24800 net.cpp:380] label_data_1_split -> label_data_1_split_0
I0425 09:52:44.158226 24800 net.cpp:380] label_data_1_split -> label_data_1_split_1
I0425 09:52:44.158236 24800 net.cpp:380] label_data_1_split -> label_data_1_split_2
I0425 09:52:44.158398 24800 net.cpp:122] Setting up label_data_1_split
I0425 09:52:44.158411 24800 net.cpp:129] Top shape: 40 (40)
I0425 09:52:44.158416 24800 net.cpp:129] Top shape: 40 (40)
I0425 09:52:44.158421 24800 net.cpp:129] Top shape: 40 (40)
I0425 09:52:44.158424 24800 net.cpp:137] Memory required for data: 43200640
I0425 09:52:44.158429 24800 layer_factory.hpp:77] Creating layer conv1
I0425 09:52:44.158457 24800 net.cpp:84] Creating Layer conv1
I0425 09:52:44.158462 24800 net.cpp:406] conv1 <- data
I0425 09:52:44.158470 24800 net.cpp:380] conv1 -> conv1
I0425 09:52:44.160270 24800 net.cpp:122] Setting up conv1
I0425 09:52:44.160315 24800 net.cpp:129] Top shape: 40 64 149 149 (56834560)
I0425 09:52:44.160321 24800 net.cpp:137] Memory required for data: 270538880
I0425 09:52:44.160346 24800 layer_factory.hpp:77] Creating layer relu_conv1
I0425 09:52:44.160362 24800 net.cpp:84] Creating Layer relu_conv1
I0425 09:52:44.160370 24800 net.cpp:406] relu_conv1 <- conv1
I0425 09:52:44.160379 24800 net.cpp:367] relu_conv1 -> conv1 (in-place)
I0425 09:52:44.160611 24800 net.cpp:122] Setting up relu_conv1
I0425 09:52:44.160626 24800 net.cpp:129] Top shape: 40 64 149 149 (56834560)
I0425 09:52:44.160634 24800 net.cpp:137] Memory required for data: 497877120
I0425 09:52:44.160640 24800 layer_factory.hpp:77] Creating layer pool1
I0425 09:52:44.160658 24800 net.cpp:84] Creating Layer pool1
I0425 09:52:44.160665 24800 net.cpp:406] pool1 <- conv1
I0425 09:52:44.160676 24800 net.cpp:380] pool1 -> pool1
I0425 09:52:44.160753 24800 net.cpp:122] Setting up pool1
I0425 09:52:44.160764 24800 net.cpp:129] Top shape: 40 64 74 74 (14018560)
I0425 09:52:44.160770 24800 net.cpp:137] Memory required for data: 553951360
I0425 09:52:44.160852 24800 layer_factory.hpp:77] Creating layer fire2/squeeze1x1
I0425 09:52:44.160877 24800 net.cpp:84] Creating Layer fire2/squeeze1x1
I0425 09:52:44.160884 24800 net.cpp:406] fire2/squeeze1x1 <- pool1
I0425 09:52:44.160924 24800 net.cpp:380] fire2/squeeze1x1 -> fire2/squeeze1x1
I0425 09:52:44.163820 24800 net.cpp:122] Setting up fire2/squeeze1x1
I0425 09:52:44.163969 24800 net.cpp:129] Top shape: 40 16 74 74 (3504640)
I0425 09:52:44.163978 24800 net.cpp:137] Memory required for data: 567969920
I0425 09:52:44.164024 24800 layer_factory.hpp:77] Creating layer fire2/relu_squeeze1x1
I0425 09:52:44.164062 24800 net.cpp:84] Creating Layer fire2/relu_squeeze1x1
I0425 09:52:44.164072 24800 net.cpp:406] fire2/relu_squeeze1x1 <- fire2/squeeze1x1
I0425 09:52:44.164089 24800 net.cpp:367] fire2/relu_squeeze1x1 -> fire2/squeeze1x1 (in-place)
I0425 09:52:44.164412 24800 net.cpp:122] Setting up fire2/relu_squeeze1x1
I0425 09:52:44.164432 24800 net.cpp:129] Top shape: 40 16 74 74 (3504640)
I0425 09:52:44.164438 24800 net.cpp:137] Memory required for data: 581988480
I0425 09:52:44.164445 24800 layer_factory.hpp:77] Creating layer fire2/squeeze1x1_fire2/relu_squeeze1x1_0_split
I0425 09:52:44.164460 24800 net.cpp:84] Creating Layer fire2/squeeze1x1_fire2/relu_squeeze1x1_0_split
I0425 09:52:44.164466 24800 net.cpp:406] fire2/squeeze1x1_fire2/relu_squeeze1x1_0_split <- fire2/squeeze1x1
I0425 09:52:44.164475 24800 net.cpp:380] fire2/squeeze1x1_fire2/relu_squeeze1x1_0_split -> fire2/squeeze1x1_fire2/relu_squeeze1x1_0_split_0
I0425 09:52:44.164499 24800 net.cpp:380] fire2/squeeze1x1_fire2/relu_squeeze1x1_0_split -> fire2/squeeze1x1_fire2/relu_squeeze1x1_0_split_1
I0425 09:52:44.164585 24800 net.cpp:122] Setting up fire2/squeeze1x1_fire2/relu_squeeze1x1_0_split
I0425 09:52:44.164600 24800 net.cpp:129] Top shape: 40 16 74 74 (3504640)
I0425 09:52:44.164609 24800 net.cpp:129] Top shape: 40 16 74 74 (3504640)
I0425 09:52:44.164616 24800 net.cpp:137] Memory required for data: 610025600
I0425 09:52:44.164624 24800 layer_factory.hpp:77] Creating layer fire2/expand1x1
I0425 09:52:44.164669 24800 net.cpp:84] Creating Layer fire2/expand1x1
I0425 09:52:44.164676 24800 net.cpp:406] fire2/expand1x1 <- fire2/squeeze1x1_fire2/relu_squeeze1x1_0_split_0
I0425 09:52:44.164687 24800 net.cpp:380] fire2/expand1x1 -> fire2/expand1x1
I0425 09:52:44.167992 24800 net.cpp:122] Setting up fire2/expand1x1
I0425 09:52:44.168136 24800 net.cpp:129] Top shape: 40 64 74 74 (14018560)
I0425 09:52:44.168145 24800 net.cpp:137] Memory required for data: 666099840
I0425 09:52:44.168190 24800 layer_factory.hpp:77] Creating layer fire2/relu_expand1x1
I0425 09:52:44.168221 24800 net.cpp:84] Creating Layer fire2/relu_expand1x1
I0425 09:52:44.168231 24800 net.cpp:406] fire2/relu_expand1x1 <- fire2/expand1x1
I0425 09:52:44.168252 24800 net.cpp:367] fire2/relu_expand1x1 -> fire2/expand1x1 (in-place)
I0425 09:52:44.168546 24800 net.cpp:122] Setting up fire2/relu_expand1x1
I0425 09:52:44.168561 24800 net.cpp:129] Top shape: 40 64 74 74 (14018560)
I0425 09:52:44.168568 24800 net.cpp:137] Memory required for data: 722174080
I0425 09:52:44.168575 24800 layer_factory.hpp:77] Creating layer fire2/expand3x3
I0425 09:52:44.168602 24800 net.cpp:84] Creating Layer fire2/expand3x3
I0425 09:52:44.168608 24800 net.cpp:406] fire2/expand3x3 <- fire2/squeeze1x1_fire2/relu_squeeze1x1_0_split_1
I0425 09:52:44.168622 24800 net.cpp:380] fire2/expand3x3 -> fire2/expand3x3
I0425 09:52:44.172825 24800 net.cpp:122] Setting up fire2/expand3x3
I0425 09:52:44.172974 24800 net.cpp:129] Top shape: 40 64 74 74 (14018560)
I0425 09:52:44.172988 24800 net.cpp:137] Memory required for data: 778248320
I0425 09:52:44.173027 24800 layer_factory.hpp:77] Creating layer fire2/relu_expand3x3
I0425 09:52:44.173063 24800 net.cpp:84] Creating Layer fire2/relu_expand3x3
I0425 09:52:44.173074 24800 net.cpp:406] fire2/relu_expand3x3 <- fire2/expand3x3
I0425 09:52:44.173097 24800 net.cpp:367] fire2/relu_expand3x3 -> fire2/expand3x3 (in-place)
I0425 09:52:44.174814 24800 net.cpp:122] Setting up fire2/relu_expand3x3
I0425 09:52:44.175071 24800 net.cpp:129] Top shape: 40 64 74 74 (14018560)
I0425 09:52:44.175079 24800 net.cpp:137] Memory required for data: 834322560
I0425 09:52:44.175096 24800 layer_factory.hpp:77] Creating layer fire2/concat
I0425 09:52:44.175179 24800 net.cpp:84] Creating Layer fire2/concat
I0425 09:52:44.175190 24800 net.cpp:406] fire2/concat <- fire2/expand1x1
I0425 09:52:44.175211 24800 net.cpp:406] fire2/concat <- fire2/expand3x3
I0425 09:52:44.175230 24800 net.cpp:380] fire2/concat -> fire2/concat
I0425 09:52:44.175493 24800 net.cpp:122] Setting up fire2/concat
I0425 09:52:44.175509 24800 net.cpp:129] Top shape: 40 128 74 74 (28037120)
I0425 09:52:44.175518 24800 net.cpp:137] Memory required for data: 946471040
I0425 09:52:44.175524 24800 layer_factory.hpp:77] Creating layer fire3/squeeze1x1
I0425 09:52:44.175559 24800 net.cpp:84] Creating Layer fire3/squeeze1x1
I0425 09:52:44.175567 24800 net.cpp:406] fire3/squeeze1x1 <- fire2/concat
I0425 09:52:44.175585 24800 net.cpp:380] fire3/squeeze1x1 -> fire3/squeeze1x1
I0425 09:52:44.180701 24800 net.cpp:122] Setting up fire3/squeeze1x1
I0425 09:52:44.180908 24800 net.cpp:129] Top shape: 40 16 74 74 (3504640)
I0425 09:52:44.180922 24800 net.cpp:137] Memory required for data: 960489600
I0425 09:52:44.181007 24800 layer_factory.hpp:77] Creating layer fire3/relu_squeeze1x1
I0425 09:52:44.181052 24800 net.cpp:84] Creating Layer fire3/relu_squeeze1x1
I0425 09:52:44.181069 24800 net.cpp:406] fire3/relu_squeeze1x1 <- fire3/squeeze1x1
I0425 09:52:44.181095 24800 net.cpp:367] fire3/relu_squeeze1x1 -> fire3/squeeze1x1 (in-place)
I0425 09:52:44.181413 24800 net.cpp:122] Setting up fire3/relu_squeeze1x1
I0425 09:52:44.181435 24800 net.cpp:129] Top shape: 40 16 74 74 (3504640)
I0425 09:52:44.181443 24800 net.cpp:137] Memory required for data: 974508160
I0425 09:52:44.181452 24800 layer_factory.hpp:77] Creating layer fire3/squeeze1x1_fire3/relu_squeeze1x1_0_split
I0425 09:52:44.181469 24800 net.cpp:84] Creating Layer fire3/squeeze1x1_fire3/relu_squeeze1x1_0_split
I0425 09:52:44.181478 24800 net.cpp:406] fire3/squeeze1x1_fire3/relu_squeeze1x1_0_split <- fire3/squeeze1x1
I0425 09:52:44.181493 24800 net.cpp:380] fire3/squeeze1x1_fire3/relu_squeeze1x1_0_split -> fire3/squeeze1x1_fire3/relu_squeeze1x1_0_split_0
I0425 09:52:44.181509 24800 net.cpp:380] fire3/squeeze1x1_fire3/relu_squeeze1x1_0_split -> fire3/squeeze1x1_fire3/relu_squeeze1x1_0_split_1
I0425 09:52:44.181596 24800 net.cpp:122] Setting up fire3/squeeze1x1_fire3/relu_squeeze1x1_0_split
I0425 09:52:44.181612 24800 net.cpp:129] Top shape: 40 16 74 74 (3504640)
I0425 09:52:44.181622 24800 net.cpp:129] Top shape: 40 16 74 74 (3504640)
I0425 09:52:44.181628 24800 net.cpp:137] Memory required for data: 1002545280
I0425 09:52:44.181637 24800 layer_factory.hpp:77] Creating layer fire3/expand1x1
I0425 09:52:44.181694 24800 net.cpp:84] Creating Layer fire3/expand1x1
I0425 09:52:44.181707 24800 net.cpp:406] fire3/expand1x1 <- fire3/squeeze1x1_fire3/relu_squeeze1x1_0_split_0
I0425 09:52:44.181721 24800 net.cpp:380] fire3/expand1x1 -> fire3/expand1x1
I0425 09:52:44.199671 24800 net.cpp:122] Setting up fire3/expand1x1
I0425 09:52:44.199733 24800 net.cpp:129] Top shape: 40 64 74 74 (14018560)
I0425 09:52:44.199743 24800 net.cpp:137] Memory required for data: 1058619520
I0425 09:52:44.199765 24800 layer_factory.hpp:77] Creating layer fire3/relu_expand1x1
I0425 09:52:44.199791 24800 net.cpp:84] Creating Layer fire3/relu_expand1x1
I0425 09:52:44.199802 24800 net.cpp:406] fire3/relu_expand1x1 <- fire3/expand1x1
I0425 09:52:44.199817 24800 net.cpp:367] fire3/relu_expand1x1 -> fire3/expand1x1 (in-place)
I0425 09:52:44.201339 24800 net.cpp:122] Setting up fire3/relu_expand1x1
I0425 09:52:44.201385 24800 net.cpp:129] Top shape: 40 64 74 74 (14018560)
I0425 09:52:44.201395 24800 net.cpp:137] Memory required for data: 1114693760
I0425 09:52:44.201406 24800 layer_factory.hpp:77] Creating layer fire3/expand3x3
I0425 09:52:44.201441 24800 net.cpp:84] Creating Layer fire3/expand3x3
I0425 09:52:44.201453 24800 net.cpp:406] fire3/expand3x3 <- fire3/squeeze1x1_fire3/relu_squeeze1x1_0_split_1
I0425 09:52:44.201566 24800 net.cpp:380] fire3/expand3x3 -> fire3/expand3x3
I0425 09:52:44.204996 24800 net.cpp:122] Setting up fire3/expand3x3
I0425 09:52:44.205102 24800 net.cpp:129] Top shape: 40 64 74 74 (14018560)
I0425 09:52:44.205178 24800 net.cpp:137] Memory required for data: 1170768000
I0425 09:52:44.205227 24800 layer_factory.hpp:77] Creating layer fire3/relu_expand3x3
I0425 09:52:44.205269 24800 net.cpp:84] Creating Layer fire3/relu_expand3x3
I0425 09:52:44.205283 24800 net.cpp:406] fire3/relu_expand3x3 <- fire3/expand3x3
I0425 09:52:44.205304 24800 net.cpp:367] fire3/relu_expand3x3 -> fire3/expand3x3 (in-place)
I0425 09:52:44.205610 24800 net.cpp:122] Setting up fire3/relu_expand3x3
I0425 09:52:44.205629 24800 net.cpp:129] Top shape: 40 64 74 74 (14018560)
I0425 09:52:44.205636 24800 net.cpp:137] Memory required for data: 1226842240
I0425 09:52:44.205642 24800 layer_factory.hpp:77] Creating layer fire3/concat
I0425 09:52:44.205655 24800 net.cpp:84] Creating Layer fire3/concat
I0425 09:52:44.205662 24800 net.cpp:406] fire3/concat <- fire3/expand1x1
I0425 09:52:44.205670 24800 net.cpp:406] fire3/concat <- fire3/expand3x3
I0425 09:52:44.205679 24800 net.cpp:380] fire3/concat -> fire3/concat
I0425 09:52:44.205729 24800 net.cpp:122] Setting up fire3/concat
I0425 09:52:44.205744 24800 net.cpp:129] Top shape: 40 128 74 74 (28037120)
I0425 09:52:44.205749 24800 net.cpp:137] Memory required for data: 1338990720
I0425 09:52:44.205756 24800 layer_factory.hpp:77] Creating layer pool3
I0425 09:52:44.205781 24800 net.cpp:84] Creating Layer pool3
I0425 09:52:44.205790 24800 net.cpp:406] pool3 <- fire3/concat
I0425 09:52:44.205801 24800 net.cpp:380] pool3 -> pool3
I0425 09:52:44.205879 24800 net.cpp:122] Setting up pool3
I0425 09:52:44.205890 24800 net.cpp:129] Top shape: 40 128 37 37 (7009280)
I0425 09:52:44.205896 24800 net.cpp:137] Memory required for data: 1367027840
I0425 09:52:44.205902 24800 layer_factory.hpp:77] Creating layer fire4/squeeze1x1
I0425 09:52:44.205926 24800 net.cpp:84] Creating Layer fire4/squeeze1x1
I0425 09:52:44.205932 24800 net.cpp:406] fire4/squeeze1x1 <- pool3
I0425 09:52:44.205945 24800 net.cpp:380] fire4/squeeze1x1 -> fire4/squeeze1x1
I0425 09:52:44.208849 24800 net.cpp:122] Setting up fire4/squeeze1x1
I0425 09:52:44.208956 24800 net.cpp:129] Top shape: 40 32 37 37 (1752320)
I0425 09:52:44.208963 24800 net.cpp:137] Memory required for data: 1374037120
I0425 09:52:44.209002 24800 layer_factory.hpp:77] Creating layer fire4/relu_squeeze1x1
I0425 09:52:44.209043 24800 net.cpp:84] Creating Layer fire4/relu_squeeze1x1
I0425 09:52:44.209056 24800 net.cpp:406] fire4/relu_squeeze1x1 <- fire4/squeeze1x1
I0425 09:52:44.209079 24800 net.cpp:367] fire4/relu_squeeze1x1 -> fire4/squeeze1x1 (in-place)
I0425 09:52:44.209375 24800 net.cpp:122] Setting up fire4/relu_squeeze1x1
I0425 09:52:44.209396 24800 net.cpp:129] Top shape: 40 32 37 37 (1752320)
I0425 09:52:44.209403 24800 net.cpp:137] Memory required for data: 1381046400
I0425 09:52:44.209410 24800 layer_factory.hpp:77] Creating layer fire4/squeeze1x1_fire4/relu_squeeze1x1_0_split
I0425 09:52:44.209424 24800 net.cpp:84] Creating Layer fire4/squeeze1x1_fire4/relu_squeeze1x1_0_split
I0425 09:52:44.209431 24800 net.cpp:406] fire4/squeeze1x1_fire4/relu_squeeze1x1_0_split <- fire4/squeeze1x1
I0425 09:52:44.209446 24800 net.cpp:380] fire4/squeeze1x1_fire4/relu_squeeze1x1_0_split -> fire4/squeeze1x1_fire4/relu_squeeze1x1_0_split_0
I0425 09:52:44.209461 24800 net.cpp:380] fire4/squeeze1x1_fire4/relu_squeeze1x1_0_split -> fire4/squeeze1x1_fire4/relu_squeeze1x1_0_split_1
I0425 09:52:44.209527 24800 net.cpp:122] Setting up fire4/squeeze1x1_fire4/relu_squeeze1x1_0_split
I0425 09:52:44.209538 24800 net.cpp:129] Top shape: 40 32 37 37 (1752320)
I0425 09:52:44.209547 24800 net.cpp:129] Top shape: 40 32 37 37 (1752320)
I0425 09:52:44.209553 24800 net.cpp:137] Memory required for data: 1395064960
I0425 09:52:44.209560 24800 layer_factory.hpp:77] Creating layer fire4/expand1x1
I0425 09:52:44.209591 24800 net.cpp:84] Creating Layer fire4/expand1x1
I0425 09:52:44.209705 24800 net.cpp:406] fire4/expand1x1 <- fire4/squeeze1x1_fire4/relu_squeeze1x1_0_split_0
I0425 09:52:44.209717 24800 net.cpp:380] fire4/expand1x1 -> fire4/expand1x1
I0425 09:52:44.213008 24800 net.cpp:122] Setting up fire4/expand1x1
I0425 09:52:44.213121 24800 net.cpp:129] Top shape: 40 128 37 37 (7009280)
I0425 09:52:44.213129 24800 net.cpp:137] Memory required for data: 1423102080
I0425 09:52:44.213191 24800 layer_factory.hpp:77] Creating layer fire4/relu_expand1x1
I0425 09:52:44.213239 24800 net.cpp:84] Creating Layer fire4/relu_expand1x1
I0425 09:52:44.213258 24800 net.cpp:406] fire4/relu_expand1x1 <- fire4/expand1x1
I0425 09:52:44.213282 24800 net.cpp:367] fire4/relu_expand1x1 -> fire4/expand1x1 (in-place)
I0425 09:52:44.213590 24800 net.cpp:122] Setting up fire4/relu_expand1x1
I0425 09:52:44.213609 24800 net.cpp:129] Top shape: 40 128 37 37 (7009280)
I0425 09:52:44.213615 24800 net.cpp:137] Memory required for data: 1451139200
I0425 09:52:44.213624 24800 layer_factory.hpp:77] Creating layer fire4/expand3x3
I0425 09:52:44.213666 24800 net.cpp:84] Creating Layer fire4/expand3x3
I0425 09:52:44.213676 24800 net.cpp:406] fire4/expand3x3 <- fire4/squeeze1x1_fire4/relu_squeeze1x1_0_split_1
I0425 09:52:44.213687 24800 net.cpp:380] fire4/expand3x3 -> fire4/expand3x3
I0425 09:52:44.216781 24800 net.cpp:122] Setting up fire4/expand3x3
I0425 09:52:44.216905 24800 net.cpp:129] Top shape: 40 128 37 37 (7009280)
I0425 09:52:44.216914 24800 net.cpp:137] Memory required for data: 1479176320
I0425 09:52:44.216944 24800 layer_factory.hpp:77] Creating layer fire4/relu_expand3x3
I0425 09:52:44.216972 24800 net.cpp:84] Creating Layer fire4/relu_expand3x3
I0425 09:52:44.216982 24800 net.cpp:406] fire4/relu_expand3x3 <- fire4/expand3x3
I0425 09:52:44.216998 24800 net.cpp:367] fire4/relu_expand3x3 -> fire4/expand3x3 (in-place)
I0425 09:52:44.217311 24800 net.cpp:122] Setting up fire4/relu_expand3x3
I0425 09:52:44.217329 24800 net.cpp:129] Top shape: 40 128 37 37 (7009280)
I0425 09:52:44.217334 24800 net.cpp:137] Memory required for data: 1507213440
I0425 09:52:44.217341 24800 layer_factory.hpp:77] Creating layer fire4/concat
I0425 09:52:44.217357 24800 net.cpp:84] Creating Layer fire4/concat
I0425 09:52:44.217365 24800 net.cpp:406] fire4/concat <- fire4/expand1x1
I0425 09:52:44.217372 24800 net.cpp:406] fire4/concat <- fire4/expand3x3
I0425 09:52:44.217383 24800 net.cpp:380] fire4/concat -> fire4/concat
I0425 09:52:44.217438 24800 net.cpp:122] Setting up fire4/concat
I0425 09:52:44.217450 24800 net.cpp:129] Top shape: 40 256 37 37 (14018560)
I0425 09:52:44.217458 24800 net.cpp:137] Memory required for data: 1563287680
I0425 09:52:44.217466 24800 layer_factory.hpp:77] Creating layer fire5/squeeze1x1
I0425 09:52:44.217494 24800 net.cpp:84] Creating Layer fire5/squeeze1x1
I0425 09:52:44.217501 24800 net.cpp:406] fire5/squeeze1x1 <- fire4/concat
I0425 09:52:44.217516 24800 net.cpp:380] fire5/squeeze1x1 -> fire5/squeeze1x1
I0425 09:52:44.220829 24800 net.cpp:122] Setting up fire5/squeeze1x1
I0425 09:52:44.220952 24800 net.cpp:129] Top shape: 40 32 37 37 (1752320)
I0425 09:52:44.220960 24800 net.cpp:137] Memory required for data: 1570296960
I0425 09:52:44.220993 24800 layer_factory.hpp:77] Creating layer fire5/relu_squeeze1x1
I0425 09:52:44.221024 24800 net.cpp:84] Creating Layer fire5/relu_squeeze1x1
I0425 09:52:44.221037 24800 net.cpp:406] fire5/relu_squeeze1x1 <- fire5/squeeze1x1
I0425 09:52:44.221060 24800 net.cpp:367] fire5/relu_squeeze1x1 -> fire5/squeeze1x1 (in-place)
I0425 09:52:44.221374 24800 net.cpp:122] Setting up fire5/relu_squeeze1x1
I0425 09:52:44.221392 24800 net.cpp:129] Top shape: 40 32 37 37 (1752320)
I0425 09:52:44.221398 24800 net.cpp:137] Memory required for data: 1577306240
I0425 09:52:44.221405 24800 layer_factory.hpp:77] Creating layer fire5/squeeze1x1_fire5/relu_squeeze1x1_0_split
I0425 09:52:44.221448 24800 net.cpp:84] Creating Layer fire5/squeeze1x1_fire5/relu_squeeze1x1_0_split
I0425 09:52:44.221457 24800 net.cpp:406] fire5/squeeze1x1_fire5/relu_squeeze1x1_0_split <- fire5/squeeze1x1
I0425 09:52:44.221539 24800 net.cpp:380] fire5/squeeze1x1_fire5/relu_squeeze1x1_0_split -> fire5/squeeze1x1_fire5/relu_squeeze1x1_0_split_0
I0425 09:52:44.221560 24800 net.cpp:380] fire5/squeeze1x1_fire5/relu_squeeze1x1_0_split -> fire5/squeeze1x1_fire5/relu_squeeze1x1_0_split_1
I0425 09:52:44.221694 24800 net.cpp:122] Setting up fire5/squeeze1x1_fire5/relu_squeeze1x1_0_split
I0425 09:52:44.221711 24800 net.cpp:129] Top shape: 40 32 37 37 (1752320)
I0425 09:52:44.221719 24800 net.cpp:129] Top shape: 40 32 37 37 (1752320)
I0425 09:52:44.221725 24800 net.cpp:137] Memory required for data: 1591324800
I0425 09:52:44.221731 24800 layer_factory.hpp:77] Creating layer fire5/expand1x1
I0425 09:52:44.221771 24800 net.cpp:84] Creating Layer fire5/expand1x1
I0425 09:52:44.221778 24800 net.cpp:406] fire5/expand1x1 <- fire5/squeeze1x1_fire5/relu_squeeze1x1_0_split_0
I0425 09:52:44.221788 24800 net.cpp:380] fire5/expand1x1 -> fire5/expand1x1
I0425 09:52:44.224867 24800 net.cpp:122] Setting up fire5/expand1x1
I0425 09:52:44.224934 24800 net.cpp:129] Top shape: 40 128 37 37 (7009280)
I0425 09:52:44.224943 24800 net.cpp:137] Memory required for data: 1619361920
I0425 09:52:44.224977 24800 layer_factory.hpp:77] Creating layer fire5/relu_expand1x1
I0425 09:52:44.225008 24800 net.cpp:84] Creating Layer fire5/relu_expand1x1
I0425 09:52:44.225020 24800 net.cpp:406] fire5/relu_expand1x1 <- fire5/expand1x1
I0425 09:52:44.225037 24800 net.cpp:367] fire5/relu_expand1x1 -> fire5/expand1x1 (in-place)
I0425 09:52:44.226328 24800 net.cpp:122] Setting up fire5/relu_expand1x1
I0425 09:52:44.226353 24800 net.cpp:129] Top shape: 40 128 37 37 (7009280)
I0425 09:52:44.226361 24800 net.cpp:137] Memory required for data: 1647399040
I0425 09:52:44.226366 24800 layer_factory.hpp:77] Creating layer fire5/expand3x3
I0425 09:52:44.226393 24800 net.cpp:84] Creating Layer fire5/expand3x3
I0425 09:52:44.226403 24800 net.cpp:406] fire5/expand3x3 <- fire5/squeeze1x1_fire5/relu_squeeze1x1_0_split_1
I0425 09:52:44.226423 24800 net.cpp:380] fire5/expand3x3 -> fire5/expand3x3
I0425 09:52:44.231719 24800 net.cpp:122] Setting up fire5/expand3x3
I0425 09:52:44.231842 24800 net.cpp:129] Top shape: 40 128 37 37 (7009280)
I0425 09:52:44.231851 24800 net.cpp:137] Memory required for data: 1675436160
I0425 09:52:44.231896 24800 layer_factory.hpp:77] Creating layer fire5/relu_expand3x3
I0425 09:52:44.231942 24800 net.cpp:84] Creating Layer fire5/relu_expand3x3
I0425 09:52:44.231954 24800 net.cpp:406] fire5/relu_expand3x3 <- fire5/expand3x3
I0425 09:52:44.231972 24800 net.cpp:367] fire5/relu_expand3x3 -> fire5/expand3x3 (in-place)
I0425 09:52:44.233463 24800 net.cpp:122] Setting up fire5/relu_expand3x3
I0425 09:52:44.233515 24800 net.cpp:129] Top shape: 40 128 37 37 (7009280)
I0425 09:52:44.233522 24800 net.cpp:137] Memory required for data: 1703473280
I0425 09:52:44.233528 24800 layer_factory.hpp:77] Creating layer fire5/concat
I0425 09:52:44.233547 24800 net.cpp:84] Creating Layer fire5/concat
I0425 09:52:44.233556 24800 net.cpp:406] fire5/concat <- fire5/expand1x1
I0425 09:52:44.233572 24800 net.cpp:406] fire5/concat <- fire5/expand3x3
I0425 09:52:44.233587 24800 net.cpp:380] fire5/concat -> fire5/concat
I0425 09:52:44.233749 24800 net.cpp:122] Setting up fire5/concat
I0425 09:52:44.233760 24800 net.cpp:129] Top shape: 40 256 37 37 (14018560)
I0425 09:52:44.233764 24800 net.cpp:137] Memory required for data: 1759547520
I0425 09:52:44.233772 24800 layer_factory.hpp:77] Creating layer pool5
I0425 09:52:44.233817 24800 net.cpp:84] Creating Layer pool5
I0425 09:52:44.233825 24800 net.cpp:406] pool5 <- fire5/concat
I0425 09:52:44.233837 24800 net.cpp:380] pool5 -> pool5
I0425 09:52:44.233959 24800 net.cpp:122] Setting up pool5
I0425 09:52:44.233978 24800 net.cpp:129] Top shape: 40 256 18 18 (3317760)
I0425 09:52:44.233984 24800 net.cpp:137] Memory required for data: 1772818560
I0425 09:52:44.233991 24800 layer_factory.hpp:77] Creating layer fire6/squeeze1x1
I0425 09:52:44.234021 24800 net.cpp:84] Creating Layer fire6/squeeze1x1
I0425 09:52:44.234033 24800 net.cpp:406] fire6/squeeze1x1 <- pool5
I0425 09:52:44.234187 24800 net.cpp:380] fire6/squeeze1x1 -> fire6/squeeze1x1
I0425 09:52:44.240653 24800 net.cpp:122] Setting up fire6/squeeze1x1
I0425 09:52:44.240816 24800 net.cpp:129] Top shape: 40 48 18 18 (622080)
I0425 09:52:44.240890 24800 net.cpp:137] Memory required for data: 1775306880
I0425 09:52:44.240926 24800 layer_factory.hpp:77] Creating layer fire6/relu_squeeze1x1
I0425 09:52:44.240975 24800 net.cpp:84] Creating Layer fire6/relu_squeeze1x1
I0425 09:52:44.240993 24800 net.cpp:406] fire6/relu_squeeze1x1 <- fire6/squeeze1x1
I0425 09:52:44.241020 24800 net.cpp:367] fire6/relu_squeeze1x1 -> fire6/squeeze1x1 (in-place)
I0425 09:52:44.242475 24800 net.cpp:122] Setting up fire6/relu_squeeze1x1
I0425 09:52:44.242527 24800 net.cpp:129] Top shape: 40 48 18 18 (622080)
I0425 09:52:44.242533 24800 net.cpp:137] Memory required for data: 1777795200
I0425 09:52:44.242542 24800 layer_factory.hpp:77] Creating layer fire6/squeeze1x1_fire6/relu_squeeze1x1_0_split
I0425 09:52:44.242563 24800 net.cpp:84] Creating Layer fire6/squeeze1x1_fire6/relu_squeeze1x1_0_split
I0425 09:52:44.242573 24800 net.cpp:406] fire6/squeeze1x1_fire6/relu_squeeze1x1_0_split <- fire6/squeeze1x1
I0425 09:52:44.242590 24800 net.cpp:380] fire6/squeeze1x1_fire6/relu_squeeze1x1_0_split -> fire6/squeeze1x1_fire6/relu_squeeze1x1_0_split_0
I0425 09:52:44.242616 24800 net.cpp:380] fire6/squeeze1x1_fire6/relu_squeeze1x1_0_split -> fire6/squeeze1x1_fire6/relu_squeeze1x1_0_split_1
I0425 09:52:44.242796 24800 net.cpp:122] Setting up fire6/squeeze1x1_fire6/relu_squeeze1x1_0_split
I0425 09:52:44.242816 24800 net.cpp:129] Top shape: 40 48 18 18 (622080)
I0425 09:52:44.242826 24800 net.cpp:129] Top shape: 40 48 18 18 (622080)
I0425 09:52:44.242833 24800 net.cpp:137] Memory required for data: 1782771840
I0425 09:52:44.242841 24800 layer_factory.hpp:77] Creating layer fire6/expand1x1
I0425 09:52:44.242871 24800 net.cpp:84] Creating Layer fire6/expand1x1
I0425 09:52:44.242878 24800 net.cpp:406] fire6/expand1x1 <- fire6/squeeze1x1_fire6/relu_squeeze1x1_0_split_0
I0425 09:52:44.242897 24800 net.cpp:380] fire6/expand1x1 -> fire6/expand1x1
I0425 09:52:44.249872 24800 net.cpp:122] Setting up fire6/expand1x1
I0425 09:52:44.250031 24800 net.cpp:129] Top shape: 40 192 18 18 (2488320)
I0425 09:52:44.250051 24800 net.cpp:137] Memory required for data: 1792725120
I0425 09:52:44.250105 24800 layer_factory.hpp:77] Creating layer fire6/relu_expand1x1
I0425 09:52:44.250165 24800 net.cpp:84] Creating Layer fire6/relu_expand1x1
I0425 09:52:44.250191 24800 net.cpp:406] fire6/relu_expand1x1 <- fire6/expand1x1
I0425 09:52:44.250224 24800 net.cpp:367] fire6/relu_expand1x1 -> fire6/expand1x1 (in-place)
I0425 09:52:44.251453 24800 net.cpp:122] Setting up fire6/relu_expand1x1
I0425 09:52:44.251480 24800 net.cpp:129] Top shape: 40 192 18 18 (2488320)
I0425 09:52:44.251485 24800 net.cpp:137] Memory required for data: 1802678400
I0425 09:52:44.251492 24800 layer_factory.hpp:77] Creating layer fire6/expand3x3
I0425 09:52:44.251520 24800 net.cpp:84] Creating Layer fire6/expand3x3
I0425 09:52:44.251526 24800 net.cpp:406] fire6/expand3x3 <- fire6/squeeze1x1_fire6/relu_squeeze1x1_0_split_1
I0425 09:52:44.251538 24800 net.cpp:380] fire6/expand3x3 -> fire6/expand3x3
I0425 09:52:44.258867 24800 net.cpp:122] Setting up fire6/expand3x3
I0425 09:52:44.258910 24800 net.cpp:129] Top shape: 40 192 18 18 (2488320)
I0425 09:52:44.258919 24800 net.cpp:137] Memory required for data: 1812631680
I0425 09:52:44.258939 24800 layer_factory.hpp:77] Creating layer fire6/relu_expand3x3
I0425 09:52:44.258956 24800 net.cpp:84] Creating Layer fire6/relu_expand3x3
I0425 09:52:44.258967 24800 net.cpp:406] fire6/relu_expand3x3 <- fire6/expand3x3
I0425 09:52:44.258983 24800 net.cpp:367] fire6/relu_expand3x3 -> fire6/expand3x3 (in-place)
I0425 09:52:44.260402 24800 net.cpp:122] Setting up fire6/relu_expand3x3
I0425 09:52:44.260422 24800 net.cpp:129] Top shape: 40 192 18 18 (2488320)
I0425 09:52:44.260432 24800 net.cpp:137] Memory required for data: 1822584960
I0425 09:52:44.260440 24800 layer_factory.hpp:77] Creating layer fire6/concat
I0425 09:52:44.260484 24800 net.cpp:84] Creating Layer fire6/concat
I0425 09:52:44.260493 24800 net.cpp:406] fire6/concat <- fire6/expand1x1
I0425 09:52:44.260501 24800 net.cpp:406] fire6/concat <- fire6/expand3x3
I0425 09:52:44.260527 24800 net.cpp:380] fire6/concat -> fire6/concat
I0425 09:52:44.260581 24800 net.cpp:122] Setting up fire6/concat
I0425 09:52:44.260596 24800 net.cpp:129] Top shape: 40 384 18 18 (4976640)
I0425 09:52:44.260604 24800 net.cpp:137] Memory required for data: 1842491520
I0425 09:52:44.260610 24800 layer_factory.hpp:77] Creating layer fire7/squeeze1x1
I0425 09:52:44.260625 24800 net.cpp:84] Creating Layer fire7/squeeze1x1
I0425 09:52:44.260633 24800 net.cpp:406] fire7/squeeze1x1 <- fire6/concat
I0425 09:52:44.260644 24800 net.cpp:380] fire7/squeeze1x1 -> fire7/squeeze1x1
I0425 09:52:44.267074 24800 net.cpp:122] Setting up fire7/squeeze1x1
I0425 09:52:44.267107 24800 net.cpp:129] Top shape: 40 48 18 18 (622080)
I0425 09:52:44.267112 24800 net.cpp:137] Memory required for data: 1844979840
I0425 09:52:44.267134 24800 layer_factory.hpp:77] Creating layer fire7/relu_squeeze1x1
I0425 09:52:44.267146 24800 net.cpp:84] Creating Layer fire7/relu_squeeze1x1
I0425 09:52:44.267153 24800 net.cpp:406] fire7/relu_squeeze1x1 <- fire7/squeeze1x1
I0425 09:52:44.267160 24800 net.cpp:367] fire7/relu_squeeze1x1 -> fire7/squeeze1x1 (in-place)
I0425 09:52:44.269346 24800 net.cpp:122] Setting up fire7/relu_squeeze1x1
I0425 09:52:44.269454 24800 net.cpp:129] Top shape: 40 48 18 18 (622080)
I0425 09:52:44.269462 24800 net.cpp:137] Memory required for data: 1847468160
I0425 09:52:44.269477 24800 layer_factory.hpp:77] Creating layer fire7/squeeze1x1_fire7/relu_squeeze1x1_0_split
I0425 09:52:44.269512 24800 net.cpp:84] Creating Layer fire7/squeeze1x1_fire7/relu_squeeze1x1_0_split
I0425 09:52:44.269526 24800 net.cpp:406] fire7/squeeze1x1_fire7/relu_squeeze1x1_0_split <- fire7/squeeze1x1
I0425 09:52:44.269556 24800 net.cpp:380] fire7/squeeze1x1_fire7/relu_squeeze1x1_0_split -> fire7/squeeze1x1_fire7/relu_squeeze1x1_0_split_0
I0425 09:52:44.269584 24800 net.cpp:380] fire7/squeeze1x1_fire7/relu_squeeze1x1_0_split -> fire7/squeeze1x1_fire7/relu_squeeze1x1_0_split_1
I0425 09:52:44.269798 24800 net.cpp:122] Setting up fire7/squeeze1x1_fire7/relu_squeeze1x1_0_split
I0425 09:52:44.269811 24800 net.cpp:129] Top shape: 40 48 18 18 (622080)
I0425 09:52:44.269820 24800 net.cpp:129] Top shape: 40 48 18 18 (622080)
I0425 09:52:44.269825 24800 net.cpp:137] Memory required for data: 1852444800
I0425 09:52:44.269831 24800 layer_factory.hpp:77] Creating layer fire7/expand1x1
I0425 09:52:44.269856 24800 net.cpp:84] Creating Layer fire7/expand1x1
I0425 09:52:44.269863 24800 net.cpp:406] fire7/expand1x1 <- fire7/squeeze1x1_fire7/relu_squeeze1x1_0_split_0
I0425 09:52:44.269873 24800 net.cpp:380] fire7/expand1x1 -> fire7/expand1x1
I0425 09:52:44.276218 24800 net.cpp:122] Setting up fire7/expand1x1
I0425 09:52:44.276356 24800 net.cpp:129] Top shape: 40 192 18 18 (2488320)
I0425 09:52:44.276365 24800 net.cpp:137] Memory required for data: 1862398080
I0425 09:52:44.276389 24800 layer_factory.hpp:77] Creating layer fire7/relu_expand1x1
I0425 09:52:44.276413 24800 net.cpp:84] Creating Layer fire7/relu_expand1x1
I0425 09:52:44.276424 24800 net.cpp:406] fire7/relu_expand1x1 <- fire7/expand1x1
I0425 09:52:44.276440 24800 net.cpp:367] fire7/relu_expand1x1 -> fire7/expand1x1 (in-place)
I0425 09:52:44.277983 24800 net.cpp:122] Setting up fire7/relu_expand1x1
I0425 09:52:44.278043 24800 net.cpp:129] Top shape: 40 192 18 18 (2488320)
I0425 09:52:44.278048 24800 net.cpp:137] Memory required for data: 1872351360
I0425 09:52:44.278059 24800 layer_factory.hpp:77] Creating layer fire7/expand3x3
I0425 09:52:44.278093 24800 net.cpp:84] Creating Layer fire7/expand3x3
I0425 09:52:44.278106 24800 net.cpp:406] fire7/expand3x3 <- fire7/squeeze1x1_fire7/relu_squeeze1x1_0_split_1
I0425 09:52:44.278125 24800 net.cpp:380] fire7/expand3x3 -> fire7/expand3x3
I0425 09:52:44.287781 24800 net.cpp:122] Setting up fire7/expand3x3
I0425 09:52:44.287847 24800 net.cpp:129] Top shape: 40 192 18 18 (2488320)
I0425 09:52:44.287900 24800 net.cpp:137] Memory required for data: 1882304640
I0425 09:52:44.287926 24800 layer_factory.hpp:77] Creating layer fire7/relu_expand3x3
I0425 09:52:44.287968 24800 net.cpp:84] Creating Layer fire7/relu_expand3x3
I0425 09:52:44.287978 24800 net.cpp:406] fire7/relu_expand3x3 <- fire7/expand3x3
I0425 09:52:44.287991 24800 net.cpp:367] fire7/relu_expand3x3 -> fire7/expand3x3 (in-place)
I0425 09:52:44.289364 24800 net.cpp:122] Setting up fire7/relu_expand3x3
I0425 09:52:44.289425 24800 net.cpp:129] Top shape: 40 192 18 18 (2488320)
I0425 09:52:44.289433 24800 net.cpp:137] Memory required for data: 1892257920
I0425 09:52:44.289443 24800 layer_factory.hpp:77] Creating layer fire7/concat
I0425 09:52:44.289460 24800 net.cpp:84] Creating Layer fire7/concat
I0425 09:52:44.289469 24800 net.cpp:406] fire7/concat <- fire7/expand1x1
I0425 09:52:44.289485 24800 net.cpp:406] fire7/concat <- fire7/expand3x3
I0425 09:52:44.289499 24800 net.cpp:380] fire7/concat -> fire7/concat
I0425 09:52:44.289651 24800 net.cpp:122] Setting up fire7/concat
I0425 09:52:44.289667 24800 net.cpp:129] Top shape: 40 384 18 18 (4976640)
I0425 09:52:44.289675 24800 net.cpp:137] Memory required for data: 1912164480
I0425 09:52:44.289685 24800 layer_factory.hpp:77] Creating layer fire8/squeeze1x1
I0425 09:52:44.289714 24800 net.cpp:84] Creating Layer fire8/squeeze1x1
I0425 09:52:44.289721 24800 net.cpp:406] fire8/squeeze1x1 <- fire7/concat
I0425 09:52:44.289731 24800 net.cpp:380] fire8/squeeze1x1 -> fire8/squeeze1x1
I0425 09:52:44.293691 24800 net.cpp:122] Setting up fire8/squeeze1x1
I0425 09:52:44.293740 24800 net.cpp:129] Top shape: 40 64 18 18 (829440)
I0425 09:52:44.293747 24800 net.cpp:137] Memory required for data: 1915482240
I0425 09:52:44.293763 24800 layer_factory.hpp:77] Creating layer fire8/relu_squeeze1x1
I0425 09:52:44.293781 24800 net.cpp:84] Creating Layer fire8/relu_squeeze1x1
I0425 09:52:44.293789 24800 net.cpp:406] fire8/relu_squeeze1x1 <- fire8/squeeze1x1
I0425 09:52:44.293804 24800 net.cpp:367] fire8/relu_squeeze1x1 -> fire8/squeeze1x1 (in-place)
I0425 09:52:44.294050 24800 net.cpp:122] Setting up fire8/relu_squeeze1x1
I0425 09:52:44.294065 24800 net.cpp:129] Top shape: 40 64 18 18 (829440)
I0425 09:52:44.294072 24800 net.cpp:137] Memory required for data: 1918800000
I0425 09:52:44.294080 24800 layer_factory.hpp:77] Creating layer fire8/squeeze1x1_fire8/relu_squeeze1x1_0_split
I0425 09:52:44.294090 24800 net.cpp:84] Creating Layer fire8/squeeze1x1_fire8/relu_squeeze1x1_0_split
I0425 09:52:44.294097 24800 net.cpp:406] fire8/squeeze1x1_fire8/relu_squeeze1x1_0_split <- fire8/squeeze1x1
I0425 09:52:44.294111 24800 net.cpp:380] fire8/squeeze1x1_fire8/relu_squeeze1x1_0_split -> fire8/squeeze1x1_fire8/relu_squeeze1x1_0_split_0
I0425 09:52:44.294124 24800 net.cpp:380] fire8/squeeze1x1_fire8/relu_squeeze1x1_0_split -> fire8/squeeze1x1_fire8/relu_squeeze1x1_0_split_1
I0425 09:52:44.294189 24800 net.cpp:122] Setting up fire8/squeeze1x1_fire8/relu_squeeze1x1_0_split
I0425 09:52:44.294201 24800 net.cpp:129] Top shape: 40 64 18 18 (829440)
I0425 09:52:44.294210 24800 net.cpp:129] Top shape: 40 64 18 18 (829440)
I0425 09:52:44.294217 24800 net.cpp:137] Memory required for data: 1925435520
I0425 09:52:44.294224 24800 layer_factory.hpp:77] Creating layer fire8/expand1x1
I0425 09:52:44.294241 24800 net.cpp:84] Creating Layer fire8/expand1x1
I0425 09:52:44.294248 24800 net.cpp:406] fire8/expand1x1 <- fire8/squeeze1x1_fire8/relu_squeeze1x1_0_split_0
I0425 09:52:44.294260 24800 net.cpp:380] fire8/expand1x1 -> fire8/expand1x1
I0425 09:52:44.298143 24800 net.cpp:122] Setting up fire8/expand1x1
I0425 09:52:44.298266 24800 net.cpp:129] Top shape: 40 256 18 18 (3317760)
I0425 09:52:44.298277 24800 net.cpp:137] Memory required for data: 1938706560
I0425 09:52:44.298322 24800 layer_factory.hpp:77] Creating layer fire8/relu_expand1x1
I0425 09:52:44.298365 24800 net.cpp:84] Creating Layer fire8/relu_expand1x1
I0425 09:52:44.298383 24800 net.cpp:406] fire8/relu_expand1x1 <- fire8/expand1x1
I0425 09:52:44.298406 24800 net.cpp:367] fire8/relu_expand1x1 -> fire8/expand1x1 (in-place)
I0425 09:52:44.298825 24800 net.cpp:122] Setting up fire8/relu_expand1x1
I0425 09:52:44.298846 24800 net.cpp:129] Top shape: 40 256 18 18 (3317760)
I0425 09:52:44.298887 24800 net.cpp:137] Memory required for data: 1951977600
I0425 09:52:44.298894 24800 layer_factory.hpp:77] Creating layer fire8/expand3x3
I0425 09:52:44.298934 24800 net.cpp:84] Creating Layer fire8/expand3x3
I0425 09:52:44.298943 24800 net.cpp:406] fire8/expand3x3 <- fire8/squeeze1x1_fire8/relu_squeeze1x1_0_split_1
I0425 09:52:44.298960 24800 net.cpp:380] fire8/expand3x3 -> fire8/expand3x3
I0425 09:52:44.307248 24800 net.cpp:122] Setting up fire8/expand3x3
I0425 09:52:44.307379 24800 net.cpp:129] Top shape: 40 256 18 18 (3317760)
I0425 09:52:44.307392 24800 net.cpp:137] Memory required for data: 1965248640
I0425 09:52:44.307440 24800 layer_factory.hpp:77] Creating layer fire8/relu_expand3x3
I0425 09:52:44.307499 24800 net.cpp:84] Creating Layer fire8/relu_expand3x3
I0425 09:52:44.307518 24800 net.cpp:406] fire8/relu_expand3x3 <- fire8/expand3x3
I0425 09:52:44.307555 24800 net.cpp:367] fire8/relu_expand3x3 -> fire8/expand3x3 (in-place)
I0425 09:52:44.308007 24800 net.cpp:122] Setting up fire8/relu_expand3x3
I0425 09:52:44.308024 24800 net.cpp:129] Top shape: 40 256 18 18 (3317760)
I0425 09:52:44.308033 24800 net.cpp:137] Memory required for data: 1978519680
I0425 09:52:44.308042 24800 layer_factory.hpp:77] Creating layer fire8/concat
I0425 09:52:44.308059 24800 net.cpp:84] Creating Layer fire8/concat
I0425 09:52:44.308068 24800 net.cpp:406] fire8/concat <- fire8/expand1x1
I0425 09:52:44.308080 24800 net.cpp:406] fire8/concat <- fire8/expand3x3
I0425 09:52:44.308099 24800 net.cpp:380] fire8/concat -> fire8/concat
I0425 09:52:44.308177 24800 net.cpp:122] Setting up fire8/concat
I0425 09:52:44.308189 24800 net.cpp:129] Top shape: 40 512 18 18 (6635520)
I0425 09:52:44.308197 24800 net.cpp:137] Memory required for data: 2005061760
I0425 09:52:44.308205 24800 layer_factory.hpp:77] Creating layer fire9/squeeze1x1
I0425 09:52:44.308248 24800 net.cpp:84] Creating Layer fire9/squeeze1x1
I0425 09:52:44.308254 24800 net.cpp:406] fire9/squeeze1x1 <- fire8/concat
I0425 09:52:44.308267 24800 net.cpp:380] fire9/squeeze1x1 -> fire9/squeeze1x1
I0425 09:52:44.311827 24800 net.cpp:122] Setting up fire9/squeeze1x1
I0425 09:52:44.311940 24800 net.cpp:129] Top shape: 40 64 18 18 (829440)
I0425 09:52:44.311949 24800 net.cpp:137] Memory required for data: 2008379520
I0425 09:52:44.311970 24800 layer_factory.hpp:77] Creating layer fire9/relu_squeeze1x1
I0425 09:52:44.312016 24800 net.cpp:84] Creating Layer fire9/relu_squeeze1x1
I0425 09:52:44.312029 24800 net.cpp:406] fire9/relu_squeeze1x1 <- fire9/squeeze1x1
I0425 09:52:44.312041 24800 net.cpp:367] fire9/relu_squeeze1x1 -> fire9/squeeze1x1 (in-place)
I0425 09:52:44.312331 24800 net.cpp:122] Setting up fire9/relu_squeeze1x1
I0425 09:52:44.312348 24800 net.cpp:129] Top shape: 40 64 18 18 (829440)
I0425 09:52:44.312356 24800 net.cpp:137] Memory required for data: 2011697280
I0425 09:52:44.312366 24800 layer_factory.hpp:77] Creating layer fire9/squeeze1x1_fire9/relu_squeeze1x1_0_split
I0425 09:52:44.312383 24800 net.cpp:84] Creating Layer fire9/squeeze1x1_fire9/relu_squeeze1x1_0_split
I0425 09:52:44.312391 24800 net.cpp:406] fire9/squeeze1x1_fire9/relu_squeeze1x1_0_split <- fire9/squeeze1x1
I0425 09:52:44.312399 24800 net.cpp:380] fire9/squeeze1x1_fire9/relu_squeeze1x1_0_split -> fire9/squeeze1x1_fire9/relu_squeeze1x1_0_split_0
I0425 09:52:44.312412 24800 net.cpp:380] fire9/squeeze1x1_fire9/relu_squeeze1x1_0_split -> fire9/squeeze1x1_fire9/relu_squeeze1x1_0_split_1
I0425 09:52:44.312471 24800 net.cpp:122] Setting up fire9/squeeze1x1_fire9/relu_squeeze1x1_0_split
I0425 09:52:44.312482 24800 net.cpp:129] Top shape: 40 64 18 18 (829440)
I0425 09:52:44.312490 24800 net.cpp:129] Top shape: 40 64 18 18 (829440)
I0425 09:52:44.312496 24800 net.cpp:137] Memory required for data: 2018332800
I0425 09:52:44.312502 24800 layer_factory.hpp:77] Creating layer fire9/expand1x1
I0425 09:52:44.312623 24800 net.cpp:84] Creating Layer fire9/expand1x1
I0425 09:52:44.312630 24800 net.cpp:406] fire9/expand1x1 <- fire9/squeeze1x1_fire9/relu_squeeze1x1_0_split_0
I0425 09:52:44.312641 24800 net.cpp:380] fire9/expand1x1 -> fire9/expand1x1
I0425 09:52:44.315879 24800 net.cpp:122] Setting up fire9/expand1x1
I0425 09:52:44.315945 24800 net.cpp:129] Top shape: 40 256 18 18 (3317760)
I0425 09:52:44.315953 24800 net.cpp:137] Memory required for data: 2031603840
I0425 09:52:44.315974 24800 layer_factory.hpp:77] Creating layer fire9/relu_expand1x1
I0425 09:52:44.315994 24800 net.cpp:84] Creating Layer fire9/relu_expand1x1
I0425 09:52:44.316005 24800 net.cpp:406] fire9/relu_expand1x1 <- fire9/expand1x1
I0425 09:52:44.316018 24800 net.cpp:367] fire9/relu_expand1x1 -> fire9/expand1x1 (in-place)
I0425 09:52:44.317306 24800 net.cpp:122] Setting up fire9/relu_expand1x1
I0425 09:52:44.317328 24800 net.cpp:129] Top shape: 40 256 18 18 (3317760)
I0425 09:52:44.317338 24800 net.cpp:137] Memory required for data: 2044874880
I0425 09:52:44.317348 24800 layer_factory.hpp:77] Creating layer fire9/expand3x3
I0425 09:52:44.317366 24800 net.cpp:84] Creating Layer fire9/expand3x3
I0425 09:52:44.317373 24800 net.cpp:406] fire9/expand3x3 <- fire9/squeeze1x1_fire9/relu_squeeze1x1_0_split_1
I0425 09:52:44.317387 24800 net.cpp:380] fire9/expand3x3 -> fire9/expand3x3
I0425 09:52:44.328171 24800 net.cpp:122] Setting up fire9/expand3x3
I0425 09:52:44.328217 24800 net.cpp:129] Top shape: 40 256 18 18 (3317760)
I0425 09:52:44.328225 24800 net.cpp:137] Memory required for data: 2058145920
I0425 09:52:44.328241 24800 layer_factory.hpp:77] Creating layer fire9/relu_expand3x3
I0425 09:52:44.328258 24800 net.cpp:84] Creating Layer fire9/relu_expand3x3
I0425 09:52:44.328265 24800 net.cpp:406] fire9/relu_expand3x3 <- fire9/expand3x3
I0425 09:52:44.328279 24800 net.cpp:367] fire9/relu_expand3x3 -> fire9/expand3x3 (in-place)
I0425 09:52:44.328527 24800 net.cpp:122] Setting up fire9/relu_expand3x3
I0425 09:52:44.328541 24800 net.cpp:129] Top shape: 40 256 18 18 (3317760)
I0425 09:52:44.328547 24800 net.cpp:137] Memory required for data: 2071416960
I0425 09:52:44.328552 24800 layer_factory.hpp:77] Creating layer fire9/concat
I0425 09:52:44.328578 24800 net.cpp:84] Creating Layer fire9/concat
I0425 09:52:44.328590 24800 net.cpp:406] fire9/concat <- fire9/expand1x1
I0425 09:52:44.328598 24800 net.cpp:406] fire9/concat <- fire9/expand3x3
I0425 09:52:44.328611 24800 net.cpp:380] fire9/concat -> fire9/concat
I0425 09:52:44.328665 24800 net.cpp:122] Setting up fire9/concat
I0425 09:52:44.328677 24800 net.cpp:129] Top shape: 40 512 18 18 (6635520)
I0425 09:52:44.328685 24800 net.cpp:137] Memory required for data: 2097959040
I0425 09:52:44.328689 24800 layer_factory.hpp:77] Creating layer drop9
I0425 09:52:44.328712 24800 net.cpp:84] Creating Layer drop9
I0425 09:52:44.328723 24800 net.cpp:406] drop9 <- fire9/concat
I0425 09:52:44.328742 24800 net.cpp:367] drop9 -> fire9/concat (in-place)
I0425 09:52:44.328780 24800 net.cpp:122] Setting up drop9
I0425 09:52:44.328791 24800 net.cpp:129] Top shape: 40 512 18 18 (6635520)
I0425 09:52:44.328799 24800 net.cpp:137] Memory required for data: 2124501120
I0425 09:52:44.328819 24800 layer_factory.hpp:77] Creating layer conv10_new
I0425 09:52:44.328848 24800 net.cpp:84] Creating Layer conv10_new
I0425 09:52:44.328855 24800 net.cpp:406] conv10_new <- fire9/concat
I0425 09:52:44.328872 24800 net.cpp:380] conv10_new -> conv10_new
I0425 09:52:44.340461 24800 net.cpp:122] Setting up conv10_new
I0425 09:52:44.340576 24800 net.cpp:129] Top shape: 40 196 18 18 (2540160)
I0425 09:52:44.340585 24800 net.cpp:137] Memory required for data: 2134661760
I0425 09:52:44.340613 24800 layer_factory.hpp:77] Creating layer relu_conv10
I0425 09:52:44.340641 24800 net.cpp:84] Creating Layer relu_conv10
I0425 09:52:44.340662 24800 net.cpp:406] relu_conv10 <- conv10_new
I0425 09:52:44.340697 24800 net.cpp:367] relu_conv10 -> conv10_new (in-place)
I0425 09:52:44.340943 24800 net.cpp:122] Setting up relu_conv10
I0425 09:52:44.340961 24800 net.cpp:129] Top shape: 40 196 18 18 (2540160)
I0425 09:52:44.341033 24800 net.cpp:137] Memory required for data: 2144822400
I0425 09:52:44.341042 24800 layer_factory.hpp:77] Creating layer pool10
I0425 09:52:44.341085 24800 net.cpp:84] Creating Layer pool10
I0425 09:52:44.341094 24800 net.cpp:406] pool10 <- conv10_new
I0425 09:52:44.341111 24800 net.cpp:380] pool10 -> pool10
I0425 09:52:44.341387 24800 net.cpp:122] Setting up pool10
I0425 09:52:44.341401 24800 net.cpp:129] Top shape: 40 196 1 1 (7840)
I0425 09:52:44.341408 24800 net.cpp:137] Memory required for data: 2144853760
I0425 09:52:44.341416 24800 layer_factory.hpp:77] Creating layer pool10_pool10_0_split
I0425 09:52:44.341433 24800 net.cpp:84] Creating Layer pool10_pool10_0_split
I0425 09:52:44.341440 24800 net.cpp:406] pool10_pool10_0_split <- pool10
I0425 09:52:44.341461 24800 net.cpp:380] pool10_pool10_0_split -> pool10_pool10_0_split_0
I0425 09:52:44.341477 24800 net.cpp:380] pool10_pool10_0_split -> pool10_pool10_0_split_1
I0425 09:52:44.341490 24800 net.cpp:380] pool10_pool10_0_split -> pool10_pool10_0_split_2
I0425 09:52:44.341562 24800 net.cpp:122] Setting up pool10_pool10_0_split
I0425 09:52:44.341572 24800 net.cpp:129] Top shape: 40 196 1 1 (7840)
I0425 09:52:44.341586 24800 net.cpp:129] Top shape: 40 196 1 1 (7840)
I0425 09:52:44.341599 24800 net.cpp:129] Top shape: 40 196 1 1 (7840)
I0425 09:52:44.341608 24800 net.cpp:137] Memory required for data: 2144947840
I0425 09:52:44.341627 24800 layer_factory.hpp:77] Creating layer loss
I0425 09:52:44.341653 24800 net.cpp:84] Creating Layer loss
I0425 09:52:44.341665 24800 net.cpp:406] loss <- pool10_pool10_0_split_0
I0425 09:52:44.341675 24800 net.cpp:406] loss <- label_data_1_split_0
I0425 09:52:44.341702 24800 net.cpp:380] loss -> loss
…
