…
I0424 21:18:55.727447 22667 net.cpp:294] The NetState phase (0) differed from the phase (1) specified by a rule in layer accuracy
I0424 21:18:55.727459 22667 net.cpp:294] The NetState phase (0) differed from the phase (1) specified by a rule in layer accuracy_top5
I0424 21:18:55.727802 22667 net.cpp:51] Initializing net from parameters: 
state {
  phase: TRAIN
  level: 0
  stage: ""
}
layer {
  name: "data"
  type: "ImageData"
  top: "data"
  top: "label"
  include {
    phase: TRAIN
  }
  transform_param {
    mean_value: 104
    mean_value: 117
    mean_value: 123
  }
  image_data_param {
    source: "./train.txt"
    batch_size: 40
    mirror: true
    shuffle: true
  }
}
layer {
  name: "conv1"
  type: "Convolution"
  bottom: "data"
  top: "conv1"
  convolution_param {
    num_output: 64
    kernel_size: 3
    stride: 2
    weight_filler {
      type: "xavier"
    }
  }
}
layer {
  name: "relu_conv1"
  type: "ReLU"
  bottom: "conv1"
  top: "conv1"
}
layer {
  name: "pool1"
  type: "Pooling"
  bottom: "conv1"
  top: "pool1"
  pooling_param {
    pool: MAX
    kernel_size: 3
    stride: 2
  }
}
layer {
  name: "fire2/squeeze1x1"
  type: "Convolution"
  bottom: "pool1"
  top: "fire2/squeeze1x1"
  convolution_param {
    num_output: 16
    kernel_size: 1
    weight_filler {
      type: "xavier"
    }
  }
}
layer {
  name: "fire2/relu_squeeze1x1"
  type: "ReLU"
  bottom: "fire2/squeeze1x1"
  top: "fire2/squeeze1x1"
}
layer {
  name: "fire2/expand1x1"
  type: "Convolution"
  bottom: "fire2/squeeze1x1"
  top: "fire2/expand1x1"
  convolution_param {
    num_output: 64
    kernel_size: 1
    weight_filler {
      type: "xavier"
    }
  }
}
layer {
  name: "fire2/relu_expand1x1"
  type: "ReLU"
  bottom: "fire2/expand1x1"
  top: "fire2/expand1x1"
}
layer {
  name: "fire2/expand3x3"
  type: "Convolution"
  bottom: "fire2/squeeze1x1"
  top: "fire2/expand3x3"
  convolution_param {
    num_output: 64
    pad: 1
    kernel_size: 3
    weight_filler {
      type: "xavier"
    }
  }
}
layer {
  name: "fire2/relu_expand3x3"
  type: "ReLU"
  bottom: "fire2/expand3x3"
  top: "fire2/expand3x3"
}
layer {
  name: "fire2/concat"
  type: "Concat"
  bottom: "fire2/expand1x1"
  bottom: "fire2/expand3x3"
  top: "fire2/concat"
}
layer {
  name: "fire3/squeeze1x1"
  type: "Convolution"
  bottom: "fire2/concat"
  top: "fire3/squeeze1x1"
  convolution_param {
    num_output: 16
    kernel_size: 1
    weight_filler {
      type: "xavier"
    }
  }
}
layer {
  name: "fire3/relu_squeeze1x1"
  type: "ReLU"
  bottom: "fire3/squeeze1x1"
  top: "fire3/squeeze1x1"
}
layer {
  name: "fire3/expand1x1"
  type: "Convolution"
  bottom: "fire3/squeeze1x1"
  top: "fire3/expand1x1"
  convolution_param {
    num_output: 64
    kernel_size: 1
    weight_filler {
      type: "xavier"
    }
  }
}
layer {
  name: "fire3/relu_expand1x1"
  type: "ReLU"
  bottom: "fire3/expand1x1"
  top: "fire3/expand1x1"
}
layer {
  name: "fire3/expand3x3"
  type: "Convolution"
  bottom: "fire3/squeeze1x1"
  top: "fire3/expand3x3"
  convolution_param {
    num_output: 64
    pad: 1
    kernel_size: 3
    weight_filler {
      type: "xavier"
    }
  }
}
layer {
  name: "fire3/relu_expand3x3"
  type: "ReLU"
  bottom: "fire3/expand3x3"
  top: "fire3/expand3x3"
}
layer {
  name: "fire3/concat"
  type: "Concat"
  bottom: "fire3/expand1x1"
  bottom: "fire3/expand3x3"
  top: "fire3/concat"
}
layer {
  name: "pool3"
  type: "Pooling"
  bottom: "fire3/concat"
  top: "pool3"
  pooling_param {
    pool: MAX
    kernel_size: 3
    stride: 2
  }
}
layer {
  name: "fire4/squeeze1x1"
  type: "Convolution"
  bottom: "pool3"
  top: "fire4/squeeze1x1"
  convolution_param {
    num_output: 32
    kernel_size: 1
    weight_filler {
      type: "xavier"
    }
  }
}
layer {
  name: "fire4/relu_squeeze1x1"
  type: "ReLU"
  bottom: "fire4/squeeze1x1"
  top: "fire4/squeeze1x1"
}
layer {
  name: "fire4/expand1x1"
  type: "Convolution"
  bottom: "fire4/squeeze1x1"
  top: "fire4/expand1x1"
  convolution_param {
    num_output: 128
    kernel_size: 1
    weight_filler {
      type: "xavier"
    }
  }
}
layer {
  name: "fire4/relu_expand1x1"
  type: "ReLU"
  bottom: "fire4/expand1x1"
  top: "fire4/expand1x1"
}
layer {
  name: "fire4/expand3x3"
  type: "Convolution"
  bottom: "fire4/squeeze1x1"
  top: "fire4/expand3x3"
  convolution_param {
    num_output: 128
    pad: 1
    kernel_size: 3
    weight_filler {
      type: "xavier"
    }
  }
}
layer {
  name: "fire4/relu_expand3x3"
  type: "ReLU"
  bottom: "fire4/expand3x3"
  top: "fire4/expand3x3"
}
layer {
  name: "fire4/concat"
  type: "Concat"
  bottom: "fire4/expand1x1"
  bottom: "fire4/expand3x3"
  top: "fire4/concat"
}
layer {
  name: "fire5/squeeze1x1"
  type: "Convolution"
  bottom: "fire4/concat"
  top: "fire5/squeeze1x1"
  convolution_param {
    num_output: 32
    kernel_size: 1
    weight_filler {
      type: "xavier"
    }
  }
}
layer {
  name: "fire5/relu_squeeze1x1"
  type: "ReLU"
  bottom: "fire5/squeeze1x1"
  top: "fire5/squeeze1x1"
}
layer {
  name: "fire5/expand1x1"
  type: "Convolution"
  bottom: "fire5/squeeze1x1"
  top: "fire5/expand1x1"
  convolution_param {
    num_output: 128
    kernel_size: 1
    weight_filler {
      type: "xavier"
    }
  }
}
layer {
  name: "fire5/relu_expand1x1"
  type: "ReLU"
  bottom: "fire5/expand1x1"
  top: "fire5/expand1x1"
}
layer {
  name: "fire5/expand3x3"
  type: "Convolution"
  bottom: "fire5/squeeze1x1"
  top: "fire5/expand3x3"
  convolution_param {
    num_output: 128
    pad: 1
    kernel_size: 3
    weight_filler {
      type: "xavier"
    }
  }
}
layer {
  name: "fire5/relu_expand3x3"
  type: "ReLU"
  bottom: "fire5/expand3x3"
  top: "fire5/expand3x3"
}
layer {
  name: "fire5/concat"
  type: "Concat"
  bottom: "fire5/expand1x1"
  bottom: "fire5/expand3x3"
  top: "fire5/concat"
}
layer {
  name: "pool5"
  type: "Pooling"
  bottom: "fire5/concat"
  top: "pool5"
  pooling_param {
    pool: MAX
    kernel_size: 3
    stride: 2
  }
}
layer {
  name: "fire6/squeeze1x1"
  type: "Convolution"
  bottom: "pool5"
  top: "fire6/squeeze1x1"
  convolution_param {
    num_output: 48
    kernel_size: 1
    weight_filler {
      type: "xavier"
    }
  }
}
layer {
  name: "fire6/relu_squeeze1x1"
  type: "ReLU"
  bottom: "fire6/squeeze1x1"
  top: "fire6/squeeze1x1"
}
layer {
  name: "fire6/expand1x1"
  type: "Convolution"
  bottom: "fire6/squeeze1x1"
  top: "fire6/expand1x1"
  convolution_param {
    num_output: 192
    kernel_size: 1
    weight_filler {
      type: "xavier"
    }
  }
}
layer {
  name: "fire6/relu_expand1x1"
  type: "ReLU"
  bottom: "fire6/expand1x1"
  top: "fire6/expand1x1"
}
layer {
  name: "fire6/expand3x3"
  type: "Convolution"
  bottom: "fire6/squeeze1x1"
  top: "fire6/expand3x3"
  convolution_param {
    num_output: 192
    pad: 1
    kernel_size: 3
    weight_filler {
      type: "xavier"
    }
  }
}
layer {
  name: "fire6/relu_expand3x3"
  type: "ReLU"
  bottom: "fire6/expand3x3"
  top: "fire6/expand3x3"
}
layer {
  name: "fire6/concat"
  type: "Concat"
  bottom: "fire6/expand1x1"
  bottom: "fire6/expand3x3"
  top: "fire6/concat"
}
layer {
  name: "fire7/squeeze1x1"
  type: "Convolution"
  bottom: "fire6/concat"
  top: "fire7/squeeze1x1"
  convolution_param {
    num_output: 48
    kernel_size: 1
    weight_filler {
      type: "xavier"
    }
  }
}
layer {
  name: "fire7/relu_squeeze1x1"
  type: "ReLU"
  bottom: "fire7/squeeze1x1"
  top: "fire7/squeeze1x1"
}
layer {
  name: "fire7/expand1x1"
  type: "Convolution"
  bottom: "fire7/squeeze1x1"
  top: "fire7/expand1x1"
  convolution_param {
    num_output: 192
    kernel_size: 1
    weight_filler {
      type: "xavier"
    }
  }
}
layer {
  name: "fire7/relu_expand1x1"
  type: "ReLU"
  bottom: "fire7/expand1x1"
  top: "fire7/expand1x1"
}
layer {
  name: "fire7/expand3x3"
  type: "Convolution"
  bottom: "fire7/squeeze1x1"
  top: "fire7/expand3x3"
  convolution_param {
    num_output: 192
    pad: 1
    kernel_size: 3
    weight_filler {
      type: "xavier"
    }
  }
}
layer {
  name: "fire7/relu_expand3x3"
  type: "ReLU"
  bottom: "fire7/expand3x3"
  top: "fire7/expand3x3"
}
layer {
  name: "fire7/concat"
  type: "Concat"
  bottom: "fire7/expand1x1"
  bottom: "fire7/expand3x3"
  top: "fire7/concat"
}
layer {
  name: "fire8/squeeze1x1"
  type: "Convolution"
  bottom: "fire7/concat"
  top: "fire8/squeeze1x1"
  convolution_param {
    num_output: 64
    kernel_size: 1
    weight_filler {
      type: "xavier"
    }
  }
}
layer {
  name: "fire8/relu_squeeze1x1"
  type: "ReLU"
  bottom: "fire8/squeeze1x1"
  top: "fire8/squeeze1x1"
}
layer {
  name: "fire8/expand1x1"
  type: "Convolution"
  bottom: "fire8/squeeze1x1"
  top: "fire8/expand1x1"
  convolution_param {
    num_output: 256
    kernel_size: 1
    weight_filler {
      type: "xavier"
    }
  }
}
layer {
  name: "fire8/relu_expand1x1"
  type: "ReLU"
  bottom: "fire8/expand1x1"
  top: "fire8/expand1x1"
}
layer {
  name: "fire8/expand3x3"
  type: "Convolution"
  bottom: "fire8/squeeze1x1"
  top: "fire8/expand3x3"
  convolution_param {
    num_output: 256
    pad: 1
    kernel_size: 3
    weight_filler {
      type: "xavier"
    }
  }
}
layer {
  name: "fire8/relu_expand3x3"
  type: "ReLU"
  bottom: "fire8/expand3x3"
  top: "fire8/expand3x3"
}
layer {
  name: "fire8/concat"
  type: "Concat"
  bottom: "fire8/expand1x1"
  bottom: "fire8/expand3x3"
  top: "fire8/concat"
}
layer {
  name: "fire9/squeeze1x1"
  type: "Convolution"
  bottom: "fire8/concat"
  top: "fire9/squeeze1x1"
  convolution_param {
    num_output: 64
    kernel_size: 1
    weight_filler {
      type: "xavier"
    }
  }
}
layer {
  name: "fire9/relu_squeeze1x1"
  type: "ReLU"
  bottom: "fire9/squeeze1x1"
  top: "fire9/squeeze1x1"
}
layer {
  name: "fire9/expand1x1"
  type: "Convolution"
  bottom: "fire9/squeeze1x1"
  top: "fire9/expand1x1"
  convolution_param {
    num_output: 256
    kernel_size: 1
    weight_filler {
      type: "xavier"
    }
  }
}
layer {
  name: "fire9/relu_expand1x1"
  type: "ReLU"
  bottom: "fire9/expand1x1"
  top: "fire9/expand1x1"
}
layer {
  name: "fire9/expand3x3"
  type: "Convolution"
  bottom: "fire9/squeeze1x1"
  top: "fire9/expand3x3"
  convolution_param {
    num_output: 256
    pad: 1
    kernel_size: 3
    weight_filler {
      type: "xavier"
    }
  }
}
layer {
  name: "fire9/relu_expand3x3"
  type: "ReLU"
  bottom: "fire9/expand3x3"
  top: "fire9/expand3x3"
}
layer {
  name: "fire9/concat"
  type: "Concat"
  bottom: "fire9/expand1x1"
  bottom: "fire9/expand3x3"
  top: "fire9/concat"
}
layer {
  name: "drop9"
  type: "Dropout"
  bottom: "fire9/concat"
  top: "fire9/concat"
  dropout_param {
    dropout_ratio: 0.5
  }
}
layer {
  name: "conv10_new"
  type: "Convolution"
  bottom: "fire9/concat"
  top: "conv10_new"
  convolution_param {
    num_output: 196
    kernel_size: 1
    weight_filler {
      type: "gaussian"
      mean: 0
      std: 0.01
    }
  }
}
layer {
  name: "relu_conv10"
  type: "ReLU"
  bottom: "conv10_new"
  top: "conv10_new"
}
layer {
  name: "pool10"
  type: "Pooling"
  bottom: "conv10_new"
  top: "pool10"
  pooling_param {
    pool: AVE
    global_pooling: true
  }
}
layer {
  name: "loss"
  type: "SoftmaxWithLoss"
  bottom: "pool10"
  bottom: "label"
  top: "loss"
}
I0424 21:18:55.728370 22667 layer_factory.hpp:77] Creating layer data
I0424 21:18:55.728484 22667 net.cpp:84] Creating Layer data
I0424 21:18:55.728498 22667 net.cpp:380] data -> data
I0424 21:18:55.728582 22667 net.cpp:380] data -> label
I0424 21:18:55.728612 22667 image_data_layer.cpp:38] Opening file ./train.txt
I0424 21:18:55.733978 22667 image_data_layer.cpp:53] Shuffling data
I0424 21:18:55.735944 22667 image_data_layer.cpp:63] A total of 8144 images.
I0424 21:18:55.738384 22667 image_data_layer.cpp:90] output data size: 40,3,227,227
I0424 21:18:55.835811 22667 net.cpp:122] Setting up data
I0424 21:18:55.835989 22667 net.cpp:129] Top shape: 40 3 227 227 (6183480)
I0424 21:18:55.835997 22667 net.cpp:129] Top shape: 40 (40)
I0424 21:18:55.836001 22667 net.cpp:137] Memory required for data: 24734080
I0424 21:18:55.836019 22667 layer_factory.hpp:77] Creating layer conv1
I0424 21:18:55.836088 22667 net.cpp:84] Creating Layer conv1
I0424 21:18:55.836103 22667 net.cpp:406] conv1 <- data
I0424 21:18:55.836139 22667 net.cpp:380] conv1 -> conv1
I0424 21:18:56.408108 22667 net.cpp:122] Setting up conv1
I0424 21:18:56.408154 22667 net.cpp:129] Top shape: 40 64 113 113 (32688640)
I0424 21:18:56.408159 22667 net.cpp:137] Memory required for data: 155488640
I0424 21:18:56.408181 22667 layer_factory.hpp:77] Creating layer relu_conv1
I0424 21:18:56.408195 22667 net.cpp:84] Creating Layer relu_conv1
I0424 21:18:56.408200 22667 net.cpp:406] relu_conv1 <- conv1
I0424 21:18:56.408206 22667 net.cpp:367] relu_conv1 -> conv1 (in-place)
I0424 21:18:56.408363 22667 net.cpp:122] Setting up relu_conv1
I0424 21:18:56.408372 22667 net.cpp:129] Top shape: 40 64 113 113 (32688640)
I0424 21:18:56.408376 22667 net.cpp:137] Memory required for data: 286243200
I0424 21:18:56.408380 22667 layer_factory.hpp:77] Creating layer pool1
I0424 21:18:56.408388 22667 net.cpp:84] Creating Layer pool1
I0424 21:18:56.408391 22667 net.cpp:406] pool1 <- conv1
I0424 21:18:56.408397 22667 net.cpp:380] pool1 -> pool1
I0424 21:18:56.408443 22667 net.cpp:122] Setting up pool1
I0424 21:18:56.408450 22667 net.cpp:129] Top shape: 40 64 56 56 (8028160)
I0424 21:18:56.408453 22667 net.cpp:137] Memory required for data: 318355840
I0424 21:18:56.408457 22667 layer_factory.hpp:77] Creating layer fire2/squeeze1x1
I0424 21:18:56.408469 22667 net.cpp:84] Creating Layer fire2/squeeze1x1
I0424 21:18:56.408473 22667 net.cpp:406] fire2/squeeze1x1 <- pool1
I0424 21:18:56.408478 22667 net.cpp:380] fire2/squeeze1x1 -> fire2/squeeze1x1
I0424 21:18:56.410432 22667 net.cpp:122] Setting up fire2/squeeze1x1
I0424 21:18:56.410464 22667 net.cpp:129] Top shape: 40 16 56 56 (2007040)
I0424 21:18:56.410467 22667 net.cpp:137] Memory required for data: 326384000
I0424 21:18:56.410481 22667 layer_factory.hpp:77] Creating layer fire2/relu_squeeze1x1
I0424 21:18:56.410492 22667 net.cpp:84] Creating Layer fire2/relu_squeeze1x1
I0424 21:18:56.410496 22667 net.cpp:406] fire2/relu_squeeze1x1 <- fire2/squeeze1x1
I0424 21:18:56.410503 22667 net.cpp:367] fire2/relu_squeeze1x1 -> fire2/squeeze1x1 (in-place)
I0424 21:18:56.410655 22667 net.cpp:122] Setting up fire2/relu_squeeze1x1
I0424 21:18:56.410670 22667 net.cpp:129] Top shape: 40 16 56 56 (2007040)
I0424 21:18:56.410673 22667 net.cpp:137] Memory required for data: 334412160
I0424 21:18:56.410677 22667 layer_factory.hpp:77] Creating layer fire2/squeeze1x1_fire2/relu_squeeze1x1_0_split
I0424 21:18:56.410686 22667 net.cpp:84] Creating Layer fire2/squeeze1x1_fire2/relu_squeeze1x1_0_split
I0424 21:18:56.410689 22667 net.cpp:406] fire2/squeeze1x1_fire2/relu_squeeze1x1_0_split <- fire2/squeeze1x1
I0424 21:18:56.410696 22667 net.cpp:380] fire2/squeeze1x1_fire2/relu_squeeze1x1_0_split -> fire2/squeeze1x1_fire2/relu_squeeze1x1_0_split_0
I0424 21:18:56.410703 22667 net.cpp:380] fire2/squeeze1x1_fire2/relu_squeeze1x1_0_split -> fire2/squeeze1x1_fire2/relu_squeeze1x1_0_split_1
I0424 21:18:56.410737 22667 net.cpp:122] Setting up fire2/squeeze1x1_fire2/relu_squeeze1x1_0_split
I0424 21:18:56.410743 22667 net.cpp:129] Top shape: 40 16 56 56 (2007040)
I0424 21:18:56.410748 22667 net.cpp:129] Top shape: 40 16 56 56 (2007040)
I0424 21:18:56.410753 22667 net.cpp:137] Memory required for data: 350468480
I0424 21:18:56.410755 22667 layer_factory.hpp:77] Creating layer fire2/expand1x1
I0424 21:18:56.410886 22667 net.cpp:84] Creating Layer fire2/expand1x1
I0424 21:18:56.410892 22667 net.cpp:406] fire2/expand1x1 <- fire2/squeeze1x1_fire2/relu_squeeze1x1_0_split_0
I0424 21:18:56.410917 22667 net.cpp:380] fire2/expand1x1 -> fire2/expand1x1
I0424 21:18:56.412037 22667 net.cpp:122] Setting up fire2/expand1x1
I0424 21:18:56.412106 22667 net.cpp:129] Top shape: 40 64 56 56 (8028160)
I0424 21:18:56.412129 22667 net.cpp:137] Memory required for data: 382581120
I0424 21:18:56.412158 22667 layer_factory.hpp:77] Creating layer fire2/relu_expand1x1
I0424 21:18:56.412180 22667 net.cpp:84] Creating Layer fire2/relu_expand1x1
I0424 21:18:56.412190 22667 net.cpp:406] fire2/relu_expand1x1 <- fire2/expand1x1
I0424 21:18:56.412202 22667 net.cpp:367] fire2/relu_expand1x1 -> fire2/expand1x1 (in-place)
I0424 21:18:56.412459 22667 net.cpp:122] Setting up fire2/relu_expand1x1
I0424 21:18:56.412477 22667 net.cpp:129] Top shape: 40 64 56 56 (8028160)
I0424 21:18:56.412485 22667 net.cpp:137] Memory required for data: 414693760
I0424 21:18:56.412492 22667 layer_factory.hpp:77] Creating layer fire2/expand3x3
I0424 21:18:56.412509 22667 net.cpp:84] Creating Layer fire2/expand3x3
I0424 21:18:56.412518 22667 net.cpp:406] fire2/expand3x3 <- fire2/squeeze1x1_fire2/relu_squeeze1x1_0_split_1
I0424 21:18:56.412531 22667 net.cpp:380] fire2/expand3x3 -> fire2/expand3x3
I0424 21:18:56.414288 22667 net.cpp:122] Setting up fire2/expand3x3
I0424 21:18:56.414312 22667 net.cpp:129] Top shape: 40 64 56 56 (8028160)
I0424 21:18:56.414321 22667 net.cpp:137] Memory required for data: 446806400
I0424 21:18:56.414335 22667 layer_factory.hpp:77] Creating layer fire2/relu_expand3x3
I0424 21:18:56.414348 22667 net.cpp:84] Creating Layer fire2/relu_expand3x3
I0424 21:18:56.414356 22667 net.cpp:406] fire2/relu_expand3x3 <- fire2/expand3x3
I0424 21:18:56.414367 22667 net.cpp:367] fire2/relu_expand3x3 -> fire2/expand3x3 (in-place)
I0424 21:18:56.414579 22667 net.cpp:122] Setting up fire2/relu_expand3x3
I0424 21:18:56.414595 22667 net.cpp:129] Top shape: 40 64 56 56 (8028160)
I0424 21:18:56.414603 22667 net.cpp:137] Memory required for data: 478919040
I0424 21:18:56.414610 22667 layer_factory.hpp:77] Creating layer fire2/concat
I0424 21:18:56.414621 22667 net.cpp:84] Creating Layer fire2/concat
I0424 21:18:56.414629 22667 net.cpp:406] fire2/concat <- fire2/expand1x1
I0424 21:18:56.414670 22667 net.cpp:406] fire2/concat <- fire2/expand3x3
I0424 21:18:56.414685 22667 net.cpp:380] fire2/concat -> fire2/concat
I0424 21:18:56.414726 22667 net.cpp:122] Setting up fire2/concat
I0424 21:18:56.414738 22667 net.cpp:129] Top shape: 40 128 56 56 (16056320)
I0424 21:18:56.414746 22667 net.cpp:137] Memory required for data: 543144320
I0424 21:18:56.414753 22667 layer_factory.hpp:77] Creating layer fire3/squeeze1x1
I0424 21:18:56.414767 22667 net.cpp:84] Creating Layer fire3/squeeze1x1
I0424 21:18:56.414777 22667 net.cpp:406] fire3/squeeze1x1 <- fire2/concat
I0424 21:18:56.414788 22667 net.cpp:380] fire3/squeeze1x1 -> fire3/squeeze1x1
I0424 21:18:56.416030 22667 net.cpp:122] Setting up fire3/squeeze1x1
I0424 21:18:56.416049 22667 net.cpp:129] Top shape: 40 16 56 56 (2007040)
I0424 21:18:56.416054 22667 net.cpp:137] Memory required for data: 551172480
I0424 21:18:56.416065 22667 layer_factory.hpp:77] Creating layer fire3/relu_squeeze1x1
I0424 21:18:56.416074 22667 net.cpp:84] Creating Layer fire3/relu_squeeze1x1
I0424 21:18:56.416077 22667 net.cpp:406] fire3/relu_squeeze1x1 <- fire3/squeeze1x1
I0424 21:18:56.416085 22667 net.cpp:367] fire3/relu_squeeze1x1 -> fire3/squeeze1x1 (in-place)
I0424 21:18:56.416718 22667 net.cpp:122] Setting up fire3/relu_squeeze1x1
I0424 21:18:56.416734 22667 net.cpp:129] Top shape: 40 16 56 56 (2007040)
I0424 21:18:56.416738 22667 net.cpp:137] Memory required for data: 559200640
I0424 21:18:56.416744 22667 layer_factory.hpp:77] Creating layer fire3/squeeze1x1_fire3/relu_squeeze1x1_0_split
I0424 21:18:56.416760 22667 net.cpp:84] Creating Layer fire3/squeeze1x1_fire3/relu_squeeze1x1_0_split
I0424 21:18:56.417968 22667 net.cpp:406] fire3/squeeze1x1_fire3/relu_squeeze1x1_0_split <- fire3/squeeze1x1
I0424 21:18:56.417992 22667 net.cpp:380] fire3/squeeze1x1_fire3/relu_squeeze1x1_0_split -> fire3/squeeze1x1_fire3/relu_squeeze1x1_0_split_0
I0424 21:18:56.418040 22667 net.cpp:380] fire3/squeeze1x1_fire3/relu_squeeze1x1_0_split -> fire3/squeeze1x1_fire3/relu_squeeze1x1_0_split_1
I0424 21:18:56.418133 22667 net.cpp:122] Setting up fire3/squeeze1x1_fire3/relu_squeeze1x1_0_split
I0424 21:18:56.418143 22667 net.cpp:129] Top shape: 40 16 56 56 (2007040)
I0424 21:18:56.418148 22667 net.cpp:129] Top shape: 40 16 56 56 (2007040)
I0424 21:18:56.418151 22667 net.cpp:137] Memory required for data: 575256960
I0424 21:18:56.418155 22667 layer_factory.hpp:77] Creating layer fire3/expand1x1
I0424 21:18:56.418180 22667 net.cpp:84] Creating Layer fire3/expand1x1
I0424 21:18:56.418185 22667 net.cpp:406] fire3/expand1x1 <- fire3/squeeze1x1_fire3/relu_squeeze1x1_0_split_0
I0424 21:18:56.418191 22667 net.cpp:380] fire3/expand1x1 -> fire3/expand1x1
I0424 21:18:56.418998 22667 net.cpp:122] Setting up fire3/expand1x1
I0424 21:18:56.419018 22667 net.cpp:129] Top shape: 40 64 56 56 (8028160)
I0424 21:18:56.419021 22667 net.cpp:137] Memory required for data: 607369600
I0424 21:18:56.419034 22667 layer_factory.hpp:77] Creating layer fire3/relu_expand1x1
I0424 21:18:56.419052 22667 net.cpp:84] Creating Layer fire3/relu_expand1x1
I0424 21:18:56.419056 22667 net.cpp:406] fire3/relu_expand1x1 <- fire3/expand1x1
I0424 21:18:56.419062 22667 net.cpp:367] fire3/relu_expand1x1 -> fire3/expand1x1 (in-place)
I0424 21:18:56.419894 22667 net.cpp:122] Setting up fire3/relu_expand1x1
I0424 21:18:56.419914 22667 net.cpp:129] Top shape: 40 64 56 56 (8028160)
I0424 21:18:56.419919 22667 net.cpp:137] Memory required for data: 639482240
I0424 21:18:56.419924 22667 layer_factory.hpp:77] Creating layer fire3/expand3x3
I0424 21:18:56.419939 22667 net.cpp:84] Creating Layer fire3/expand3x3
I0424 21:18:56.419944 22667 net.cpp:406] fire3/expand3x3 <- fire3/squeeze1x1_fire3/relu_squeeze1x1_0_split_1
I0424 21:18:56.419951 22667 net.cpp:380] fire3/expand3x3 -> fire3/expand3x3
I0424 21:18:56.421139 22667 net.cpp:122] Setting up fire3/expand3x3
I0424 21:18:56.421155 22667 net.cpp:129] Top shape: 40 64 56 56 (8028160)
I0424 21:18:56.421159 22667 net.cpp:137] Memory required for data: 671594880
I0424 21:18:56.421169 22667 layer_factory.hpp:77] Creating layer fire3/relu_expand3x3
I0424 21:18:56.421176 22667 net.cpp:84] Creating Layer fire3/relu_expand3x3
I0424 21:18:56.421180 22667 net.cpp:406] fire3/relu_expand3x3 <- fire3/expand3x3
I0424 21:18:56.421187 22667 net.cpp:367] fire3/relu_expand3x3 -> fire3/expand3x3 (in-place)
I0424 21:18:56.421334 22667 net.cpp:122] Setting up fire3/relu_expand3x3
I0424 21:18:56.421344 22667 net.cpp:129] Top shape: 40 64 56 56 (8028160)
I0424 21:18:56.421347 22667 net.cpp:137] Memory required for data: 703707520
I0424 21:18:56.421351 22667 layer_factory.hpp:77] Creating layer fire3/concat
I0424 21:18:56.421357 22667 net.cpp:84] Creating Layer fire3/concat
I0424 21:18:56.421361 22667 net.cpp:406] fire3/concat <- fire3/expand1x1
I0424 21:18:56.421366 22667 net.cpp:406] fire3/concat <- fire3/expand3x3
I0424 21:18:56.421373 22667 net.cpp:380] fire3/concat -> fire3/concat
I0424 21:18:56.421397 22667 net.cpp:122] Setting up fire3/concat
I0424 21:18:56.421406 22667 net.cpp:129] Top shape: 40 128 56 56 (16056320)
I0424 21:18:56.421409 22667 net.cpp:137] Memory required for data: 767932800
I0424 21:18:56.421412 22667 layer_factory.hpp:77] Creating layer pool3
I0424 21:18:56.421419 22667 net.cpp:84] Creating Layer pool3
I0424 21:18:56.421423 22667 net.cpp:406] pool3 <- fire3/concat
I0424 21:18:56.421428 22667 net.cpp:380] pool3 -> pool3
I0424 21:18:56.421465 22667 net.cpp:122] Setting up pool3
I0424 21:18:56.421473 22667 net.cpp:129] Top shape: 40 128 28 28 (4014080)
I0424 21:18:56.421478 22667 net.cpp:137] Memory required for data: 783989120
I0424 21:18:56.421480 22667 layer_factory.hpp:77] Creating layer fire4/squeeze1x1
I0424 21:18:56.421491 22667 net.cpp:84] Creating Layer fire4/squeeze1x1
I0424 21:18:56.421576 22667 net.cpp:406] fire4/squeeze1x1 <- pool3
I0424 21:18:56.421584 22667 net.cpp:380] fire4/squeeze1x1 -> fire4/squeeze1x1
I0424 21:18:56.422794 22667 net.cpp:122] Setting up fire4/squeeze1x1
I0424 21:18:56.422812 22667 net.cpp:129] Top shape: 40 32 28 28 (1003520)
I0424 21:18:56.422817 22667 net.cpp:137] Memory required for data: 788003200
I0424 21:18:56.422827 22667 layer_factory.hpp:77] Creating layer fire4/relu_squeeze1x1
I0424 21:18:56.422834 22667 net.cpp:84] Creating Layer fire4/relu_squeeze1x1
I0424 21:18:56.422839 22667 net.cpp:406] fire4/relu_squeeze1x1 <- fire4/squeeze1x1
I0424 21:18:56.422845 22667 net.cpp:367] fire4/relu_squeeze1x1 -> fire4/squeeze1x1 (in-place)
I0424 21:18:56.423334 22667 net.cpp:122] Setting up fire4/relu_squeeze1x1
I0424 21:18:56.423344 22667 net.cpp:129] Top shape: 40 32 28 28 (1003520)
I0424 21:18:56.423348 22667 net.cpp:137] Memory required for data: 792017280
I0424 21:18:56.423352 22667 layer_factory.hpp:77] Creating layer fire4/squeeze1x1_fire4/relu_squeeze1x1_0_split
I0424 21:18:56.423360 22667 net.cpp:84] Creating Layer fire4/squeeze1x1_fire4/relu_squeeze1x1_0_split
I0424 21:18:56.423364 22667 net.cpp:406] fire4/squeeze1x1_fire4/relu_squeeze1x1_0_split <- fire4/squeeze1x1
I0424 21:18:56.423372 22667 net.cpp:380] fire4/squeeze1x1_fire4/relu_squeeze1x1_0_split -> fire4/squeeze1x1_fire4/relu_squeeze1x1_0_split_0
I0424 21:18:56.423379 22667 net.cpp:380] fire4/squeeze1x1_fire4/relu_squeeze1x1_0_split -> fire4/squeeze1x1_fire4/relu_squeeze1x1_0_split_1
I0424 21:18:56.423414 22667 net.cpp:122] Setting up fire4/squeeze1x1_fire4/relu_squeeze1x1_0_split
I0424 21:18:56.423422 22667 net.cpp:129] Top shape: 40 32 28 28 (1003520)
I0424 21:18:56.423427 22667 net.cpp:129] Top shape: 40 32 28 28 (1003520)
I0424 21:18:56.423430 22667 net.cpp:137] Memory required for data: 800045440
I0424 21:18:56.423434 22667 layer_factory.hpp:77] Creating layer fire4/expand1x1
I0424 21:18:56.423444 22667 net.cpp:84] Creating Layer fire4/expand1x1
I0424 21:18:56.423447 22667 net.cpp:406] fire4/expand1x1 <- fire4/squeeze1x1_fire4/relu_squeeze1x1_0_split_0
I0424 21:18:56.423454 22667 net.cpp:380] fire4/expand1x1 -> fire4/expand1x1
I0424 21:18:56.425386 22667 net.cpp:122] Setting up fire4/expand1x1
I0424 21:18:56.425415 22667 net.cpp:129] Top shape: 40 128 28 28 (4014080)
I0424 21:18:56.425420 22667 net.cpp:137] Memory required for data: 816101760
I0424 21:18:56.425436 22667 layer_factory.hpp:77] Creating layer fire4/relu_expand1x1
I0424 21:18:56.425446 22667 net.cpp:84] Creating Layer fire4/relu_expand1x1
I0424 21:18:56.425451 22667 net.cpp:406] fire4/relu_expand1x1 <- fire4/expand1x1
I0424 21:18:56.425457 22667 net.cpp:367] fire4/relu_expand1x1 -> fire4/expand1x1 (in-place)
I0424 21:18:56.425729 22667 net.cpp:122] Setting up fire4/relu_expand1x1
I0424 21:18:56.425740 22667 net.cpp:129] Top shape: 40 128 28 28 (4014080)
I0424 21:18:56.425743 22667 net.cpp:137] Memory required for data: 832158080
I0424 21:18:56.425747 22667 layer_factory.hpp:77] Creating layer fire4/expand3x3
I0424 21:18:56.425758 22667 net.cpp:84] Creating Layer fire4/expand3x3
I0424 21:18:56.425763 22667 net.cpp:406] fire4/expand3x3 <- fire4/squeeze1x1_fire4/relu_squeeze1x1_0_split_1
I0424 21:18:56.425770 22667 net.cpp:380] fire4/expand3x3 -> fire4/expand3x3
I0424 21:18:56.429432 22667 net.cpp:122] Setting up fire4/expand3x3
I0424 21:18:56.429491 22667 net.cpp:129] Top shape: 40 128 28 28 (4014080)
I0424 21:18:56.429497 22667 net.cpp:137] Memory required for data: 848214400
I0424 21:18:56.429513 22667 layer_factory.hpp:77] Creating layer fire4/relu_expand3x3
I0424 21:18:56.429534 22667 net.cpp:84] Creating Layer fire4/relu_expand3x3
I0424 21:18:56.429540 22667 net.cpp:406] fire4/relu_expand3x3 <- fire4/expand3x3
I0424 21:18:56.429550 22667 net.cpp:367] fire4/relu_expand3x3 -> fire4/expand3x3 (in-place)
I0424 21:18:56.429723 22667 net.cpp:122] Setting up fire4/relu_expand3x3
I0424 21:18:56.429734 22667 net.cpp:129] Top shape: 40 128 28 28 (4014080)
I0424 21:18:56.429738 22667 net.cpp:137] Memory required for data: 864270720
I0424 21:18:56.429883 22667 layer_factory.hpp:77] Creating layer fire4/concat
I0424 21:18:56.429895 22667 net.cpp:84] Creating Layer fire4/concat
I0424 21:18:56.429899 22667 net.cpp:406] fire4/concat <- fire4/expand1x1
I0424 21:18:56.429922 22667 net.cpp:406] fire4/concat <- fire4/expand3x3
I0424 21:18:56.429930 22667 net.cpp:380] fire4/concat -> fire4/concat
I0424 21:18:56.429965 22667 net.cpp:122] Setting up fire4/concat
I0424 21:18:56.429971 22667 net.cpp:129] Top shape: 40 256 28 28 (8028160)
I0424 21:18:56.429975 22667 net.cpp:137] Memory required for data: 896383360
I0424 21:18:56.429980 22667 layer_factory.hpp:77] Creating layer fire5/squeeze1x1
I0424 21:18:56.429993 22667 net.cpp:84] Creating Layer fire5/squeeze1x1
I0424 21:18:56.429997 22667 net.cpp:406] fire5/squeeze1x1 <- fire4/concat
I0424 21:18:56.430003 22667 net.cpp:380] fire5/squeeze1x1 -> fire5/squeeze1x1
I0424 21:18:56.431426 22667 net.cpp:122] Setting up fire5/squeeze1x1
I0424 21:18:56.431455 22667 net.cpp:129] Top shape: 40 32 28 28 (1003520)
I0424 21:18:56.431460 22667 net.cpp:137] Memory required for data: 900397440
I0424 21:18:56.431470 22667 layer_factory.hpp:77] Creating layer fire5/relu_squeeze1x1
I0424 21:18:56.431480 22667 net.cpp:84] Creating Layer fire5/relu_squeeze1x1
I0424 21:18:56.431484 22667 net.cpp:406] fire5/relu_squeeze1x1 <- fire5/squeeze1x1
I0424 21:18:56.431495 22667 net.cpp:367] fire5/relu_squeeze1x1 -> fire5/squeeze1x1 (in-place)
I0424 21:18:56.432121 22667 net.cpp:122] Setting up fire5/relu_squeeze1x1
I0424 21:18:56.432137 22667 net.cpp:129] Top shape: 40 32 28 28 (1003520)
I0424 21:18:56.432140 22667 net.cpp:137] Memory required for data: 904411520
I0424 21:18:56.432145 22667 layer_factory.hpp:77] Creating layer fire5/squeeze1x1_fire5/relu_squeeze1x1_0_split
I0424 21:18:56.432153 22667 net.cpp:84] Creating Layer fire5/squeeze1x1_fire5/relu_squeeze1x1_0_split
I0424 21:18:56.432158 22667 net.cpp:406] fire5/squeeze1x1_fire5/relu_squeeze1x1_0_split <- fire5/squeeze1x1
I0424 21:18:56.432173 22667 net.cpp:380] fire5/squeeze1x1_fire5/relu_squeeze1x1_0_split -> fire5/squeeze1x1_fire5/relu_squeeze1x1_0_split_0
I0424 21:18:56.432181 22667 net.cpp:380] fire5/squeeze1x1_fire5/relu_squeeze1x1_0_split -> fire5/squeeze1x1_fire5/relu_squeeze1x1_0_split_1
I0424 21:18:56.432226 22667 net.cpp:122] Setting up fire5/squeeze1x1_fire5/relu_squeeze1x1_0_split
I0424 21:18:56.432235 22667 net.cpp:129] Top shape: 40 32 28 28 (1003520)
I0424 21:18:56.432238 22667 net.cpp:129] Top shape: 40 32 28 28 (1003520)
I0424 21:18:56.432242 22667 net.cpp:137] Memory required for data: 912439680
I0424 21:18:56.432246 22667 layer_factory.hpp:77] Creating layer fire5/expand1x1
I0424 21:18:56.432276 22667 net.cpp:84] Creating Layer fire5/expand1x1
I0424 21:18:56.432281 22667 net.cpp:406] fire5/expand1x1 <- fire5/squeeze1x1_fire5/relu_squeeze1x1_0_split_0
I0424 21:18:56.432286 22667 net.cpp:380] fire5/expand1x1 -> fire5/expand1x1
I0424 21:18:56.433105 22667 net.cpp:122] Setting up fire5/expand1x1
I0424 21:18:56.433138 22667 net.cpp:129] Top shape: 40 128 28 28 (4014080)
I0424 21:18:56.433145 22667 net.cpp:137] Memory required for data: 928496000
I0424 21:18:56.433163 22667 layer_factory.hpp:77] Creating layer fire5/relu_expand1x1
I0424 21:18:56.433179 22667 net.cpp:84] Creating Layer fire5/relu_expand1x1
I0424 21:18:56.433188 22667 net.cpp:406] fire5/relu_expand1x1 <- fire5/expand1x1
I0424 21:18:56.433202 22667 net.cpp:367] fire5/relu_expand1x1 -> fire5/expand1x1 (in-place)
I0424 21:18:56.444208 22667 net.cpp:122] Setting up fire5/relu_expand1x1
I0424 21:18:56.444407 22667 net.cpp:129] Top shape: 40 128 28 28 (4014080)
I0424 21:18:56.444418 22667 net.cpp:137] Memory required for data: 944552320
I0424 21:18:56.444437 22667 layer_factory.hpp:77] Creating layer fire5/expand3x3
I0424 21:18:56.444494 22667 net.cpp:84] Creating Layer fire5/expand3x3
I0424 21:18:56.444507 22667 net.cpp:406] fire5/expand3x3 <- fire5/squeeze1x1_fire5/relu_squeeze1x1_0_split_1
I0424 21:18:56.444538 22667 net.cpp:380] fire5/expand3x3 -> fire5/expand3x3
I0424 21:18:56.448698 22667 net.cpp:122] Setting up fire5/expand3x3
I0424 21:18:56.448895 22667 net.cpp:129] Top shape: 40 128 28 28 (4014080)
I0424 21:18:56.448907 22667 net.cpp:137] Memory required for data: 960608640
I0424 21:18:56.449051 22667 layer_factory.hpp:77] Creating layer fire5/relu_expand3x3
I0424 21:18:56.449096 22667 net.cpp:84] Creating Layer fire5/relu_expand3x3
I0424 21:18:56.449110 22667 net.cpp:406] fire5/relu_expand3x3 <- fire5/expand3x3
I0424 21:18:56.449136 22667 net.cpp:367] fire5/relu_expand3x3 -> fire5/expand3x3 (in-place)
I0424 21:18:56.450989 22667 net.cpp:122] Setting up fire5/relu_expand3x3
I0424 21:18:56.451216 22667 net.cpp:129] Top shape: 40 128 28 28 (4014080)
I0424 21:18:56.451230 22667 net.cpp:137] Memory required for data: 976664960
I0424 21:18:56.451246 22667 layer_factory.hpp:77] Creating layer fire5/concat
I0424 21:18:56.451275 22667 net.cpp:84] Creating Layer fire5/concat
I0424 21:18:56.451294 22667 net.cpp:406] fire5/concat <- fire5/expand1x1
I0424 21:18:56.451315 22667 net.cpp:406] fire5/concat <- fire5/expand3x3
I0424 21:18:56.451330 22667 net.cpp:380] fire5/concat -> fire5/concat
I0424 21:18:56.451488 22667 net.cpp:122] Setting up fire5/concat
I0424 21:18:56.451503 22667 net.cpp:129] Top shape: 40 256 28 28 (8028160)
I0424 21:18:56.451511 22667 net.cpp:137] Memory required for data: 1008777600
I0424 21:18:56.451519 22667 layer_factory.hpp:77] Creating layer pool5
I0424 21:18:56.451542 22667 net.cpp:84] Creating Layer pool5
I0424 21:18:56.451552 22667 net.cpp:406] pool5 <- fire5/concat
I0424 21:18:56.451563 22667 net.cpp:380] pool5 -> pool5
I0424 21:18:56.451660 22667 net.cpp:122] Setting up pool5
I0424 21:18:56.451674 22667 net.cpp:129] Top shape: 40 256 14 14 (2007040)
I0424 21:18:56.451683 22667 net.cpp:137] Memory required for data: 1016805760
I0424 21:18:56.451691 22667 layer_factory.hpp:77] Creating layer fire6/squeeze1x1
I0424 21:18:56.451726 22667 net.cpp:84] Creating Layer fire6/squeeze1x1
I0424 21:18:56.451737 22667 net.cpp:406] fire6/squeeze1x1 <- pool5
I0424 21:18:56.451750 22667 net.cpp:380] fire6/squeeze1x1 -> fire6/squeeze1x1
I0424 21:18:56.459303 22667 net.cpp:122] Setting up fire6/squeeze1x1
I0424 21:18:56.459517 22667 net.cpp:129] Top shape: 40 48 14 14 (376320)
I0424 21:18:56.459529 22667 net.cpp:137] Memory required for data: 1018311040
I0424 21:18:56.459583 22667 layer_factory.hpp:77] Creating layer fire6/relu_squeeze1x1
I0424 21:18:56.459627 22667 net.cpp:84] Creating Layer fire6/relu_squeeze1x1
I0424 21:18:56.459641 22667 net.cpp:406] fire6/relu_squeeze1x1 <- fire6/squeeze1x1
I0424 21:18:56.459672 22667 net.cpp:367] fire6/relu_squeeze1x1 -> fire6/squeeze1x1 (in-place)
I0424 21:18:56.460217 22667 net.cpp:122] Setting up fire6/relu_squeeze1x1
I0424 21:18:56.460255 22667 net.cpp:129] Top shape: 40 48 14 14 (376320)
I0424 21:18:56.460263 22667 net.cpp:137] Memory required for data: 1019816320
I0424 21:18:56.460273 22667 layer_factory.hpp:77] Creating layer fire6/squeeze1x1_fire6/relu_squeeze1x1_0_split
I0424 21:18:56.460297 22667 net.cpp:84] Creating Layer fire6/squeeze1x1_fire6/relu_squeeze1x1_0_split
I0424 21:18:56.460306 22667 net.cpp:406] fire6/squeeze1x1_fire6/relu_squeeze1x1_0_split <- fire6/squeeze1x1
I0424 21:18:56.460325 22667 net.cpp:380] fire6/squeeze1x1_fire6/relu_squeeze1x1_0_split -> fire6/squeeze1x1_fire6/relu_squeeze1x1_0_split_0
I0424 21:18:56.460346 22667 net.cpp:380] fire6/squeeze1x1_fire6/relu_squeeze1x1_0_split -> fire6/squeeze1x1_fire6/relu_squeeze1x1_0_split_1
I0424 21:18:56.460631 22667 net.cpp:122] Setting up fire6/squeeze1x1_fire6/relu_squeeze1x1_0_split
I0424 21:18:56.460650 22667 net.cpp:129] Top shape: 40 48 14 14 (376320)
I0424 21:18:56.460664 22667 net.cpp:129] Top shape: 40 48 14 14 (376320)
I0424 21:18:56.460670 22667 net.cpp:137] Memory required for data: 1022826880
I0424 21:18:56.460678 22667 layer_factory.hpp:77] Creating layer fire6/expand1x1
I0424 21:18:56.460723 22667 net.cpp:84] Creating Layer fire6/expand1x1
I0424 21:18:56.460731 22667 net.cpp:406] fire6/expand1x1 <- fire6/squeeze1x1_fire6/relu_squeeze1x1_0_split_0
I0424 21:18:56.461045 22667 net.cpp:380] fire6/expand1x1 -> fire6/expand1x1
I0424 21:18:56.463964 22667 net.cpp:122] Setting up fire6/expand1x1
I0424 21:18:56.464067 22667 net.cpp:129] Top shape: 40 192 14 14 (1505280)
I0424 21:18:56.464128 22667 net.cpp:137] Memory required for data: 1028848000
I0424 21:18:56.464160 22667 layer_factory.hpp:77] Creating layer fire6/relu_expand1x1
I0424 21:18:56.464191 22667 net.cpp:84] Creating Layer fire6/relu_expand1x1
I0424 21:18:56.464205 22667 net.cpp:406] fire6/relu_expand1x1 <- fire6/expand1x1
I0424 21:18:56.464222 22667 net.cpp:367] fire6/relu_expand1x1 -> fire6/expand1x1 (in-place)
I0424 21:18:56.464491 22667 net.cpp:122] Setting up fire6/relu_expand1x1
I0424 21:18:56.464514 22667 net.cpp:129] Top shape: 40 192 14 14 (1505280)
I0424 21:18:56.464519 22667 net.cpp:137] Memory required for data: 1034869120
I0424 21:18:56.464527 22667 layer_factory.hpp:77] Creating layer fire6/expand3x3
I0424 21:18:56.464565 22667 net.cpp:84] Creating Layer fire6/expand3x3
I0424 21:18:56.464573 22667 net.cpp:406] fire6/expand3x3 <- fire6/squeeze1x1_fire6/relu_squeeze1x1_0_split_1
I0424 21:18:56.464592 22667 net.cpp:380] fire6/expand3x3 -> fire6/expand3x3
I0424 21:18:56.475733 22667 net.cpp:122] Setting up fire6/expand3x3
I0424 21:18:56.475880 22667 net.cpp:129] Top shape: 40 192 14 14 (1505280)
I0424 21:18:56.475890 22667 net.cpp:137] Memory required for data: 1040890240
I0424 21:18:56.475929 22667 layer_factory.hpp:77] Creating layer fire6/relu_expand3x3
I0424 21:18:56.475958 22667 net.cpp:84] Creating Layer fire6/relu_expand3x3
I0424 21:18:56.475972 22667 net.cpp:406] fire6/relu_expand3x3 <- fire6/expand3x3
I0424 21:18:56.475993 22667 net.cpp:367] fire6/relu_expand3x3 -> fire6/expand3x3 (in-place)
I0424 21:18:56.476505 22667 net.cpp:122] Setting up fire6/relu_expand3x3
I0424 21:18:56.476538 22667 net.cpp:129] Top shape: 40 192 14 14 (1505280)
I0424 21:18:56.476546 22667 net.cpp:137] Memory required for data: 1046911360
I0424 21:18:56.476553 22667 layer_factory.hpp:77] Creating layer fire6/concat
I0424 21:18:56.476577 22667 net.cpp:84] Creating Layer fire6/concat
I0424 21:18:56.476583 22667 net.cpp:406] fire6/concat <- fire6/expand1x1
I0424 21:18:56.476596 22667 net.cpp:406] fire6/concat <- fire6/expand3x3
I0424 21:18:56.476608 22667 net.cpp:380] fire6/concat -> fire6/concat
I0424 21:18:56.476737 22667 net.cpp:122] Setting up fire6/concat
I0424 21:18:56.476752 22667 net.cpp:129] Top shape: 40 384 14 14 (3010560)
I0424 21:18:56.476758 22667 net.cpp:137] Memory required for data: 1058953600
I0424 21:18:56.476763 22667 layer_factory.hpp:77] Creating layer fire7/squeeze1x1
I0424 21:18:56.476794 22667 net.cpp:84] Creating Layer fire7/squeeze1x1
I0424 21:18:56.476801 22667 net.cpp:406] fire7/squeeze1x1 <- fire6/concat
I0424 21:18:56.476815 22667 net.cpp:380] fire7/squeeze1x1 -> fire7/squeeze1x1
I0424 21:18:56.479723 22667 net.cpp:122] Setting up fire7/squeeze1x1
I0424 21:18:56.479863 22667 net.cpp:129] Top shape: 40 48 14 14 (376320)
I0424 21:18:56.479871 22667 net.cpp:137] Memory required for data: 1060458880
I0424 21:18:56.479926 22667 layer_factory.hpp:77] Creating layer fire7/relu_squeeze1x1
I0424 21:18:56.479961 22667 net.cpp:84] Creating Layer fire7/relu_squeeze1x1
I0424 21:18:56.479975 22667 net.cpp:406] fire7/relu_squeeze1x1 <- fire7/squeeze1x1
I0424 21:18:56.479992 22667 net.cpp:367] fire7/relu_squeeze1x1 -> fire7/squeeze1x1 (in-place)
I0424 21:18:56.482071 22667 net.cpp:122] Setting up fire7/relu_squeeze1x1
I0424 21:18:56.482192 22667 net.cpp:129] Top shape: 40 48 14 14 (376320)
I0424 21:18:56.482203 22667 net.cpp:137] Memory required for data: 1061964160
I0424 21:18:56.482218 22667 layer_factory.hpp:77] Creating layer fire7/squeeze1x1_fire7/relu_squeeze1x1_0_split
I0424 21:18:56.482255 22667 net.cpp:84] Creating Layer fire7/squeeze1x1_fire7/relu_squeeze1x1_0_split
I0424 21:18:56.482266 22667 net.cpp:406] fire7/squeeze1x1_fire7/relu_squeeze1x1_0_split <- fire7/squeeze1x1
I0424 21:18:56.482297 22667 net.cpp:380] fire7/squeeze1x1_fire7/relu_squeeze1x1_0_split -> fire7/squeeze1x1_fire7/relu_squeeze1x1_0_split_0
I0424 21:18:56.482620 22667 net.cpp:380] fire7/squeeze1x1_fire7/relu_squeeze1x1_0_split -> fire7/squeeze1x1_fire7/relu_squeeze1x1_0_split_1
I0424 21:18:56.482870 22667 net.cpp:122] Setting up fire7/squeeze1x1_fire7/relu_squeeze1x1_0_split
I0424 21:18:56.482947 22667 net.cpp:129] Top shape: 40 48 14 14 (376320)
I0424 21:18:56.482959 22667 net.cpp:129] Top shape: 40 48 14 14 (376320)
I0424 21:18:56.482964 22667 net.cpp:137] Memory required for data: 1064974720
I0424 21:18:56.482973 22667 layer_factory.hpp:77] Creating layer fire7/expand1x1
I0424 21:18:56.483012 22667 net.cpp:84] Creating Layer fire7/expand1x1
I0424 21:18:56.483021 22667 net.cpp:406] fire7/expand1x1 <- fire7/squeeze1x1_fire7/relu_squeeze1x1_0_split_0
I0424 21:18:56.483036 22667 net.cpp:380] fire7/expand1x1 -> fire7/expand1x1
I0424 21:18:56.484956 22667 net.cpp:122] Setting up fire7/expand1x1
I0424 21:18:56.485146 22667 net.cpp:129] Top shape: 40 192 14 14 (1505280)
I0424 21:18:56.485157 22667 net.cpp:137] Memory required for data: 1070995840
I0424 21:18:56.485185 22667 layer_factory.hpp:77] Creating layer fire7/relu_expand1x1
I0424 21:18:56.485219 22667 net.cpp:84] Creating Layer fire7/relu_expand1x1
I0424 21:18:56.485230 22667 net.cpp:406] fire7/relu_expand1x1 <- fire7/expand1x1
I0424 21:18:56.485255 22667 net.cpp:367] fire7/relu_expand1x1 -> fire7/expand1x1 (in-place)
I0424 21:18:56.489069 22667 net.cpp:122] Setting up fire7/relu_expand1x1
I0424 21:18:56.489310 22667 net.cpp:129] Top shape: 40 192 14 14 (1505280)
I0424 21:18:56.489323 22667 net.cpp:137] Memory required for data: 1077016960
I0424 21:18:56.489342 22667 layer_factory.hpp:77] Creating layer fire7/expand3x3
I0424 21:18:56.489408 22667 net.cpp:84] Creating Layer fire7/expand3x3
I0424 21:18:56.489428 22667 net.cpp:406] fire7/expand3x3 <- fire7/squeeze1x1_fire7/relu_squeeze1x1_0_split_1
I0424 21:18:56.489454 22667 net.cpp:380] fire7/expand3x3 -> fire7/expand3x3
I0424 21:18:56.498059 22667 net.cpp:122] Setting up fire7/expand3x3
I0424 21:18:56.498190 22667 net.cpp:129] Top shape: 40 192 14 14 (1505280)
I0424 21:18:56.498200 22667 net.cpp:137] Memory required for data: 1083038080
I0424 21:18:56.498256 22667 layer_factory.hpp:77] Creating layer fire7/relu_expand3x3
I0424 21:18:56.498303 22667 net.cpp:84] Creating Layer fire7/relu_expand3x3
I0424 21:18:56.498319 22667 net.cpp:406] fire7/relu_expand3x3 <- fire7/expand3x3
I0424 21:18:56.498353 22667 net.cpp:367] fire7/relu_expand3x3 -> fire7/expand3x3 (in-place)
I0424 21:18:56.499007 22667 net.cpp:122] Setting up fire7/relu_expand3x3
I0424 21:18:56.499028 22667 net.cpp:129] Top shape: 40 192 14 14 (1505280)
I0424 21:18:56.499035 22667 net.cpp:137] Memory required for data: 1089059200
I0424 21:18:56.499043 22667 layer_factory.hpp:77] Creating layer fire7/concat
I0424 21:18:56.499061 22667 net.cpp:84] Creating Layer fire7/concat
I0424 21:18:56.499068 22667 net.cpp:406] fire7/concat <- fire7/expand1x1
I0424 21:18:56.499078 22667 net.cpp:406] fire7/concat <- fire7/expand3x3
I0424 21:18:56.499089 22667 net.cpp:380] fire7/concat -> fire7/concat
I0424 21:18:56.499290 22667 net.cpp:122] Setting up fire7/concat
I0424 21:18:56.499302 22667 net.cpp:129] Top shape: 40 384 14 14 (3010560)
I0424 21:18:56.499310 22667 net.cpp:137] Memory required for data: 1101101440
I0424 21:18:56.499317 22667 layer_factory.hpp:77] Creating layer fire8/squeeze1x1
I0424 21:18:56.499362 22667 net.cpp:84] Creating Layer fire8/squeeze1x1
I0424 21:18:56.499370 22667 net.cpp:406] fire8/squeeze1x1 <- fire7/concat
I0424 21:18:56.499392 22667 net.cpp:380] fire8/squeeze1x1 -> fire8/squeeze1x1
I0424 21:18:56.502884 22667 net.cpp:122] Setting up fire8/squeeze1x1
I0424 21:18:56.503135 22667 net.cpp:129] Top shape: 40 64 14 14 (501760)
I0424 21:18:56.503145 22667 net.cpp:137] Memory required for data: 1103108480
I0424 21:18:56.503190 22667 layer_factory.hpp:77] Creating layer fire8/relu_squeeze1x1
I0424 21:18:56.503233 22667 net.cpp:84] Creating Layer fire8/relu_squeeze1x1
I0424 21:18:56.503247 22667 net.cpp:406] fire8/relu_squeeze1x1 <- fire8/squeeze1x1
I0424 21:18:56.503269 22667 net.cpp:367] fire8/relu_squeeze1x1 -> fire8/squeeze1x1 (in-place)
I0424 21:18:56.504457 22667 net.cpp:122] Setting up fire8/relu_squeeze1x1
I0424 21:18:56.504482 22667 net.cpp:129] Top shape: 40 64 14 14 (501760)
I0424 21:18:56.504532 22667 net.cpp:137] Memory required for data: 1105115520
I0424 21:18:56.504541 22667 layer_factory.hpp:77] Creating layer fire8/squeeze1x1_fire8/relu_squeeze1x1_0_split
I0424 21:18:56.504559 22667 net.cpp:84] Creating Layer fire8/squeeze1x1_fire8/relu_squeeze1x1_0_split
I0424 21:18:56.504566 22667 net.cpp:406] fire8/squeeze1x1_fire8/relu_squeeze1x1_0_split <- fire8/squeeze1x1
I0424 21:18:56.504578 22667 net.cpp:380] fire8/squeeze1x1_fire8/relu_squeeze1x1_0_split -> fire8/squeeze1x1_fire8/relu_squeeze1x1_0_split_0
I0424 21:18:56.504592 22667 net.cpp:380] fire8/squeeze1x1_fire8/relu_squeeze1x1_0_split -> fire8/squeeze1x1_fire8/relu_squeeze1x1_0_split_1
I0424 21:18:56.504755 22667 net.cpp:122] Setting up fire8/squeeze1x1_fire8/relu_squeeze1x1_0_split
I0424 21:18:56.504773 22667 net.cpp:129] Top shape: 40 64 14 14 (501760)
I0424 21:18:56.504782 22667 net.cpp:129] Top shape: 40 64 14 14 (501760)
I0424 21:18:56.504787 22667 net.cpp:137] Memory required for data: 1109129600
I0424 21:18:56.504794 22667 layer_factory.hpp:77] Creating layer fire8/expand1x1
I0424 21:18:56.504847 22667 net.cpp:84] Creating Layer fire8/expand1x1
I0424 21:18:56.504853 22667 net.cpp:406] fire8/expand1x1 <- fire8/squeeze1x1_fire8/relu_squeeze1x1_0_split_0
I0424 21:18:56.504869 22667 net.cpp:380] fire8/expand1x1 -> fire8/expand1x1
I0424 21:18:56.508575 22667 net.cpp:122] Setting up fire8/expand1x1
I0424 21:18:56.508718 22667 net.cpp:129] Top shape: 40 256 14 14 (2007040)
I0424 21:18:56.508728 22667 net.cpp:137] Memory required for data: 1117157760
I0424 21:18:56.508767 22667 layer_factory.hpp:77] Creating layer fire8/relu_expand1x1
I0424 21:18:56.508806 22667 net.cpp:84] Creating Layer fire8/relu_expand1x1
I0424 21:18:56.508819 22667 net.cpp:406] fire8/relu_expand1x1 <- fire8/expand1x1
I0424 21:18:56.508846 22667 net.cpp:367] fire8/relu_expand1x1 -> fire8/expand1x1 (in-place)
I0424 21:18:56.509117 22667 net.cpp:122] Setting up fire8/relu_expand1x1
I0424 21:18:56.509135 22667 net.cpp:129] Top shape: 40 256 14 14 (2007040)
I0424 21:18:56.509140 22667 net.cpp:137] Memory required for data: 1125185920
I0424 21:18:56.509147 22667 layer_factory.hpp:77] Creating layer fire8/expand3x3
I0424 21:18:56.509186 22667 net.cpp:84] Creating Layer fire8/expand3x3
I0424 21:18:56.509194 22667 net.cpp:406] fire8/expand3x3 <- fire8/squeeze1x1_fire8/relu_squeeze1x1_0_split_1
I0424 21:18:56.509207 22667 net.cpp:380] fire8/expand3x3 -> fire8/expand3x3
I0424 21:18:56.514719 22667 net.cpp:122] Setting up fire8/expand3x3
I0424 21:18:56.515058 22667 net.cpp:129] Top shape: 40 256 14 14 (2007040)
I0424 21:18:56.515079 22667 net.cpp:137] Memory required for data: 1133214080
I0424 21:18:56.515125 22667 layer_factory.hpp:77] Creating layer fire8/relu_expand3x3
I0424 21:18:56.515175 22667 net.cpp:84] Creating Layer fire8/relu_expand3x3
I0424 21:18:56.515194 22667 net.cpp:406] fire8/relu_expand3x3 <- fire8/expand3x3
I0424 21:18:56.515220 22667 net.cpp:367] fire8/relu_expand3x3 -> fire8/expand3x3 (in-place)
I0424 21:18:56.515789 22667 net.cpp:122] Setting up fire8/relu_expand3x3
I0424 21:18:56.515811 22667 net.cpp:129] Top shape: 40 256 14 14 (2007040)
I0424 21:18:56.515820 22667 net.cpp:137] Memory required for data: 1141242240
I0424 21:18:56.515828 22667 layer_factory.hpp:77] Creating layer fire8/concat
I0424 21:18:56.515842 22667 net.cpp:84] Creating Layer fire8/concat
I0424 21:18:56.515851 22667 net.cpp:406] fire8/concat <- fire8/expand1x1
I0424 21:18:56.515861 22667 net.cpp:406] fire8/concat <- fire8/expand3x3
I0424 21:18:56.515877 22667 net.cpp:380] fire8/concat -> fire8/concat
I0424 21:18:56.516077 22667 net.cpp:122] Setting up fire8/concat
I0424 21:18:56.516100 22667 net.cpp:129] Top shape: 40 512 14 14 (4014080)
I0424 21:18:56.516109 22667 net.cpp:137] Memory required for data: 1157298560
I0424 21:18:56.516120 22667 layer_factory.hpp:77] Creating layer fire9/squeeze1x1
I0424 21:18:56.516580 22667 net.cpp:84] Creating Layer fire9/squeeze1x1
I0424 21:18:56.516595 22667 net.cpp:406] fire9/squeeze1x1 <- fire8/concat
I0424 21:18:56.516608 22667 net.cpp:380] fire9/squeeze1x1 -> fire9/squeeze1x1
I0424 21:18:56.520742 22667 net.cpp:122] Setting up fire9/squeeze1x1
I0424 21:18:56.520927 22667 net.cpp:129] Top shape: 40 64 14 14 (501760)
I0424 21:18:56.520952 22667 net.cpp:137] Memory required for data: 1159305600
I0424 21:18:56.521011 22667 layer_factory.hpp:77] Creating layer fire9/relu_squeeze1x1
I0424 21:18:56.521065 22667 net.cpp:84] Creating Layer fire9/relu_squeeze1x1
I0424 21:18:56.521082 22667 net.cpp:406] fire9/relu_squeeze1x1 <- fire9/squeeze1x1
I0424 21:18:56.521109 22667 net.cpp:367] fire9/relu_squeeze1x1 -> fire9/squeeze1x1 (in-place)
I0424 21:18:56.522858 22667 net.cpp:122] Setting up fire9/relu_squeeze1x1
I0424 21:18:56.522934 22667 net.cpp:129] Top shape: 40 64 14 14 (501760)
I0424 21:18:56.522950 22667 net.cpp:137] Memory required for data: 1161312640
I0424 21:18:56.522991 22667 layer_factory.hpp:77] Creating layer fire9/squeeze1x1_fire9/relu_squeeze1x1_0_split
I0424 21:18:56.523079 22667 net.cpp:84] Creating Layer fire9/squeeze1x1_fire9/relu_squeeze1x1_0_split
I0424 21:18:56.523094 22667 net.cpp:406] fire9/squeeze1x1_fire9/relu_squeeze1x1_0_split <- fire9/squeeze1x1
I0424 21:18:56.523113 22667 net.cpp:380] fire9/squeeze1x1_fire9/relu_squeeze1x1_0_split -> fire9/squeeze1x1_fire9/relu_squeeze1x1_0_split_0
I0424 21:18:56.523135 22667 net.cpp:380] fire9/squeeze1x1_fire9/relu_squeeze1x1_0_split -> fire9/squeeze1x1_fire9/relu_squeeze1x1_0_split_1
I0424 21:18:56.523314 22667 net.cpp:122] Setting up fire9/squeeze1x1_fire9/relu_squeeze1x1_0_split
I0424 21:18:56.523337 22667 net.cpp:129] Top shape: 40 64 14 14 (501760)
I0424 21:18:56.523350 22667 net.cpp:129] Top shape: 40 64 14 14 (501760)
I0424 21:18:56.523358 22667 net.cpp:137] Memory required for data: 1165326720
I0424 21:18:56.523368 22667 layer_factory.hpp:77] Creating layer fire9/expand1x1
I0424 21:18:56.523411 22667 net.cpp:84] Creating Layer fire9/expand1x1
I0424 21:18:56.523422 22667 net.cpp:406] fire9/expand1x1 <- fire9/squeeze1x1_fire9/relu_squeeze1x1_0_split_0
I0424 21:18:56.523443 22667 net.cpp:380] fire9/expand1x1 -> fire9/expand1x1
I0424 21:18:56.525126 22667 net.cpp:122] Setting up fire9/expand1x1
I0424 21:18:56.525172 22667 net.cpp:129] Top shape: 40 256 14 14 (2007040)
I0424 21:18:56.525184 22667 net.cpp:137] Memory required for data: 1173354880
I0424 21:18:56.525224 22667 layer_factory.hpp:77] Creating layer fire9/relu_expand1x1
I0424 21:18:56.525250 22667 net.cpp:84] Creating Layer fire9/relu_expand1x1
I0424 21:18:56.525261 22667 net.cpp:406] fire9/relu_expand1x1 <- fire9/expand1x1
I0424 21:18:56.525282 22667 net.cpp:367] fire9/relu_expand1x1 -> fire9/expand1x1 (in-place)
I0424 21:18:56.526798 22667 net.cpp:122] Setting up fire9/relu_expand1x1
I0424 21:18:56.526835 22667 net.cpp:129] Top shape: 40 256 14 14 (2007040)
I0424 21:18:56.526845 22667 net.cpp:137] Memory required for data: 1181383040
I0424 21:18:56.526859 22667 layer_factory.hpp:77] Creating layer fire9/expand3x3
I0424 21:18:56.526899 22667 net.cpp:84] Creating Layer fire9/expand3x3
I0424 21:18:56.526916 22667 net.cpp:406] fire9/expand3x3 <- fire9/squeeze1x1_fire9/relu_squeeze1x1_0_split_1
I0424 21:18:56.526934 22667 net.cpp:380] fire9/expand3x3 -> fire9/expand3x3
I0424 21:18:56.531574 22667 net.cpp:122] Setting up fire9/expand3x3
I0424 21:18:56.531692 22667 net.cpp:129] Top shape: 40 256 14 14 (2007040)
I0424 21:18:56.531708 22667 net.cpp:137] Memory required for data: 1189411200
I0424 21:18:56.531761 22667 layer_factory.hpp:77] Creating layer fire9/relu_expand3x3
I0424 21:18:56.531822 22667 net.cpp:84] Creating Layer fire9/relu_expand3x3
I0424 21:18:56.531846 22667 net.cpp:406] fire9/relu_expand3x3 <- fire9/expand3x3
I0424 21:18:56.531880 22667 net.cpp:367] fire9/relu_expand3x3 -> fire9/expand3x3 (in-place)
I0424 21:18:56.532222 22667 net.cpp:122] Setting up fire9/relu_expand3x3
I0424 21:18:56.532248 22667 net.cpp:129] Top shape: 40 256 14 14 (2007040)
I0424 21:18:56.532603 22667 net.cpp:137] Memory required for data: 1197439360
I0424 21:18:56.532614 22667 layer_factory.hpp:77] Creating layer fire9/concat
I0424 21:18:56.532637 22667 net.cpp:84] Creating Layer fire9/concat
I0424 21:18:56.532713 22667 net.cpp:406] fire9/concat <- fire9/expand1x1
I0424 21:18:56.532732 22667 net.cpp:406] fire9/concat <- fire9/expand3x3
I0424 21:18:56.532747 22667 net.cpp:380] fire9/concat -> fire9/concat
I0424 21:18:56.532891 22667 net.cpp:122] Setting up fire9/concat
I0424 21:18:56.532905 22667 net.cpp:129] Top shape: 40 512 14 14 (4014080)
I0424 21:18:56.532913 22667 net.cpp:137] Memory required for data: 1213495680
I0424 21:18:56.532920 22667 layer_factory.hpp:77] Creating layer drop9
I0424 21:18:56.532937 22667 net.cpp:84] Creating Layer drop9
I0424 21:18:56.532944 22667 net.cpp:406] drop9 <- fire9/concat
I0424 21:18:56.532956 22667 net.cpp:367] drop9 -> fire9/concat (in-place)
I0424 21:18:56.533020 22667 net.cpp:122] Setting up drop9
I0424 21:18:56.533033 22667 net.cpp:129] Top shape: 40 512 14 14 (4014080)
I0424 21:18:56.533041 22667 net.cpp:137] Memory required for data: 1229552000
I0424 21:18:56.533049 22667 layer_factory.hpp:77] Creating layer conv10_new
I0424 21:18:56.533083 22667 net.cpp:84] Creating Layer conv10_new
I0424 21:18:56.533093 22667 net.cpp:406] conv10_new <- fire9/concat
I0424 21:18:56.533112 22667 net.cpp:380] conv10_new -> conv10_new
I0424 21:18:56.541455 22667 net.cpp:122] Setting up conv10_new
I0424 21:18:56.541641 22667 net.cpp:129] Top shape: 40 196 14 14 (1536640)
I0424 21:18:56.541654 22667 net.cpp:137] Memory required for data: 1235698560
I0424 21:18:56.541692 22667 layer_factory.hpp:77] Creating layer relu_conv10
I0424 21:18:56.541731 22667 net.cpp:84] Creating Layer relu_conv10
I0424 21:18:56.541746 22667 net.cpp:406] relu_conv10 <- conv10_new
I0424 21:18:56.541780 22667 net.cpp:367] relu_conv10 -> conv10_new (in-place)
I0424 21:18:56.542134 22667 net.cpp:122] Setting up relu_conv10
I0424 21:18:56.542156 22667 net.cpp:129] Top shape: 40 196 14 14 (1536640)
I0424 21:18:56.542165 22667 net.cpp:137] Memory required for data: 1241845120
I0424 21:18:56.542173 22667 layer_factory.hpp:77] Creating layer pool10
I0424 21:18:56.542194 22667 net.cpp:84] Creating Layer pool10
I0424 21:18:56.542201 22667 net.cpp:406] pool10 <- conv10_new
I0424 21:18:56.542213 22667 net.cpp:380] pool10 -> pool10
I0424 21:18:56.542646 22667 net.cpp:122] Setting up pool10
I0424 21:18:56.542670 22667 net.cpp:129] Top shape: 40 196 1 1 (7840)
I0424 21:18:56.542680 22667 net.cpp:137] Memory required for data: 1241876480
I0424 21:18:56.542688 22667 layer_factory.hpp:77] Creating layer loss
I0424 21:18:56.542704 22667 net.cpp:84] Creating Layer loss
I0424 21:18:56.542713 22667 net.cpp:406] loss <- pool10
I0424 21:18:56.542724 22667 net.cpp:406] loss <- label
I0424 21:18:56.542740 22667 net.cpp:380] loss -> loss
I0424 21:18:56.542784 22667 layer_factory.hpp:77] Creating layer loss
…
I0424 21:18:56.551360 22667 solver.cpp:172] Creating test net (#0) specified by net file: finetune.prototxt
I0424 21:18:56.551549 22667 net.cpp:294] The NetState phase (1) differed from the phase (0) specified by a rule in layer data
I0424 21:18:56.552254 22667 net.cpp:51] Initializing net from parameters: 
state {
  phase: TEST
}
layer {
  name: "data"
  type: "ImageData"
  top: "data"
  top: "label"
  include {
    phase: TEST
  }
  transform_param {
    mean_value: 104
    mean_value: 117
    mean_value: 123
  }
  image_data_param {
    source: "./test.txt"
    batch_size: 40
    mirror: false
    shuffle: true
  }
}
layer {
  name: "conv1"
  type: "Convolution"
  bottom: "data"
  top: "conv1"
  convolution_param {
    num_output: 64
    kernel_size: 3
    stride: 2
    weight_filler {
      type: "xavier"
    }
  }
}
layer {
  name: "relu_conv1"
  type: "ReLU"
  bottom: "conv1"
  top: "conv1"
}
layer {
  name: "pool1"
  type: "Pooling"
  bottom: "conv1"
  top: "pool1"
  pooling_param {
    pool: MAX
    kernel_size: 3
    stride: 2
  }
}
layer {
  name: "fire2/squeeze1x1"
  type: "Convolution"
  bottom: "pool1"
  top: "fire2/squeeze1x1"
  convolution_param {
    num_output: 16
    kernel_size: 1
    weight_filler {
      type: "xavier"
    }
  }
}
layer {
  name: "fire2/relu_squeeze1x1"
  type: "ReLU"
  bottom: "fire2/squeeze1x1"
  top: "fire2/squeeze1x1"
}
layer {
  name: "fire2/expand1x1"
  type: "Convolution"
  bottom: "fire2/squeeze1x1"
  top: "fire2/expand1x1"
  convolution_param {
    num_output: 64
    kernel_size: 1
    weight_filler {
      type: "xavier"
    }
  }
}
layer {
  name: "fire2/relu_expand1x1"
  type: "ReLU"
  bottom: "fire2/expand1x1"
  top: "fire2/expand1x1"
}
layer {
  name: "fire2/expand3x3"
  type: "Convolution"
  bottom: "fire2/squeeze1x1"
  top: "fire2/expand3x3"
  convolution_param {
    num_output: 64
    pad: 1
    kernel_size: 3
    weight_filler {
      type: "xavier"
    }
  }
}
layer {
  name: "fire2/relu_expand3x3"
  type: "ReLU"
  bottom: "fire2/expand3x3"
  top: "fire2/expand3x3"
}
layer {
  name: "fire2/concat"
  type: "Concat"
  bottom: "fire2/expand1x1"
  bottom: "fire2/expand3x3"
  top: "fire2/concat"
}
layer {
  name: "fire3/squeeze1x1"
  type: "Convolution"
  bottom: "fire2/concat"
  top: "fire3/squeeze1x1"
  convolution_param {
    num_output: 16
    kernel_size: 1
    weight_filler {
      type: "xavier"
    }
  }
}
layer {
  name: "fire3/relu_squeeze1x1"
  type: "ReLU"
  bottom: "fire3/squeeze1x1"
  top: "fire3/squeeze1x1"
}
layer {
  name: "fire3/expand1x1"
  type: "Convolution"
  bottom: "fire3/squeeze1x1"
  top: "fire3/expand1x1"
  convolution_param {
    num_output: 64
    kernel_size: 1
    weight_filler {
      type: "xavier"
    }
  }
}
layer {
  name: "fire3/relu_expand1x1"
  type: "ReLU"
  bottom: "fire3/expand1x1"
  top: "fire3/expand1x1"
}
layer {
  name: "fire3/expand3x3"
  type: "Convolution"
  bottom: "fire3/squeeze1x1"
  top: "fire3/expand3x3"
  convolution_param {
    num_output: 64
    pad: 1
    kernel_size: 3
    weight_filler {
      type: "xavier"
    }
  }
}
layer {
  name: "fire3/relu_expand3x3"
  type: "ReLU"
  bottom: "fire3/expand3x3"
  top: "fire3/expand3x3"
}
layer {
  name: "fire3/concat"
  type: "Concat"
  bottom: "fire3/expand1x1"
  bottom: "fire3/expand3x3"
  top: "fire3/concat"
}
layer {
  name: "pool3"
  type: "Pooling"
  bottom: "fire3/concat"
  top: "pool3"
  pooling_param {
    pool: MAX
    kernel_size: 3
    stride: 2
  }
}
layer {
  name: "fire4/squeeze1x1"
  type: "Convolution"
  bottom: "pool3"
  top: "fire4/squeeze1x1"
  convolution_param {
    num_output: 32
    kernel_size: 1
    weight_filler {
      type: "xavier"
    }
  }
}
layer {
  name: "fire4/relu_squeeze1x1"
  type: "ReLU"
  bottom: "fire4/squeeze1x1"
  top: "fire4/squeeze1x1"
}
layer {
  name: "fire4/expand1x1"
  type: "Convolution"
  bottom: "fire4/squeeze1x1"
  top: "fire4/expand1x1"
  convolution_param {
    num_output: 128
    kernel_size: 1
    weight_filler {
      type: "xavier"
    }
  }
}
layer {
  name: "fire4/relu_expand1x1"
  type: "ReLU"
  bottom: "fire4/expand1x1"
  top: "fire4/expand1x1"
}
layer {
  name: "fire4/expand3x3"
  type: "Convolution"
  bottom: "fire4/squeeze1x1"
  top: "fire4/expand3x3"
  convolution_param {
    num_output: 128
    pad: 1
    kernel_size: 3
    weight_filler {
      type: "xavier"
    }
  }
}
layer {
  name: "fire4/relu_expand3x3"
  type: "ReLU"
  bottom: "fire4/expand3x3"
  top: "fire4/expand3x3"
}
layer {
  name: "fire4/concat"
  type: "Concat"
  bottom: "fire4/expand1x1"
  bottom: "fire4/expand3x3"
  top: "fire4/concat"
}
layer {
  name: "fire5/squeeze1x1"
  type: "Convolution"
  bottom: "fire4/concat"
  top: "fire5/squeeze1x1"
  convolution_param {
    num_output: 32
    kernel_size: 1
    weight_filler {
      type: "xavier"
    }
  }
}
layer {
  name: "fire5/relu_squeeze1x1"
  type: "ReLU"
  bottom: "fire5/squeeze1x1"
  top: "fire5/squeeze1x1"
}
layer {
  name: "fire5/expand1x1"
  type: "Convolution"
  bottom: "fire5/squeeze1x1"
  top: "fire5/expand1x1"
  convolution_param {
    num_output: 128
    kernel_size: 1
    weight_filler {
      type: "xavier"
    }
  }
}
layer {
  name: "fire5/relu_expand1x1"
  type: "ReLU"
  bottom: "fire5/expand1x1"
  top: "fire5/expand1x1"
}
layer {
  name: "fire5/expand3x3"
  type: "Convolution"
  bottom: "fire5/squeeze1x1"
  top: "fire5/expand3x3"
  convolution_param {
    num_output: 128
    pad: 1
    kernel_size: 3
    weight_filler {
      type: "xavier"
    }
  }
}
layer {
  name: "fire5/relu_expand3x3"
  type: "ReLU"
  bottom: "fire5/expand3x3"
  top: "fire5/expand3x3"
}
layer {
  name: "fire5/concat"
  type: "Concat"
  bottom: "fire5/expand1x1"
  bottom: "fire5/expand3x3"
  top: "fire5/concat"
}
layer {
  name: "pool5"
  type: "Pooling"
  bottom: "fire5/concat"
  top: "pool5"
  pooling_param {
    pool: MAX
    kernel_size: 3
    stride: 2
  }
}
layer {
  name: "fire6/squeeze1x1"
  type: "Convolution"
  bottom: "pool5"
  top: "fire6/squeeze1x1"
  convolution_param {
    num_output: 48
    kernel_size: 1
    weight_filler {
      type: "xavier"
    }
  }
}
layer {
  name: "fire6/relu_squeeze1x1"
  type: "ReLU"
  bottom: "fire6/squeeze1x1"
  top: "fire6/squeeze1x1"
}
layer {
  name: "fire6/expand1x1"
  type: "Convolution"
  bottom: "fire6/squeeze1x1"
  top: "fire6/expand1x1"
  convolution_param {
    num_output: 192
    kernel_size: 1
    weight_filler {
      type: "xavier"
    }
  }
}
layer {
  name: "fire6/relu_expand1x1"
  type: "ReLU"
  bottom: "fire6/expand1x1"
  top: "fire6/expand1x1"
}
layer {
  name: "fire6/expand3x3"
  type: "Convolution"
  bottom: "fire6/squeeze1x1"
  top: "fire6/expand3x3"
  convolution_param {
    num_output: 192
    pad: 1
    kernel_size: 3
    weight_filler {
      type: "xavier"
    }
  }
}
layer {
  name: "fire6/relu_expand3x3"
  type: "ReLU"
  bottom: "fire6/expand3x3"
  top: "fire6/expand3x3"
}
layer {
  name: "fire6/concat"
  type: "Concat"
  bottom: "fire6/expand1x1"
  bottom: "fire6/expand3x3"
  top: "fire6/concat"
}
layer {
  name: "fire7/squeeze1x1"
  type: "Convolution"
  bottom: "fire6/concat"
  top: "fire7/squeeze1x1"
  convolution_param {
    num_output: 48
    kernel_size: 1
    weight_filler {
      type: "xavier"
    }
  }
}
layer {
  name: "fire7/relu_squeeze1x1"
  type: "ReLU"
  bottom: "fire7/squeeze1x1"
  top: "fire7/squeeze1x1"
}
layer {
  name: "fire7/expand1x1"
  type: "Convolution"
  bottom: "fire7/squeeze1x1"
  top: "fire7/expand1x1"
  convolution_param {
    num_output: 192
    kernel_size: 1
    weight_filler {
      type: "xavier"
    }
  }
}
layer {
  name: "fire7/relu_expand1x1"
  type: "ReLU"
  bottom: "fire7/expand1x1"
  top: "fire7/expand1x1"
}
layer {
  name: "fire7/expand3x3"
  type: "Convolution"
  bottom: "fire7/squeeze1x1"
  top: "fire7/expand3x3"
  convolution_param {
    num_output: 192
    pad: 1
    kernel_size: 3
    weight_filler {
      type: "xavier"
    }
  }
}
layer {
  name: "fire7/relu_expand3x3"
  type: "ReLU"
  bottom: "fire7/expand3x3"
  top: "fire7/expand3x3"
}
layer {
  name: "fire7/concat"
  type: "Concat"
  bottom: "fire7/expand1x1"
  bottom: "fire7/expand3x3"
  top: "fire7/concat"
}
layer {
  name: "fire8/squeeze1x1"
  type: "Convolution"
  bottom: "fire7/concat"
  top: "fire8/squeeze1x1"
  convolution_param {
    num_output: 64
    kernel_size: 1
    weight_filler {
      type: "xavier"
    }
  }
}
layer {
  name: "fire8/relu_squeeze1x1"
  type: "ReLU"
  bottom: "fire8/squeeze1x1"
  top: "fire8/squeeze1x1"
}
layer {
  name: "fire8/expand1x1"
  type: "Convolution"
  bottom: "fire8/squeeze1x1"
  top: "fire8/expand1x1"
  convolution_param {
    num_output: 256
    kernel_size: 1
    weight_filler {
      type: "xavier"
    }
  }
}
layer {
  name: "fire8/relu_expand1x1"
  type: "ReLU"
  bottom: "fire8/expand1x1"
  top: "fire8/expand1x1"
}
layer {
  name: "fire8/expand3x3"
  type: "Convolution"
  bottom: "fire8/squeeze1x1"
  top: "fire8/expand3x3"
  convolution_param {
    num_output: 256
    pad: 1
    kernel_size: 3
    weight_filler {
      type: "xavier"
    }
  }
}
layer {
  name: "fire8/relu_expand3x3"
  type: "ReLU"
  bottom: "fire8/expand3x3"
  top: "fire8/expand3x3"
}
layer {
  name: "fire8/concat"
  type: "Concat"
  bottom: "fire8/expand1x1"
  bottom: "fire8/expand3x3"
  top: "fire8/concat"
}
layer {
  name: "fire9/squeeze1x1"
  type: "Convolution"
  bottom: "fire8/concat"
  top: "fire9/squeeze1x1"
  convolution_param {
    num_output: 64
    kernel_size: 1
    weight_filler {
      type: "xavier"
    }
  }
}
layer {
  name: "fire9/relu_squeeze1x1"
  type: "ReLU"
  bottom: "fire9/squeeze1x1"
  top: "fire9/squeeze1x1"
}
layer {
  name: "fire9/expand1x1"
  type: "Convolution"
  bottom: "fire9/squeeze1x1"
  top: "fire9/expand1x1"
  convolution_param {
    num_output: 256
    kernel_size: 1
    weight_filler {
      type: "xavier"
    }
  }
}
layer {
  name: "fire9/relu_expand1x1"
  type: "ReLU"
  bottom: "fire9/expand1x1"
  top: "fire9/expand1x1"
}
layer {
  name: "fire9/expand3x3"
  type: "Convolution"
  bottom: "fire9/squeeze1x1"
  top: "fire9/expand3x3"
  convolution_param {
    num_output: 256
    pad: 1
    kernel_size: 3
    weight_filler {
      type: "xavier"
    }
  }
}
layer {
  name: "fire9/relu_expand3x3"
  type: "ReLU"
  bottom: "fire9/expand3x3"
  top: "fire9/expand3x3"
}
layer {
  name: "fire9/concat"
  type: "Concat"
  bottom: "fire9/expand1x1"
  bottom: "fire9/expand3x3"
  top: "fire9/concat"
}
layer {
  name: "drop9"
  type: "Dropout"
  bottom: "fire9/concat"
  top: "fire9/concat"
  dropout_param {
    dropout_ratio: 0.5
  }
}
layer {
  name: "conv10_new"
  type: "Convolution"
  bottom: "fire9/concat"
  top: "conv10_new"
  convolution_param {
    num_output: 196
    kernel_size: 1
    weight_filler {
      type: "gaussian"
      mean: 0
      std: 0.01
    }
  }
}
layer {
  name: "relu_conv10"
  type: "ReLU"
  bottom: "conv10_new"
  top: "conv10_new"
}
layer {
  name: "pool10"
  type: "Pooling"
  bottom: "conv10_new"
  top: "pool10"
  pooling_param {
    pool: AVE
    global_pooling: true
  }
}
layer {
  name: "loss"
  type: "SoftmaxWithLoss"
  bottom: "pool10"
  bottom: "label"
  top: "loss"
}
layer {
  name: "accuracy"
  type: "Accuracy"
  bottom: "pool10"
  bottom: "label"
  top: "accuracy"
  include {
    phase: TEST
  }
}
layer {
  name: "accuracy_top5"
  type: "Accuracy"
  bottom: "pool10"
  bottom: "label"
  top: "accuracy_top5"
  include {
    phase: TEST
  }
  accuracy_param {
    top_k: 5
  }
}
I0424 21:18:56.553068 22667 layer_factory.hpp:77] Creating layer data
I0424 21:18:56.553122 22667 net.cpp:84] Creating Layer data
I0424 21:18:56.553138 22667 net.cpp:380] data -> data
I0424 21:18:56.553169 22667 net.cpp:380] data -> label
I0424 21:18:56.553200 22667 image_data_layer.cpp:38] Opening file ./test.txt
I0424 21:18:56.561342 22667 image_data_layer.cpp:53] Shuffling data
I0424 21:18:56.568244 22667 image_data_layer.cpp:63] A total of 8041 images.
I0424 21:18:56.570367 22667 image_data_layer.cpp:90] output data size: 40,3,227,227
I0424 21:18:56.670967 22667 net.cpp:122] Setting up data
I0424 21:18:56.671025 22667 net.cpp:129] Top shape: 40 3 227 227 (6183480)
I0424 21:18:56.671037 22667 net.cpp:129] Top shape: 40 (40)
I0424 21:18:56.671046 22667 net.cpp:137] Memory required for data: 24734080
I0424 21:18:56.671057 22667 layer_factory.hpp:77] Creating layer label_data_1_split
I0424 21:18:56.671078 22667 net.cpp:84] Creating Layer label_data_1_split
I0424 21:18:56.671087 22667 net.cpp:406] label_data_1_split <- label
I0424 21:18:56.671103 22667 net.cpp:380] label_data_1_split -> label_data_1_split_0
I0424 21:18:56.671123 22667 net.cpp:380] label_data_1_split -> label_data_1_split_1
I0424 21:18:56.671138 22667 net.cpp:380] label_data_1_split -> label_data_1_split_2
I0424 21:18:56.671242 22667 net.cpp:122] Setting up label_data_1_split
I0424 21:18:56.671255 22667 net.cpp:129] Top shape: 40 (40)
I0424 21:18:56.671265 22667 net.cpp:129] Top shape: 40 (40)
I0424 21:18:56.671274 22667 net.cpp:129] Top shape: 40 (40)
I0424 21:18:56.671280 22667 net.cpp:137] Memory required for data: 24734560
I0424 21:18:56.671288 22667 layer_factory.hpp:77] Creating layer conv1
I0424 21:18:56.671308 22667 net.cpp:84] Creating Layer conv1
I0424 21:18:56.671315 22667 net.cpp:406] conv1 <- data
I0424 21:18:56.671326 22667 net.cpp:380] conv1 -> conv1
I0424 21:18:56.673465 22667 net.cpp:122] Setting up conv1
I0424 21:18:56.673492 22667 net.cpp:129] Top shape: 40 64 113 113 (32688640)
I0424 21:18:56.673502 22667 net.cpp:137] Memory required for data: 155489120
I0424 21:18:56.673526 22667 layer_factory.hpp:77] Creating layer relu_conv1
I0424 21:18:56.673538 22667 net.cpp:84] Creating Layer relu_conv1
I0424 21:18:56.673548 22667 net.cpp:406] relu_conv1 <- conv1
I0424 21:18:56.673558 22667 net.cpp:367] relu_conv1 -> conv1 (in-place)
I0424 21:18:56.673789 22667 net.cpp:122] Setting up relu_conv1
I0424 21:18:56.673805 22667 net.cpp:129] Top shape: 40 64 113 113 (32688640)
I0424 21:18:56.673815 22667 net.cpp:137] Memory required for data: 286243680
I0424 21:18:56.673821 22667 layer_factory.hpp:77] Creating layer pool1
I0424 21:18:56.673835 22667 net.cpp:84] Creating Layer pool1
I0424 21:18:56.673843 22667 net.cpp:406] pool1 <- conv1
I0424 21:18:56.673856 22667 net.cpp:380] pool1 -> pool1
I0424 21:18:56.673918 22667 net.cpp:122] Setting up pool1
I0424 21:18:56.673931 22667 net.cpp:129] Top shape: 40 64 56 56 (8028160)
I0424 21:18:56.673939 22667 net.cpp:137] Memory required for data: 318356320
I0424 21:18:56.673948 22667 layer_factory.hpp:77] Creating layer fire2/squeeze1x1
I0424 21:18:56.674011 22667 net.cpp:84] Creating Layer fire2/squeeze1x1
I0424 21:18:56.674021 22667 net.cpp:406] fire2/squeeze1x1 <- pool1
I0424 21:18:56.674036 22667 net.cpp:380] fire2/squeeze1x1 -> fire2/squeeze1x1
I0424 21:18:56.679632 22667 net.cpp:122] Setting up fire2/squeeze1x1
I0424 21:18:56.679694 22667 net.cpp:129] Top shape: 40 16 56 56 (2007040)
I0424 21:18:56.679708 22667 net.cpp:137] Memory required for data: 326384480
I0424 21:18:56.679738 22667 layer_factory.hpp:77] Creating layer fire2/relu_squeeze1x1
I0424 21:18:56.679761 22667 net.cpp:84] Creating Layer fire2/relu_squeeze1x1
I0424 21:18:56.679774 22667 net.cpp:406] fire2/relu_squeeze1x1 <- fire2/squeeze1x1
I0424 21:18:56.679790 22667 net.cpp:367] fire2/relu_squeeze1x1 -> fire2/squeeze1x1 (in-place)
I0424 21:18:56.680119 22667 net.cpp:122] Setting up fire2/relu_squeeze1x1
I0424 21:18:56.680137 22667 net.cpp:129] Top shape: 40 16 56 56 (2007040)
I0424 21:18:56.680145 22667 net.cpp:137] Memory required for data: 334412640
I0424 21:18:56.680153 22667 layer_factory.hpp:77] Creating layer fire2/squeeze1x1_fire2/relu_squeeze1x1_0_split
I0424 21:18:56.680168 22667 net.cpp:84] Creating Layer fire2/squeeze1x1_fire2/relu_squeeze1x1_0_split
I0424 21:18:56.680178 22667 net.cpp:406] fire2/squeeze1x1_fire2/relu_squeeze1x1_0_split <- fire2/squeeze1x1
I0424 21:18:56.680192 22667 net.cpp:380] fire2/squeeze1x1_fire2/relu_squeeze1x1_0_split -> fire2/squeeze1x1_fire2/relu_squeeze1x1_0_split_0
I0424 21:18:56.680212 22667 net.cpp:380] fire2/squeeze1x1_fire2/relu_squeeze1x1_0_split -> fire2/squeeze1x1_fire2/relu_squeeze1x1_0_split_1
I0424 21:18:56.680320 22667 net.cpp:122] Setting up fire2/squeeze1x1_fire2/relu_squeeze1x1_0_split
I0424 21:18:56.680336 22667 net.cpp:129] Top shape: 40 16 56 56 (2007040)
I0424 21:18:56.680347 22667 net.cpp:129] Top shape: 40 16 56 56 (2007040)
I0424 21:18:56.680354 22667 net.cpp:137] Memory required for data: 350468960
I0424 21:18:56.680361 22667 layer_factory.hpp:77] Creating layer fire2/expand1x1
I0424 21:18:56.680387 22667 net.cpp:84] Creating Layer fire2/expand1x1
I0424 21:18:56.680397 22667 net.cpp:406] fire2/expand1x1 <- fire2/squeeze1x1_fire2/relu_squeeze1x1_0_split_0
I0424 21:18:56.680413 22667 net.cpp:380] fire2/expand1x1 -> fire2/expand1x1
I0424 21:18:56.682777 22667 net.cpp:122] Setting up fire2/expand1x1
I0424 21:18:56.682818 22667 net.cpp:129] Top shape: 40 64 56 56 (8028160)
I0424 21:18:56.682840 22667 net.cpp:137] Memory required for data: 382581600
I0424 21:18:56.682864 22667 layer_factory.hpp:77] Creating layer fire2/relu_expand1x1
I0424 21:18:56.682883 22667 net.cpp:84] Creating Layer fire2/relu_expand1x1
I0424 21:18:56.682893 22667 net.cpp:406] fire2/relu_expand1x1 <- fire2/expand1x1
I0424 21:18:56.682909 22667 net.cpp:367] fire2/relu_expand1x1 -> fire2/expand1x1 (in-place)
I0424 21:18:56.683182 22667 net.cpp:122] Setting up fire2/relu_expand1x1
I0424 21:18:56.683199 22667 net.cpp:129] Top shape: 40 64 56 56 (8028160)
I0424 21:18:56.683208 22667 net.cpp:137] Memory required for data: 414694240
I0424 21:18:56.683217 22667 layer_factory.hpp:77] Creating layer fire2/expand3x3
I0424 21:18:56.683238 22667 net.cpp:84] Creating Layer fire2/expand3x3
I0424 21:18:56.683248 22667 net.cpp:406] fire2/expand3x3 <- fire2/squeeze1x1_fire2/relu_squeeze1x1_0_split_1
I0424 21:18:56.683265 22667 net.cpp:380] fire2/expand3x3 -> fire2/expand3x3
I0424 21:18:56.685524 22667 net.cpp:122] Setting up fire2/expand3x3
I0424 21:18:56.685571 22667 net.cpp:129] Top shape: 40 64 56 56 (8028160)
I0424 21:18:56.685580 22667 net.cpp:137] Memory required for data: 446806880
I0424 21:18:56.685600 22667 layer_factory.hpp:77] Creating layer fire2/relu_expand3x3
I0424 21:18:56.685623 22667 net.cpp:84] Creating Layer fire2/relu_expand3x3
I0424 21:18:56.685638 22667 net.cpp:406] fire2/relu_expand3x3 <- fire2/expand3x3
I0424 21:18:56.685652 22667 net.cpp:367] fire2/relu_expand3x3 -> fire2/expand3x3 (in-place)
I0424 21:18:56.686076 22667 net.cpp:122] Setting up fire2/relu_expand3x3
I0424 21:18:56.686094 22667 net.cpp:129] Top shape: 40 64 56 56 (8028160)
I0424 21:18:56.686143 22667 net.cpp:137] Memory required for data: 478919520
I0424 21:18:56.686152 22667 layer_factory.hpp:77] Creating layer fire2/concat
I0424 21:18:56.686164 22667 net.cpp:84] Creating Layer fire2/concat
I0424 21:18:56.686192 22667 net.cpp:406] fire2/concat <- fire2/expand1x1
I0424 21:18:56.686203 22667 net.cpp:406] fire2/concat <- fire2/expand3x3
I0424 21:18:56.686218 22667 net.cpp:380] fire2/concat -> fire2/concat
I0424 21:18:56.686273 22667 net.cpp:122] Setting up fire2/concat
I0424 21:18:56.686286 22667 net.cpp:129] Top shape: 40 128 56 56 (16056320)
I0424 21:18:56.686295 22667 net.cpp:137] Memory required for data: 543144800
I0424 21:18:56.686301 22667 layer_factory.hpp:77] Creating layer fire3/squeeze1x1
I0424 21:18:56.686326 22667 net.cpp:84] Creating Layer fire3/squeeze1x1
I0424 21:18:56.686334 22667 net.cpp:406] fire3/squeeze1x1 <- fire2/concat
I0424 21:18:56.686347 22667 net.cpp:380] fire3/squeeze1x1 -> fire3/squeeze1x1
I0424 21:18:56.688863 22667 net.cpp:122] Setting up fire3/squeeze1x1
I0424 21:18:56.688941 22667 net.cpp:129] Top shape: 40 16 56 56 (2007040)
I0424 21:18:56.688953 22667 net.cpp:137] Memory required for data: 551172960
I0424 21:18:56.689013 22667 layer_factory.hpp:77] Creating layer fire3/relu_squeeze1x1
I0424 21:18:56.689057 22667 net.cpp:84] Creating Layer fire3/relu_squeeze1x1
I0424 21:18:56.689074 22667 net.cpp:406] fire3/relu_squeeze1x1 <- fire3/squeeze1x1
I0424 21:18:56.689100 22667 net.cpp:367] fire3/relu_squeeze1x1 -> fire3/squeeze1x1 (in-place)
I0424 21:18:56.689517 22667 net.cpp:122] Setting up fire3/relu_squeeze1x1
I0424 21:18:56.689538 22667 net.cpp:129] Top shape: 40 16 56 56 (2007040)
I0424 21:18:56.689568 22667 net.cpp:137] Memory required for data: 559201120
I0424 21:18:56.689577 22667 layer_factory.hpp:77] Creating layer fire3/squeeze1x1_fire3/relu_squeeze1x1_0_split
I0424 21:18:56.689594 22667 net.cpp:84] Creating Layer fire3/squeeze1x1_fire3/relu_squeeze1x1_0_split
I0424 21:18:56.689602 22667 net.cpp:406] fire3/squeeze1x1_fire3/relu_squeeze1x1_0_split <- fire3/squeeze1x1
I0424 21:18:56.689620 22667 net.cpp:380] fire3/squeeze1x1_fire3/relu_squeeze1x1_0_split -> fire3/squeeze1x1_fire3/relu_squeeze1x1_0_split_0
I0424 21:18:56.689638 22667 net.cpp:380] fire3/squeeze1x1_fire3/relu_squeeze1x1_0_split -> fire3/squeeze1x1_fire3/relu_squeeze1x1_0_split_1
I0424 21:18:56.689720 22667 net.cpp:122] Setting up fire3/squeeze1x1_fire3/relu_squeeze1x1_0_split
I0424 21:18:56.689736 22667 net.cpp:129] Top shape: 40 16 56 56 (2007040)
I0424 21:18:56.689748 22667 net.cpp:129] Top shape: 40 16 56 56 (2007040)
I0424 21:18:56.689755 22667 net.cpp:137] Memory required for data: 575257440
I0424 21:18:56.689762 22667 layer_factory.hpp:77] Creating layer fire3/expand1x1
I0424 21:18:56.689822 22667 net.cpp:84] Creating Layer fire3/expand1x1
I0424 21:18:56.689833 22667 net.cpp:406] fire3/expand1x1 <- fire3/squeeze1x1_fire3/relu_squeeze1x1_0_split_0
I0424 21:18:56.689844 22667 net.cpp:380] fire3/expand1x1 -> fire3/expand1x1
I0424 21:18:56.692348 22667 net.cpp:122] Setting up fire3/expand1x1
I0424 21:18:56.692394 22667 net.cpp:129] Top shape: 40 64 56 56 (8028160)
I0424 21:18:56.692405 22667 net.cpp:137] Memory required for data: 607370080
I0424 21:18:56.692427 22667 layer_factory.hpp:77] Creating layer fire3/relu_expand1x1
I0424 21:18:56.692448 22667 net.cpp:84] Creating Layer fire3/relu_expand1x1
I0424 21:18:56.692459 22667 net.cpp:406] fire3/relu_expand1x1 <- fire3/expand1x1
I0424 21:18:56.692472 22667 net.cpp:367] fire3/relu_expand1x1 -> fire3/expand1x1 (in-place)
I0424 21:18:56.693619 22667 net.cpp:122] Setting up fire3/relu_expand1x1
I0424 21:18:56.693642 22667 net.cpp:129] Top shape: 40 64 56 56 (8028160)
I0424 21:18:56.693650 22667 net.cpp:137] Memory required for data: 639482720
I0424 21:18:56.693660 22667 layer_factory.hpp:77] Creating layer fire3/expand3x3
I0424 21:18:56.693683 22667 net.cpp:84] Creating Layer fire3/expand3x3
I0424 21:18:56.693694 22667 net.cpp:406] fire3/expand3x3 <- fire3/squeeze1x1_fire3/relu_squeeze1x1_0_split_1
I0424 21:18:56.693711 22667 net.cpp:380] fire3/expand3x3 -> fire3/expand3x3
I0424 21:18:56.696283 22667 net.cpp:122] Setting up fire3/expand3x3
I0424 21:18:56.696336 22667 net.cpp:129] Top shape: 40 64 56 56 (8028160)
I0424 21:18:56.696346 22667 net.cpp:137] Memory required for data: 671595360
I0424 21:18:56.696408 22667 layer_factory.hpp:77] Creating layer fire3/relu_expand3x3
I0424 21:18:56.696431 22667 net.cpp:84] Creating Layer fire3/relu_expand3x3
I0424 21:18:56.696444 22667 net.cpp:406] fire3/relu_expand3x3 <- fire3/expand3x3
I0424 21:18:56.696458 22667 net.cpp:367] fire3/relu_expand3x3 -> fire3/expand3x3 (in-place)
I0424 21:18:56.697157 22667 net.cpp:122] Setting up fire3/relu_expand3x3
I0424 21:18:56.697178 22667 net.cpp:129] Top shape: 40 64 56 56 (8028160)
I0424 21:18:56.697187 22667 net.cpp:137] Memory required for data: 703708000
I0424 21:18:56.697196 22667 layer_factory.hpp:77] Creating layer fire3/concat
I0424 21:18:56.697211 22667 net.cpp:84] Creating Layer fire3/concat
I0424 21:18:56.697221 22667 net.cpp:406] fire3/concat <- fire3/expand1x1
I0424 21:18:56.697229 22667 net.cpp:406] fire3/concat <- fire3/expand3x3
I0424 21:18:56.697244 22667 net.cpp:380] fire3/concat -> fire3/concat
I0424 21:18:56.697300 22667 net.cpp:122] Setting up fire3/concat
I0424 21:18:56.697316 22667 net.cpp:129] Top shape: 40 128 56 56 (16056320)
I0424 21:18:56.697324 22667 net.cpp:137] Memory required for data: 767933280
I0424 21:18:56.697331 22667 layer_factory.hpp:77] Creating layer pool3
I0424 21:18:56.697352 22667 net.cpp:84] Creating Layer pool3
I0424 21:18:56.697361 22667 net.cpp:406] pool3 <- fire3/concat
I0424 21:18:56.697374 22667 net.cpp:380] pool3 -> pool3
I0424 21:18:56.697461 22667 net.cpp:122] Setting up pool3
I0424 21:18:56.697476 22667 net.cpp:129] Top shape: 40 128 28 28 (4014080)
I0424 21:18:56.697486 22667 net.cpp:137] Memory required for data: 783989600
I0424 21:18:56.697494 22667 layer_factory.hpp:77] Creating layer fire4/squeeze1x1
I0424 21:18:56.697540 22667 net.cpp:84] Creating Layer fire4/squeeze1x1
I0424 21:18:56.697549 22667 net.cpp:406] fire4/squeeze1x1 <- pool3
I0424 21:18:56.697569 22667 net.cpp:380] fire4/squeeze1x1 -> fire4/squeeze1x1
I0424 21:18:56.700582 22667 net.cpp:122] Setting up fire4/squeeze1x1
I0424 21:18:56.700686 22667 net.cpp:129] Top shape: 40 32 28 28 (1003520)
I0424 21:18:56.700697 22667 net.cpp:137] Memory required for data: 788003680
I0424 21:18:56.700738 22667 layer_factory.hpp:77] Creating layer fire4/relu_squeeze1x1
I0424 21:18:56.700778 22667 net.cpp:84] Creating Layer fire4/relu_squeeze1x1
I0424 21:18:56.700791 22667 net.cpp:406] fire4/relu_squeeze1x1 <- fire4/squeeze1x1
I0424 21:18:56.700812 22667 net.cpp:367] fire4/relu_squeeze1x1 -> fire4/squeeze1x1 (in-place)
I0424 21:18:56.701202 22667 net.cpp:122] Setting up fire4/relu_squeeze1x1
I0424 21:18:56.701223 22667 net.cpp:129] Top shape: 40 32 28 28 (1003520)
I0424 21:18:56.701231 22667 net.cpp:137] Memory required for data: 792017760
I0424 21:18:56.701241 22667 layer_factory.hpp:77] Creating layer fire4/squeeze1x1_fire4/relu_squeeze1x1_0_split
I0424 21:18:56.701262 22667 net.cpp:84] Creating Layer fire4/squeeze1x1_fire4/relu_squeeze1x1_0_split
I0424 21:18:56.701273 22667 net.cpp:406] fire4/squeeze1x1_fire4/relu_squeeze1x1_0_split <- fire4/squeeze1x1
I0424 21:18:56.701292 22667 net.cpp:380] fire4/squeeze1x1_fire4/relu_squeeze1x1_0_split -> fire4/squeeze1x1_fire4/relu_squeeze1x1_0_split_0
I0424 21:18:56.701313 22667 net.cpp:380] fire4/squeeze1x1_fire4/relu_squeeze1x1_0_split -> fire4/squeeze1x1_fire4/relu_squeeze1x1_0_split_1
I0424 21:18:56.701401 22667 net.cpp:122] Setting up fire4/squeeze1x1_fire4/relu_squeeze1x1_0_split
I0424 21:18:56.701418 22667 net.cpp:129] Top shape: 40 32 28 28 (1003520)
I0424 21:18:56.701431 22667 net.cpp:129] Top shape: 40 32 28 28 (1003520)
I0424 21:18:56.701437 22667 net.cpp:137] Memory required for data: 800045920
I0424 21:18:56.701447 22667 layer_factory.hpp:77] Creating layer fire4/expand1x1
I0424 21:18:56.701480 22667 net.cpp:84] Creating Layer fire4/expand1x1
I0424 21:18:56.701490 22667 net.cpp:406] fire4/expand1x1 <- fire4/squeeze1x1_fire4/relu_squeeze1x1_0_split_0
I0424 21:18:56.701572 22667 net.cpp:380] fire4/expand1x1 -> fire4/expand1x1
I0424 21:18:56.705459 22667 net.cpp:122] Setting up fire4/expand1x1
I0424 21:18:56.705618 22667 net.cpp:129] Top shape: 40 128 28 28 (4014080)
I0424 21:18:56.705708 22667 net.cpp:137] Memory required for data: 816102240
I0424 21:18:56.705796 22667 layer_factory.hpp:77] Creating layer fire4/relu_expand1x1
I0424 21:18:56.705847 22667 net.cpp:84] Creating Layer fire4/relu_expand1x1
I0424 21:18:56.705866 22667 net.cpp:406] fire4/relu_expand1x1 <- fire4/expand1x1
I0424 21:18:56.705896 22667 net.cpp:367] fire4/relu_expand1x1 -> fire4/expand1x1 (in-place)
I0424 21:18:56.706393 22667 net.cpp:122] Setting up fire4/relu_expand1x1
I0424 21:18:56.706418 22667 net.cpp:129] Top shape: 40 128 28 28 (4014080)
I0424 21:18:56.706429 22667 net.cpp:137] Memory required for data: 832158560
I0424 21:18:56.706439 22667 layer_factory.hpp:77] Creating layer fire4/expand3x3
I0424 21:18:56.706476 22667 net.cpp:84] Creating Layer fire4/expand3x3
I0424 21:18:56.706490 22667 net.cpp:406] fire4/expand3x3 <- fire4/squeeze1x1_fire4/relu_squeeze1x1_0_split_1
I0424 21:18:56.706507 22667 net.cpp:380] fire4/expand3x3 -> fire4/expand3x3
I0424 21:18:56.710840 22667 net.cpp:122] Setting up fire4/expand3x3
I0424 21:18:56.711007 22667 net.cpp:129] Top shape: 40 128 28 28 (4014080)
I0424 21:18:56.711021 22667 net.cpp:137] Memory required for data: 848214880
I0424 21:18:56.711071 22667 layer_factory.hpp:77] Creating layer fire4/relu_expand3x3
I0424 21:18:56.711118 22667 net.cpp:84] Creating Layer fire4/relu_expand3x3
I0424 21:18:56.711139 22667 net.cpp:406] fire4/relu_expand3x3 <- fire4/expand3x3
I0424 21:18:56.711179 22667 net.cpp:367] fire4/relu_expand3x3 -> fire4/expand3x3 (in-place)
I0424 21:18:56.711647 22667 net.cpp:122] Setting up fire4/relu_expand3x3
I0424 21:18:56.711670 22667 net.cpp:129] Top shape: 40 128 28 28 (4014080)
I0424 21:18:56.711680 22667 net.cpp:137] Memory required for data: 864271200
I0424 21:18:56.711689 22667 layer_factory.hpp:77] Creating layer fire4/concat
I0424 21:18:56.711706 22667 net.cpp:84] Creating Layer fire4/concat
I0424 21:18:56.711717 22667 net.cpp:406] fire4/concat <- fire4/expand1x1
I0424 21:18:56.711729 22667 net.cpp:406] fire4/concat <- fire4/expand3x3
I0424 21:18:56.711752 22667 net.cpp:380] fire4/concat -> fire4/concat
I0424 21:18:56.711839 22667 net.cpp:122] Setting up fire4/concat
I0424 21:18:56.711854 22667 net.cpp:129] Top shape: 40 256 28 28 (8028160)
I0424 21:18:56.711864 22667 net.cpp:137] Memory required for data: 896383840
I0424 21:18:56.711874 22667 layer_factory.hpp:77] Creating layer fire5/squeeze1x1
I0424 21:18:56.711918 22667 net.cpp:84] Creating Layer fire5/squeeze1x1
I0424 21:18:56.711930 22667 net.cpp:406] fire5/squeeze1x1 <- fire4/concat
I0424 21:18:56.711951 22667 net.cpp:380] fire5/squeeze1x1 -> fire5/squeeze1x1
I0424 21:18:56.716501 22667 net.cpp:122] Setting up fire5/squeeze1x1
I0424 21:18:56.716687 22667 net.cpp:129] Top shape: 40 32 28 28 (1003520)
I0424 21:18:56.716702 22667 net.cpp:137] Memory required for data: 900397920
I0424 21:18:56.716748 22667 layer_factory.hpp:77] Creating layer fire5/relu_squeeze1x1
I0424 21:18:56.716799 22667 net.cpp:84] Creating Layer fire5/relu_squeeze1x1
I0424 21:18:56.716812 22667 net.cpp:406] fire5/relu_squeeze1x1 <- fire5/squeeze1x1
I0424 21:18:56.716832 22667 net.cpp:367] fire5/relu_squeeze1x1 -> fire5/squeeze1x1 (in-place)
I0424 21:18:56.717306 22667 net.cpp:122] Setting up fire5/relu_squeeze1x1
I0424 21:18:56.717332 22667 net.cpp:129] Top shape: 40 32 28 28 (1003520)
I0424 21:18:56.717342 22667 net.cpp:137] Memory required for data: 904412000
I0424 21:18:56.717353 22667 layer_factory.hpp:77] Creating layer fire5/squeeze1x1_fire5/relu_squeeze1x1_0_split
I0424 21:18:56.717427 22667 net.cpp:84] Creating Layer fire5/squeeze1x1_fire5/relu_squeeze1x1_0_split
I0424 21:18:56.717435 22667 net.cpp:406] fire5/squeeze1x1_fire5/relu_squeeze1x1_0_split <- fire5/squeeze1x1
I0424 21:18:56.717453 22667 net.cpp:380] fire5/squeeze1x1_fire5/relu_squeeze1x1_0_split -> fire5/squeeze1x1_fire5/relu_squeeze1x1_0_split_0
I0424 21:18:56.717587 22667 net.cpp:380] fire5/squeeze1x1_fire5/relu_squeeze1x1_0_split -> fire5/squeeze1x1_fire5/relu_squeeze1x1_0_split_1
I0424 21:18:56.717746 22667 net.cpp:122] Setting up fire5/squeeze1x1_fire5/relu_squeeze1x1_0_split
I0424 21:18:56.717813 22667 net.cpp:129] Top shape: 40 32 28 28 (1003520)
I0424 21:18:56.717824 22667 net.cpp:129] Top shape: 40 32 28 28 (1003520)
I0424 21:18:56.717831 22667 net.cpp:137] Memory required for data: 912440160
I0424 21:18:56.717840 22667 layer_factory.hpp:77] Creating layer fire5/expand1x1
I0424 21:18:56.717880 22667 net.cpp:84] Creating Layer fire5/expand1x1
I0424 21:18:56.717888 22667 net.cpp:406] fire5/expand1x1 <- fire5/squeeze1x1_fire5/relu_squeeze1x1_0_split_0
I0424 21:18:56.717906 22667 net.cpp:380] fire5/expand1x1 -> fire5/expand1x1
I0424 21:18:56.721640 22667 net.cpp:122] Setting up fire5/expand1x1
I0424 21:18:56.721810 22667 net.cpp:129] Top shape: 40 128 28 28 (4014080)
I0424 21:18:56.721823 22667 net.cpp:137] Memory required for data: 928496480
I0424 21:18:56.721874 22667 layer_factory.hpp:77] Creating layer fire5/relu_expand1x1
I0424 21:18:56.721932 22667 net.cpp:84] Creating Layer fire5/relu_expand1x1
I0424 21:18:56.721952 22667 net.cpp:406] fire5/relu_expand1x1 <- fire5/expand1x1
I0424 21:18:56.721981 22667 net.cpp:367] fire5/relu_expand1x1 -> fire5/expand1x1 (in-place)
I0424 21:18:56.724755 22667 net.cpp:122] Setting up fire5/relu_expand1x1
I0424 21:18:56.724896 22667 net.cpp:129] Top shape: 40 128 28 28 (4014080)
I0424 21:18:56.724910 22667 net.cpp:137] Memory required for data: 944552800
I0424 21:18:56.724928 22667 layer_factory.hpp:77] Creating layer fire5/expand3x3
I0424 21:18:56.725001 22667 net.cpp:84] Creating Layer fire5/expand3x3
I0424 21:18:56.725018 22667 net.cpp:406] fire5/expand3x3 <- fire5/squeeze1x1_fire5/relu_squeeze1x1_0_split_1
I0424 21:18:56.725054 22667 net.cpp:380] fire5/expand3x3 -> fire5/expand3x3
I0424 21:18:56.730216 22667 net.cpp:122] Setting up fire5/expand3x3
I0424 21:18:56.730391 22667 net.cpp:129] Top shape: 40 128 28 28 (4014080)
I0424 21:18:56.730406 22667 net.cpp:137] Memory required for data: 960609120
I0424 21:18:56.730453 22667 layer_factory.hpp:77] Creating layer fire5/relu_expand3x3
I0424 21:18:56.730490 22667 net.cpp:84] Creating Layer fire5/relu_expand3x3
I0424 21:18:56.730510 22667 net.cpp:406] fire5/relu_expand3x3 <- fire5/expand3x3
I0424 21:18:56.730538 22667 net.cpp:367] fire5/relu_expand3x3 -> fire5/expand3x3 (in-place)
I0424 21:18:56.731029 22667 net.cpp:122] Setting up fire5/relu_expand3x3
I0424 21:18:56.731052 22667 net.cpp:129] Top shape: 40 128 28 28 (4014080)
I0424 21:18:56.731062 22667 net.cpp:137] Memory required for data: 976665440
I0424 21:18:56.731071 22667 layer_factory.hpp:77] Creating layer fire5/concat
I0424 21:18:56.731091 22667 net.cpp:84] Creating Layer fire5/concat
I0424 21:18:56.731101 22667 net.cpp:406] fire5/concat <- fire5/expand1x1
I0424 21:18:56.731112 22667 net.cpp:406] fire5/concat <- fire5/expand3x3
I0424 21:18:56.731128 22667 net.cpp:380] fire5/concat -> fire5/concat
I0424 21:18:56.731205 22667 net.cpp:122] Setting up fire5/concat
I0424 21:18:56.731225 22667 net.cpp:129] Top shape: 40 256 28 28 (8028160)
I0424 21:18:56.731235 22667 net.cpp:137] Memory required for data: 1008778080
I0424 21:18:56.731243 22667 layer_factory.hpp:77] Creating layer pool5
I0424 21:18:56.731264 22667 net.cpp:84] Creating Layer pool5
I0424 21:18:56.731274 22667 net.cpp:406] pool5 <- fire5/concat
I0424 21:18:56.731288 22667 net.cpp:380] pool5 -> pool5
I0424 21:18:56.731520 22667 net.cpp:122] Setting up pool5
I0424 21:18:56.731546 22667 net.cpp:129] Top shape: 40 256 14 14 (2007040)
I0424 21:18:56.731555 22667 net.cpp:137] Memory required for data: 1016806240
I0424 21:18:56.731564 22667 layer_factory.hpp:77] Creating layer fire6/squeeze1x1
I0424 21:18:56.731600 22667 net.cpp:84] Creating Layer fire6/squeeze1x1
I0424 21:18:56.731613 22667 net.cpp:406] fire6/squeeze1x1 <- pool5
I0424 21:18:56.731626 22667 net.cpp:380] fire6/squeeze1x1 -> fire6/squeeze1x1
I0424 21:18:56.736008 22667 net.cpp:122] Setting up fire6/squeeze1x1
I0424 21:18:56.736219 22667 net.cpp:129] Top shape: 40 48 14 14 (376320)
I0424 21:18:56.736232 22667 net.cpp:137] Memory required for data: 1018311520
I0424 21:18:56.736315 22667 layer_factory.hpp:77] Creating layer fire6/relu_squeeze1x1
I0424 21:18:56.736349 22667 net.cpp:84] Creating Layer fire6/relu_squeeze1x1
I0424 21:18:56.736366 22667 net.cpp:406] fire6/relu_squeeze1x1 <- fire6/squeeze1x1
I0424 21:18:56.736397 22667 net.cpp:367] fire6/relu_squeeze1x1 -> fire6/squeeze1x1 (in-place)
I0424 21:18:56.736874 22667 net.cpp:122] Setting up fire6/relu_squeeze1x1
I0424 21:18:56.736901 22667 net.cpp:129] Top shape: 40 48 14 14 (376320)
I0424 21:18:56.736907 22667 net.cpp:137] Memory required for data: 1019816800
I0424 21:18:56.736918 22667 layer_factory.hpp:77] Creating layer fire6/squeeze1x1_fire6/relu_squeeze1x1_0_split
I0424 21:18:56.736939 22667 net.cpp:84] Creating Layer fire6/squeeze1x1_fire6/relu_squeeze1x1_0_split
I0424 21:18:56.736948 22667 net.cpp:406] fire6/squeeze1x1_fire6/relu_squeeze1x1_0_split <- fire6/squeeze1x1
I0424 21:18:56.736968 22667 net.cpp:380] fire6/squeeze1x1_fire6/relu_squeeze1x1_0_split -> fire6/squeeze1x1_fire6/relu_squeeze1x1_0_split_0
I0424 21:18:56.736989 22667 net.cpp:380] fire6/squeeze1x1_fire6/relu_squeeze1x1_0_split -> fire6/squeeze1x1_fire6/relu_squeeze1x1_0_split_1
I0424 21:18:56.737195 22667 net.cpp:122] Setting up fire6/squeeze1x1_fire6/relu_squeeze1x1_0_split
I0424 21:18:56.737221 22667 net.cpp:129] Top shape: 40 48 14 14 (376320)
I0424 21:18:56.737229 22667 net.cpp:129] Top shape: 40 48 14 14 (376320)
I0424 21:18:56.737236 22667 net.cpp:137] Memory required for data: 1022827360
I0424 21:18:56.737243 22667 layer_factory.hpp:77] Creating layer fire6/expand1x1
I0424 21:18:56.737291 22667 net.cpp:84] Creating Layer fire6/expand1x1
I0424 21:18:56.737303 22667 net.cpp:406] fire6/expand1x1 <- fire6/squeeze1x1_fire6/relu_squeeze1x1_0_split_0
I0424 21:18:56.737316 22667 net.cpp:380] fire6/expand1x1 -> fire6/expand1x1
I0424 21:18:56.741895 22667 net.cpp:122] Setting up fire6/expand1x1
I0424 21:18:56.742065 22667 net.cpp:129] Top shape: 40 192 14 14 (1505280)
I0424 21:18:56.742082 22667 net.cpp:137] Memory required for data: 1028848480
I0424 21:18:56.742127 22667 layer_factory.hpp:77] Creating layer fire6/relu_expand1x1
I0424 21:18:56.742172 22667 net.cpp:84] Creating Layer fire6/relu_expand1x1
I0424 21:18:56.742193 22667 net.cpp:406] fire6/relu_expand1x1 <- fire6/expand1x1
I0424 21:18:56.742233 22667 net.cpp:367] fire6/relu_expand1x1 -> fire6/expand1x1 (in-place)
I0424 21:18:56.742697 22667 net.cpp:122] Setting up fire6/relu_expand1x1
I0424 21:18:56.742728 22667 net.cpp:129] Top shape: 40 192 14 14 (1505280)
I0424 21:18:56.742738 22667 net.cpp:137] Memory required for data: 1034869600
I0424 21:18:56.742753 22667 layer_factory.hpp:77] Creating layer fire6/expand3x3
I0424 21:18:56.742810 22667 net.cpp:84] Creating Layer fire6/expand3x3
I0424 21:18:56.742825 22667 net.cpp:406] fire6/expand3x3 <- fire6/squeeze1x1_fire6/relu_squeeze1x1_0_split_1
I0424 21:18:56.742854 22667 net.cpp:380] fire6/expand3x3 -> fire6/expand3x3
I0424 21:18:56.753566 22667 net.cpp:122] Setting up fire6/expand3x3
I0424 21:18:56.753680 22667 net.cpp:129] Top shape: 40 192 14 14 (1505280)
I0424 21:18:56.753690 22667 net.cpp:137] Memory required for data: 1040890720
I0424 21:18:56.753722 22667 layer_factory.hpp:77] Creating layer fire6/relu_expand3x3
I0424 21:18:56.753756 22667 net.cpp:84] Creating Layer fire6/relu_expand3x3
I0424 21:18:56.753772 22667 net.cpp:406] fire6/relu_expand3x3 <- fire6/expand3x3
I0424 21:18:56.753796 22667 net.cpp:367] fire6/relu_expand3x3 -> fire6/expand3x3 (in-place)
I0424 21:18:56.754307 22667 net.cpp:122] Setting up fire6/relu_expand3x3
I0424 21:18:56.754329 22667 net.cpp:129] Top shape: 40 192 14 14 (1505280)
I0424 21:18:56.754338 22667 net.cpp:137] Memory required for data: 1046911840
I0424 21:18:56.754345 22667 layer_factory.hpp:77] Creating layer fire6/concat
I0424 21:18:56.754365 22667 net.cpp:84] Creating Layer fire6/concat
I0424 21:18:56.754372 22667 net.cpp:406] fire6/concat <- fire6/expand1x1
I0424 21:18:56.754441 22667 net.cpp:406] fire6/concat <- fire6/expand3x3
I0424 21:18:56.754457 22667 net.cpp:380] fire6/concat -> fire6/concat
I0424 21:18:56.754698 22667 net.cpp:122] Setting up fire6/concat
I0424 21:18:56.754716 22667 net.cpp:129] Top shape: 40 384 14 14 (3010560)
I0424 21:18:56.754722 22667 net.cpp:137] Memory required for data: 1058954080
I0424 21:18:56.754729 22667 layer_factory.hpp:77] Creating layer fire7/squeeze1x1
I0424 21:18:56.754765 22667 net.cpp:84] Creating Layer fire7/squeeze1x1
I0424 21:18:56.754771 22667 net.cpp:406] fire7/squeeze1x1 <- fire6/concat
I0424 21:18:56.754786 22667 net.cpp:380] fire7/squeeze1x1 -> fire7/squeeze1x1
I0424 21:18:56.770226 22667 net.cpp:122] Setting up fire7/squeeze1x1
I0424 21:18:56.770380 22667 net.cpp:129] Top shape: 40 48 14 14 (376320)
I0424 21:18:56.770391 22667 net.cpp:137] Memory required for data: 1060459360
I0424 21:18:56.770473 22667 layer_factory.hpp:77] Creating layer fire7/relu_squeeze1x1
I0424 21:18:56.770546 22667 net.cpp:84] Creating Layer fire7/relu_squeeze1x1
I0424 21:18:56.770570 22667 net.cpp:406] fire7/relu_squeeze1x1 <- fire7/squeeze1x1
I0424 21:18:56.770598 22667 net.cpp:367] fire7/relu_squeeze1x1 -> fire7/squeeze1x1 (in-place)
I0424 21:18:56.771003 22667 net.cpp:122] Setting up fire7/relu_squeeze1x1
I0424 21:18:56.771030 22667 net.cpp:129] Top shape: 40 48 14 14 (376320)
I0424 21:18:56.771039 22667 net.cpp:137] Memory required for data: 1061964640
I0424 21:18:56.771046 22667 layer_factory.hpp:77] Creating layer fire7/squeeze1x1_fire7/relu_squeeze1x1_0_split
I0424 21:18:56.771064 22667 net.cpp:84] Creating Layer fire7/squeeze1x1_fire7/relu_squeeze1x1_0_split
I0424 21:18:56.771071 22667 net.cpp:406] fire7/squeeze1x1_fire7/relu_squeeze1x1_0_split <- fire7/squeeze1x1
I0424 21:18:56.771090 22667 net.cpp:380] fire7/squeeze1x1_fire7/relu_squeeze1x1_0_split -> fire7/squeeze1x1_fire7/relu_squeeze1x1_0_split_0
I0424 21:18:56.771108 22667 net.cpp:380] fire7/squeeze1x1_fire7/relu_squeeze1x1_0_split -> fire7/squeeze1x1_fire7/relu_squeeze1x1_0_split_1
I0424 21:18:56.771320 22667 net.cpp:122] Setting up fire7/squeeze1x1_fire7/relu_squeeze1x1_0_split
I0424 21:18:56.771333 22667 net.cpp:129] Top shape: 40 48 14 14 (376320)
I0424 21:18:56.771342 22667 net.cpp:129] Top shape: 40 48 14 14 (376320)
I0424 21:18:56.771349 22667 net.cpp:137] Memory required for data: 1064975200
I0424 21:18:56.771356 22667 layer_factory.hpp:77] Creating layer fire7/expand1x1
I0424 21:18:56.771394 22667 net.cpp:84] Creating Layer fire7/expand1x1
I0424 21:18:56.771427 22667 net.cpp:406] fire7/expand1x1 <- fire7/squeeze1x1_fire7/relu_squeeze1x1_0_split_0
I0424 21:18:56.771471 22667 net.cpp:380] fire7/expand1x1 -> fire7/expand1x1
I0424 21:18:56.781857 22667 net.cpp:122] Setting up fire7/expand1x1
I0424 21:18:56.782021 22667 net.cpp:129] Top shape: 40 192 14 14 (1505280)
I0424 21:18:56.782047 22667 net.cpp:137] Memory required for data: 1070996320
I0424 21:18:56.782117 22667 layer_factory.hpp:77] Creating layer fire7/relu_expand1x1
I0424 21:18:56.782186 22667 net.cpp:84] Creating Layer fire7/relu_expand1x1
I0424 21:18:56.782213 22667 net.cpp:406] fire7/relu_expand1x1 <- fire7/expand1x1
I0424 21:18:56.782253 22667 net.cpp:367] fire7/relu_expand1x1 -> fire7/expand1x1 (in-place)
I0424 21:18:56.791333 22667 net.cpp:122] Setting up fire7/relu_expand1x1
I0424 21:18:56.791486 22667 net.cpp:129] Top shape: 40 192 14 14 (1505280)
I0424 21:18:56.791496 22667 net.cpp:137] Memory required for data: 1077017440
I0424 21:18:56.791515 22667 layer_factory.hpp:77] Creating layer fire7/expand3x3
I0424 21:18:56.791605 22667 net.cpp:84] Creating Layer fire7/expand3x3
I0424 21:18:56.791635 22667 net.cpp:406] fire7/expand3x3 <- fire7/squeeze1x1_fire7/relu_squeeze1x1_0_split_1
I0424 21:18:56.791687 22667 net.cpp:380] fire7/expand3x3 -> fire7/expand3x3
I0424 21:18:56.798928 22667 net.cpp:122] Setting up fire7/expand3x3
I0424 21:18:56.799070 22667 net.cpp:129] Top shape: 40 192 14 14 (1505280)
I0424 21:18:56.799084 22667 net.cpp:137] Memory required for data: 1083038560
I0424 21:18:56.799234 22667 layer_factory.hpp:77] Creating layer fire7/relu_expand3x3
I0424 21:18:56.799283 22667 net.cpp:84] Creating Layer fire7/relu_expand3x3
I0424 21:18:56.799302 22667 net.cpp:406] fire7/relu_expand3x3 <- fire7/expand3x3
I0424 21:18:56.799374 22667 net.cpp:367] fire7/relu_expand3x3 -> fire7/expand3x3 (in-place)
I0424 21:18:56.800303 22667 net.cpp:122] Setting up fire7/relu_expand3x3
I0424 21:18:56.800352 22667 net.cpp:129] Top shape: 40 192 14 14 (1505280)
I0424 21:18:56.800360 22667 net.cpp:137] Memory required for data: 1089059680
I0424 21:18:56.800371 22667 layer_factory.hpp:77] Creating layer fire7/concat
I0424 21:18:56.800397 22667 net.cpp:84] Creating Layer fire7/concat
I0424 21:18:56.800407 22667 net.cpp:406] fire7/concat <- fire7/expand1x1
I0424 21:18:56.800422 22667 net.cpp:406] fire7/concat <- fire7/expand3x3
I0424 21:18:56.800436 22667 net.cpp:380] fire7/concat -> fire7/concat
I0424 21:18:56.800706 22667 net.cpp:122] Setting up fire7/concat
I0424 21:18:56.800729 22667 net.cpp:129] Top shape: 40 384 14 14 (3010560)
I0424 21:18:56.800740 22667 net.cpp:137] Memory required for data: 1101101920
I0424 21:18:56.800750 22667 layer_factory.hpp:77] Creating layer fire8/squeeze1x1
I0424 21:18:56.800791 22667 net.cpp:84] Creating Layer fire8/squeeze1x1
I0424 21:18:56.800801 22667 net.cpp:406] fire8/squeeze1x1 <- fire7/concat
I0424 21:18:56.800817 22667 net.cpp:380] fire8/squeeze1x1 -> fire8/squeeze1x1
I0424 21:18:56.804771 22667 net.cpp:122] Setting up fire8/squeeze1x1
I0424 21:18:56.804857 22667 net.cpp:129] Top shape: 40 64 14 14 (501760)
I0424 21:18:56.804864 22667 net.cpp:137] Memory required for data: 1103108960
I0424 21:18:56.804893 22667 layer_factory.hpp:77] Creating layer fire8/relu_squeeze1x1
I0424 21:18:56.804924 22667 net.cpp:84] Creating Layer fire8/relu_squeeze1x1
I0424 21:18:56.804934 22667 net.cpp:406] fire8/relu_squeeze1x1 <- fire8/squeeze1x1
I0424 21:18:56.804950 22667 net.cpp:367] fire8/relu_squeeze1x1 -> fire8/squeeze1x1 (in-place)
I0424 21:18:56.805243 22667 net.cpp:122] Setting up fire8/relu_squeeze1x1
I0424 21:18:56.805264 22667 net.cpp:129] Top shape: 40 64 14 14 (501760)
I0424 21:18:56.805270 22667 net.cpp:137] Memory required for data: 1105116000
I0424 21:18:56.805276 22667 layer_factory.hpp:77] Creating layer fire8/squeeze1x1_fire8/relu_squeeze1x1_0_split
I0424 21:18:56.805289 22667 net.cpp:84] Creating Layer fire8/squeeze1x1_fire8/relu_squeeze1x1_0_split
I0424 21:18:56.805294 22667 net.cpp:406] fire8/squeeze1x1_fire8/relu_squeeze1x1_0_split <- fire8/squeeze1x1
I0424 21:18:56.805306 22667 net.cpp:380] fire8/squeeze1x1_fire8/relu_squeeze1x1_0_split -> fire8/squeeze1x1_fire8/relu_squeeze1x1_0_split_0
I0424 21:18:56.805322 22667 net.cpp:380] fire8/squeeze1x1_fire8/relu_squeeze1x1_0_split -> fire8/squeeze1x1_fire8/relu_squeeze1x1_0_split_1
I0424 21:18:56.805446 22667 net.cpp:122] Setting up fire8/squeeze1x1_fire8/relu_squeeze1x1_0_split
I0424 21:18:56.805460 22667 net.cpp:129] Top shape: 40 64 14 14 (501760)
I0424 21:18:56.805469 22667 net.cpp:129] Top shape: 40 64 14 14 (501760)
I0424 21:18:56.805474 22667 net.cpp:137] Memory required for data: 1109130080
I0424 21:18:56.805521 22667 layer_factory.hpp:77] Creating layer fire8/expand1x1
I0424 21:18:56.805558 22667 net.cpp:84] Creating Layer fire8/expand1x1
I0424 21:18:56.805563 22667 net.cpp:406] fire8/expand1x1 <- fire8/squeeze1x1_fire8/relu_squeeze1x1_0_split_0
I0424 21:18:56.805575 22667 net.cpp:380] fire8/expand1x1 -> fire8/expand1x1
I0424 21:18:56.807842 22667 net.cpp:122] Setting up fire8/expand1x1
I0424 21:18:56.807951 22667 net.cpp:129] Top shape: 40 256 14 14 (2007040)
I0424 21:18:56.807961 22667 net.cpp:137] Memory required for data: 1117158240
I0424 21:18:56.808001 22667 layer_factory.hpp:77] Creating layer fire8/relu_expand1x1
I0424 21:18:56.808023 22667 net.cpp:84] Creating Layer fire8/relu_expand1x1
I0424 21:18:56.808033 22667 net.cpp:406] fire8/relu_expand1x1 <- fire8/expand1x1
I0424 21:18:56.808043 22667 net.cpp:367] fire8/relu_expand1x1 -> fire8/expand1x1 (in-place)
I0424 21:18:56.808296 22667 net.cpp:122] Setting up fire8/relu_expand1x1
I0424 21:18:56.808452 22667 net.cpp:129] Top shape: 40 256 14 14 (2007040)
I0424 21:18:56.808460 22667 net.cpp:137] Memory required for data: 1125186400
I0424 21:18:56.808522 22667 layer_factory.hpp:77] Creating layer fire8/expand3x3
I0424 21:18:56.808553 22667 net.cpp:84] Creating Layer fire8/expand3x3
I0424 21:18:56.808562 22667 net.cpp:406] fire8/expand3x3 <- fire8/squeeze1x1_fire8/relu_squeeze1x1_0_split_1
I0424 21:18:56.808573 22667 net.cpp:380] fire8/expand3x3 -> fire8/expand3x3
I0424 21:18:56.821053 22667 net.cpp:122] Setting up fire8/expand3x3
I0424 21:18:56.821197 22667 net.cpp:129] Top shape: 40 256 14 14 (2007040)
I0424 21:18:56.821207 22667 net.cpp:137] Memory required for data: 1133214560
I0424 21:18:56.821238 22667 layer_factory.hpp:77] Creating layer fire8/relu_expand3x3
I0424 21:18:56.821285 22667 net.cpp:84] Creating Layer fire8/relu_expand3x3
I0424 21:18:56.821306 22667 net.cpp:406] fire8/relu_expand3x3 <- fire8/expand3x3
I0424 21:18:56.821331 22667 net.cpp:367] fire8/relu_expand3x3 -> fire8/expand3x3 (in-place)
I0424 21:18:56.821959 22667 net.cpp:122] Setting up fire8/relu_expand3x3
I0424 21:18:56.821980 22667 net.cpp:129] Top shape: 40 256 14 14 (2007040)
I0424 21:18:56.821985 22667 net.cpp:137] Memory required for data: 1141242720
I0424 21:18:56.821995 22667 layer_factory.hpp:77] Creating layer fire8/concat
I0424 21:18:56.822017 22667 net.cpp:84] Creating Layer fire8/concat
I0424 21:18:56.822028 22667 net.cpp:406] fire8/concat <- fire8/expand1x1
I0424 21:18:56.822041 22667 net.cpp:406] fire8/concat <- fire8/expand3x3
I0424 21:18:56.822060 22667 net.cpp:380] fire8/concat -> fire8/concat
I0424 21:18:56.822275 22667 net.cpp:122] Setting up fire8/concat
I0424 21:18:56.822293 22667 net.cpp:129] Top shape: 40 512 14 14 (4014080)
I0424 21:18:56.822296 22667 net.cpp:137] Memory required for data: 1157299040
I0424 21:18:56.822302 22667 layer_factory.hpp:77] Creating layer fire9/squeeze1x1
I0424 21:18:56.822362 22667 net.cpp:84] Creating Layer fire9/squeeze1x1
I0424 21:18:56.822379 22667 net.cpp:406] fire9/squeeze1x1 <- fire8/concat
I0424 21:18:56.822396 22667 net.cpp:380] fire9/squeeze1x1 -> fire9/squeeze1x1
I0424 21:18:56.826380 22667 net.cpp:122] Setting up fire9/squeeze1x1
I0424 21:18:56.826490 22667 net.cpp:129] Top shape: 40 64 14 14 (501760)
I0424 21:18:56.826496 22667 net.cpp:137] Memory required for data: 1159306080
I0424 21:18:56.826534 22667 layer_factory.hpp:77] Creating layer fire9/relu_squeeze1x1
I0424 21:18:56.826619 22667 net.cpp:84] Creating Layer fire9/relu_squeeze1x1
I0424 21:18:56.826630 22667 net.cpp:406] fire9/relu_squeeze1x1 <- fire9/squeeze1x1
I0424 21:18:56.826656 22667 net.cpp:367] fire9/relu_squeeze1x1 -> fire9/squeeze1x1 (in-place)
I0424 21:18:56.826894 22667 net.cpp:122] Setting up fire9/relu_squeeze1x1
I0424 21:18:56.826913 22667 net.cpp:129] Top shape: 40 64 14 14 (501760)
I0424 21:18:56.826918 22667 net.cpp:137] Memory required for data: 1161313120
I0424 21:18:56.826926 22667 layer_factory.hpp:77] Creating layer fire9/squeeze1x1_fire9/relu_squeeze1x1_0_split
I0424 21:18:56.826941 22667 net.cpp:84] Creating Layer fire9/squeeze1x1_fire9/relu_squeeze1x1_0_split
I0424 21:18:56.826946 22667 net.cpp:406] fire9/squeeze1x1_fire9/relu_squeeze1x1_0_split <- fire9/squeeze1x1
I0424 21:18:56.826959 22667 net.cpp:380] fire9/squeeze1x1_fire9/relu_squeeze1x1_0_split -> fire9/squeeze1x1_fire9/relu_squeeze1x1_0_split_0
I0424 21:18:56.826973 22667 net.cpp:380] fire9/squeeze1x1_fire9/relu_squeeze1x1_0_split -> fire9/squeeze1x1_fire9/relu_squeeze1x1_0_split_1
I0424 21:18:56.827107 22667 net.cpp:122] Setting up fire9/squeeze1x1_fire9/relu_squeeze1x1_0_split
I0424 21:18:56.827117 22667 net.cpp:129] Top shape: 40 64 14 14 (501760)
I0424 21:18:56.827124 22667 net.cpp:129] Top shape: 40 64 14 14 (501760)
I0424 21:18:56.827128 22667 net.cpp:137] Memory required for data: 1165327200
I0424 21:18:56.827134 22667 layer_factory.hpp:77] Creating layer fire9/expand1x1
I0424 21:18:56.827157 22667 net.cpp:84] Creating Layer fire9/expand1x1
I0424 21:18:56.827162 22667 net.cpp:406] fire9/expand1x1 <- fire9/squeeze1x1_fire9/relu_squeeze1x1_0_split_0
I0424 21:18:56.827213 22667 net.cpp:380] fire9/expand1x1 -> fire9/expand1x1
I0424 21:18:56.830976 22667 net.cpp:122] Setting up fire9/expand1x1
I0424 21:18:56.837457 22667 net.cpp:129] Top shape: 40 256 14 14 (2007040)
I0424 21:18:56.837545 22667 net.cpp:137] Memory required for data: 1173355360
I0424 21:18:56.837618 22667 layer_factory.hpp:77] Creating layer fire9/relu_expand1x1
I0424 21:18:56.837683 22667 net.cpp:84] Creating Layer fire9/relu_expand1x1
I0424 21:18:56.837713 22667 net.cpp:406] fire9/relu_expand1x1 <- fire9/expand1x1
I0424 21:18:56.837779 22667 net.cpp:367] fire9/relu_expand1x1 -> fire9/expand1x1 (in-place)
I0424 21:18:56.843420 22667 net.cpp:122] Setting up fire9/relu_expand1x1
I0424 21:18:56.843554 22667 net.cpp:129] Top shape: 40 256 14 14 (2007040)
I0424 21:18:56.843569 22667 net.cpp:137] Memory required for data: 1181383520
I0424 21:18:56.843590 22667 layer_factory.hpp:77] Creating layer fire9/expand3x3
I0424 21:18:56.843668 22667 net.cpp:84] Creating Layer fire9/expand3x3
I0424 21:18:56.843689 22667 net.cpp:406] fire9/expand3x3 <- fire9/squeeze1x1_fire9/relu_squeeze1x1_0_split_1
I0424 21:18:56.843726 22667 net.cpp:380] fire9/expand3x3 -> fire9/expand3x3
I0424 21:18:56.857563 22667 net.cpp:122] Setting up fire9/expand3x3
I0424 21:18:56.857655 22667 net.cpp:129] Top shape: 40 256 14 14 (2007040)
I0424 21:18:56.857666 22667 net.cpp:137] Memory required for data: 1189411680
I0424 21:18:56.857707 22667 layer_factory.hpp:77] Creating layer fire9/relu_expand3x3
I0424 21:18:56.857754 22667 net.cpp:84] Creating Layer fire9/relu_expand3x3
I0424 21:18:56.857774 22667 net.cpp:406] fire9/relu_expand3x3 <- fire9/expand3x3
I0424 21:18:56.857794 22667 net.cpp:367] fire9/relu_expand3x3 -> fire9/expand3x3 (in-place)
I0424 21:18:56.858252 22667 net.cpp:122] Setting up fire9/relu_expand3x3
I0424 21:18:56.858276 22667 net.cpp:129] Top shape: 40 256 14 14 (2007040)
I0424 21:18:56.858283 22667 net.cpp:137] Memory required for data: 1197439840
I0424 21:18:56.858290 22667 layer_factory.hpp:77] Creating layer fire9/concat
I0424 21:18:56.858307 22667 net.cpp:84] Creating Layer fire9/concat
I0424 21:18:56.858319 22667 net.cpp:406] fire9/concat <- fire9/expand1x1
I0424 21:18:56.858330 22667 net.cpp:406] fire9/concat <- fire9/expand3x3
I0424 21:18:56.858342 22667 net.cpp:380] fire9/concat -> fire9/concat
I0424 21:18:56.858470 22667 net.cpp:122] Setting up fire9/concat
I0424 21:18:56.858482 22667 net.cpp:129] Top shape: 40 512 14 14 (4014080)
I0424 21:18:56.858490 22667 net.cpp:137] Memory required for data: 1213496160
I0424 21:18:56.858497 22667 layer_factory.hpp:77] Creating layer drop9
I0424 21:18:56.858516 22667 net.cpp:84] Creating Layer drop9
I0424 21:18:56.858526 22667 net.cpp:406] drop9 <- fire9/concat
I0424 21:18:56.858541 22667 net.cpp:367] drop9 -> fire9/concat (in-place)
I0424 21:18:56.858618 22667 net.cpp:122] Setting up drop9
I0424 21:18:56.858631 22667 net.cpp:129] Top shape: 40 512 14 14 (4014080)
I0424 21:18:56.858655 22667 net.cpp:137] Memory required for data: 1229552480
I0424 21:18:56.858662 22667 layer_factory.hpp:77] Creating layer conv10_new
I0424 21:18:56.858685 22667 net.cpp:84] Creating Layer conv10_new
I0424 21:18:56.858695 22667 net.cpp:406] conv10_new <- fire9/concat
I0424 21:18:56.858709 22667 net.cpp:380] conv10_new -> conv10_new
I0424 21:18:56.863181 22667 net.cpp:122] Setting up conv10_new
I0424 21:18:56.863271 22667 net.cpp:129] Top shape: 40 196 14 14 (1536640)
I0424 21:18:56.863279 22667 net.cpp:137] Memory required for data: 1235699040
I0424 21:18:56.863322 22667 layer_factory.hpp:77] Creating layer relu_conv10
I0424 21:18:56.863363 22667 net.cpp:84] Creating Layer relu_conv10
I0424 21:18:56.863376 22667 net.cpp:406] relu_conv10 <- conv10_new
I0424 21:18:56.863402 22667 net.cpp:367] relu_conv10 -> conv10_new (in-place)
I0424 21:18:56.863729 22667 net.cpp:122] Setting up relu_conv10
I0424 21:18:56.863746 22667 net.cpp:129] Top shape: 40 196 14 14 (1536640)
I0424 21:18:56.863754 22667 net.cpp:137] Memory required for data: 1241845600
I0424 21:18:56.863823 22667 layer_factory.hpp:77] Creating layer pool10
I0424 21:18:56.863848 22667 net.cpp:84] Creating Layer pool10
I0424 21:18:56.863857 22667 net.cpp:406] pool10 <- conv10_new
I0424 21:18:56.863909 22667 net.cpp:380] pool10 -> pool10
I0424 21:18:56.864267 22667 net.cpp:122] Setting up pool10
I0424 21:18:56.864285 22667 net.cpp:129] Top shape: 40 196 1 1 (7840)
I0424 21:18:56.864290 22667 net.cpp:137] Memory required for data: 1241876960
I0424 21:18:56.864295 22667 layer_factory.hpp:77] Creating layer pool10_pool10_0_split
I0424 21:18:56.864311 22667 net.cpp:84] Creating Layer pool10_pool10_0_split
I0424 21:18:56.864321 22667 net.cpp:406] pool10_pool10_0_split <- pool10
I0424 21:18:56.864332 22667 net.cpp:380] pool10_pool10_0_split -> pool10_pool10_0_split_0
I0424 21:18:56.864349 22667 net.cpp:380] pool10_pool10_0_split -> pool10_pool10_0_split_1
I0424 21:18:56.864362 22667 net.cpp:380] pool10_pool10_0_split -> pool10_pool10_0_split_2
I0424 21:18:56.864459 22667 net.cpp:122] Setting up pool10_pool10_0_split
I0424 21:18:56.864468 22667 net.cpp:129] Top shape: 40 196 1 1 (7840)
I0424 21:18:56.864475 22667 net.cpp:129] Top shape: 40 196 1 1 (7840)
I0424 21:18:56.864483 22667 net.cpp:129] Top shape: 40 196 1 1 (7840)
I0424 21:18:56.864490 22667 net.cpp:137] Memory required for data: 1241971040
I0424 21:18:56.864497 22667 layer_factory.hpp:77] Creating layer loss
I0424 21:18:56.864519 22667 net.cpp:84] Creating Layer loss
I0424 21:18:56.864531 22667 net.cpp:406] loss <- pool10_pool10_0_split_0
I0424 21:18:56.864540 22667 net.cpp:406] loss <- label_data_1_split_0
I0424 21:18:56.864549 22667 net.cpp:380] loss -> loss
…
